models/best_model.pth (torch, 253794 bytes, 13 tensors)

layers.0.weight f4 [32, 5]
000000 bb c3 26 3e fe d0 9a 3d ef 95 37 3d 09 7f a4 bd
       0.16285603 0.07559393 0.044820722 -0.080320425
000010 c7 06 30 bc 81 b8 20 3e 24 ea 07 3e 71 26 b3 bd
       -0.010743803 0.15695383 0.13272911 -0.087475665
000020 d5 c1 d2 3d df 53 0c 3b 07 d6 75 3b 63 63 4d bd
       0.10290877 0.0021412296 0.0037511603 -0.05014361
000030 ff 64 a5 3d 84 de 57 3d 2b 31 85 3d e8 cc d3 bb
       0.08075904 0.05270244 0.06503519 -0.0064636357
000040 c9 67 94 bd a9 f3 0c be 99 9a ca 3d d9 e8 c2 bc
       -0.07246358 -0.13764824 0.098927684 -0.023792671
000050 7b bb 90 bd b9 52 80 bd 7e 11 27 be eb de ca bd
       -0.07067009 -0.06265778 -0.16315266 -0.099057995
000060 36 95 25 bd 0c 6b f8 bd 0a 5d 86 bd 8a 4c ea 3c
       -0.0404255 -0.121297926 -0.065607145 0.02860095
000070 3d 1c 3b 3e eb 61 dc ba a0 02 11 3c 2d 65 c1 3d
       0.18272491 -0.001681385 0.0088507235 0.09443126
000080 b2 49 d7 bc ea 97 1d 3e 00 26 b9 3c a8 db 18 3e
       -0.026280258 0.15389982 0.022601128 0.14927542
000090 69 15 c9 bb b0 71 36 be 2b 84 06 be 24 1e 05 bc
       -0.0061365855 -0.17816806 -0.13136356 -0.008124862
0000a0 0f 39 4f be 3d 91 b5 bd e7 9d 56 3e 8d 3d 0d bd
       -0.2023661 -0.08865593 0.20958672 -0.034482528
0000b0 8b 8d 57 ba e9 a0 ab bd 17 3d 12 be 32 28 0e be
       -0.00082226907 -0.083803006 -0.14281116 -0.13882521
0000c0 d4 81 1e be 3c 26 4d bc fe 70 4d 3b e0 31 14 be
       -0.15479213 -0.012521323 0.0031347866 -0.14472151
0000d0 54 b1 ea ba 51 5d 56 be 46 60 ba ba 72 5b ed b9
       -0.0017905631 -0.20934035 -0.0014219366 -0.00045272295
0000e0 c7 26 29 bd 21 47 85 bd 9b b5 ae bd ff c8 85 3d
       -0.041296747 -0.065077074 -0.08530732 0.065324776
0000f0 00 aa 0f be 38 d8 1c be f6 14 81 bd 5e 9e 1d be
       -0.14029694 -0.15316856 -0.06302826 -0.15392444
000100 aa 37 97 3a c4 fc eb bd 6d b3 5d 3d 4f 74 13 be
       0.0011536975 -0.115228206 0.054126192 -0.14399837
000110 6b 20 37 be 87 c2 4f 3d 9b 36 5e 3c b0 38 c6 3d
       -0.1788346 0.050722625 0.013562824 0.09678781
000120 d9 8f 02 3e cc 6f e8 3d ea 14 70 3d 52 dd 31 be
       0.12750186 0.113494486 0.058613695 -0.17369583
000130 bc 1c 8b bd ff e1 e1 3d 08 a1 4a bc 96 b0 01 bb
       -0.0679259 0.110294335 -0.012367494 -0.0019789091
000140 13 93 ef bd d3 ad 49 bd b3 d0 30 3c 73 07 99 3d
       -0.11697974 -0.049238037 0.010791945 0.07472124
000150 04 89 81 37 af 89 39 3e 38 ec 78 bd 5b 17 26 3e
       1.5441801e-05 0.18118928 -0.06077215 0.16219847
000160 4f 34 61 bd 31 cc 79 3b 4f f0 24 3e 0c 0d 95 bd
       -0.054981526 0.0038116092 0.16107295 -0.07277879
000170 85 73 23 be cf 77 09 3e 72 78 f5 ba df 4f c0 bd
       -0.15962036 0.1342461 -0.0018727912 -0.09390234
000180 d8 f5 21 3e 2d b4 95 3d da 5e af 3d fa 11 39 bc
       0.15816438 0.073097564 0.085630134 -0.01129579
000190 16 02 d8 bd ed 53 98 bd 64 b1 d9 3d eb 74 ec 3c
       -0.10547273 -0.074378826 0.10629538 0.028864345
0001a0 71 02 fa 3b 4e eb 08 3d 49 ba 0d be d8 1b 29 bd
       0.0076296856 0.03342753 -0.13840593 -0.04128632
0001b0 88 fd 08 3e be 35 7b bb 3d 20 04 3e d2 f0 77 bd
       0.13377964 -0.0038331593 0.12902923 -0.0605324
0001c0 00 4d 24 3e 49 2d 4d 3e 6a 11 66 bd c9 21 42 be
       0.16044998 0.20036806 -0.05616895 -0.189582
0001d0 46 04 bb 3d f1 fe 5d be c5 25 1c 3e 3f c0 96 bb
       0.091316745 -0.21679284 0.15248783 -0.0046005542
0001e0 c1 41 1c be 7b 71 92 bd e7 f8 ab bd 0d 3d 96 bd
       -0.15259458 -0.07150551 -0.08397084 -0.07335863
0001f0 56 9c 36 bc 92 7e 6f bd f7 87 cc 3d d0 af 4e bd
       -0.011145672 -0.058470316 0.09986871 -0.050460637
000200 9c 72 2a be c9 b1 b6 b9 a1 1f f9 3c 2e f8 3e be
       -0.16645283 -0.00034846205 0.03041059 -0.1864936
000210 9d 36 37 3e 6d 76 33 be 1e 3f ef 3c 2c e3 e1 3d
       0.17891927 -0.17525645 0.029204901 0.11029658
000220 f8 08 c1 3c bc 03 31 3d 6b d5 16 be a5 eb 72 bc
       0.023563847 0.043216452 -0.1472985 -0.01482669
000230 45 72 d5 bc 4f 18 22 bd d6 06 0d 3d 0b d1 cf bc
       -0.026055465 -0.039573964 0.034430347 -0.025368234
000240 6b 1f 32 bd 47 d5 95 3d d5 b6 6a 3e 12 b3 46 3e
       -0.043486994 0.0731607 0.22921307 0.19404247
000250 b6 22 ce bd dd 97 2f bd e0 38 c4 3d a5 28 30 be
       -0.10065214 -0.042869437 0.095811605 -0.17203005
000260 62 ee b8 bd 7e f3 a7 3d df 36 8c bb 40 db 9c bd
       -0.09029843 0.08200739 -0.004279002 -0.07659006
000270 06 cc 75 be f4 1b 50 be b4 b2 d7 3d 30 88 39 3d
       -0.2400361 -0.20323163 0.10532132 0.045295894

layers.0.bias f4 [32]
000000 10 4b ae 3b be 18 39 3d 9b 1e fd 3b d9 9b 12 3c
       0.0053190067 0.04518961 0.0077245957 0.00894829
000010 1d cd fa ba 1a 46 d2 3c e9 4b b5 3c 7f 2d f0 ba
       -0.0019134615 0.025668193 0.022130923 -0.0018324106
000020 43 37 ed 3c ac 84 30 3c 29 79 c9 bb 78 74 79 bb
       0.028957015 0.010773819 -0.0061484766 -0.0038063806
000030 52 5f 85 bb fc b3 73 bc 60 e2 8b 3d 7b f4 33 3c
       -0.004070201 -0.014874455 0.06830287 0.010983582
000040 14 6a 43 3c 39 fd 52 3c c3 74 8e 3c bc c8 90 3d
       0.011927146 0.012877756 0.01738966 0.07069537
000050 da ce 12 bb 3c 4f 51 bb 32 fe 88 3c f2 de 00 3d
       -0.0022401125 -0.0031938097 0.016722772 0.031462617
000060 ef 93 57 bc 29 76 85 3c 11 a2 3d 3d ee 96 34 3c
       -0.013157829 0.016291695 0.046297137 0.011022313
000070 a7 e7 94 3c 32 7b c8 3b a5 53 8d b8 b2 1d bb bb
       0.018176867 0.0061182017 -6.738984e-05 -0.005710327

layers.1.weight f4 [64, 32]
000000 95 24 08 3e 34 2d 37 bd cb 5a a9 3d 63 78 3f bd
       0.13295205 -0.044720843 0.082692705 -0.04674567
000010 6f 99 6d 3d 13 e6 9c bd 35 cd f9 3d 9d 88 50 bd
       0.058007654 -0.07661071 0.12197343 -0.050911535
000020 33 69 2d bd 93 cc 82 bd ed 4d 78 bb 2a 53 90 bc
       -0.042336654 -0.06386676 -0.0037888244 -0.01761778
000030 a7 79 9b 3d ad 5e 09 3d c0 61 6a 3e ec 5d 38 bd
       0.07591563 0.033537555 0.22888851 -0.045011446
000040 a4 d9 83 3d 02 aa 9e 3d 7d a1 93 bd 47 01 9d bd
       0.06437996 0.0774727 -0.07208536 -0.07666259
000050 d9 b1 03 3d a3 7b d3 3c 3c a5 4b be 92 7c e2 3d
       0.03215203 0.02581579 -0.1988725 0.11058916
000060 24 76 d0 3d 5c a3 c1 3c fc 14 03 bd c5 e9 80 bb
       0.101787835 0.023637466 -0.032002434 -0.0039341175
000070 3a 71 82 3d 65 6b 0d be b9 f7 97 3d d1 90 ee 3d
       0.063692525 -0.13810499 0.07420296 0.11648715
000080 b3 76 85 3d 39 73 41 3d 0b d9 09 bd de 02 d8 3d
       0.06516781 0.047229026 -0.033654254 0.10547422
000090 1e 6d 9f 3d 9c bb 91 3d ce 37 dc bd 22 ec 7a 3c
       0.07784484 0.07115862 -0.107528314 0.0153150875
0000a0 82 82 48 bd c2 6d 5a 3d 86 e0 e1 3d 7d b7 dc 3d
       -0.048952587 0.05332733 0.110291526 0.10777185
0000b0 02 4e ce bc 34 8f 1f bd 88 67 3d 3d ae 89 37 bd
       -0.025183681 -0.03895493 0.046241313 -0.044809036
0000c0 7a 41 b7 bc a2 b4 df 3d 4e c3 27 3c fa 36 4d bd
       -0.022370089 0.10923125 0.010239435 -0.050101258
0000d0 f6 8c 19 3d 19 82 64 3c 99 a0 ef bc a9 e1 6d bd
       0.037487946 0.013947033 -0.029251384 -0.058076534
0000e0 63 e9 e9 bd 25 ff df bc e4 5a e0 3d 43 47 cc 3c
       -0.11421468 -0.027343342 0.10954836 0.024936324
0000f0 ac 4f c3 bb db 7b 97 3d 97 1e f7 bd 23 5e 84 bd
       -0.0059604254 0.073966704 -0.120663814 -0.06463268
000100 55 c6 59 3d b0 ed b5 3d 9a b1 c8 bd b9 b0 e4 bc
       0.05316766 0.08883226 -0.097995 -0.0279163
000110 34 46 ec bc 28 5d 69 bd 95 f5 26 bd ac dd 6a 3d
       -0.02884207 -0.056973606 -0.04076155 0.05734031
000120 1f b1 49 bd ee 58 91 3d 97 e9 37 3d bb 0f 91 bc
       -0.04924118 0.0709704 0.044900503 -0.017707696
000130 07 aa 95 bc d1 57 17 be 03 7a de 3d 5f 6d 35 bd
       -0.018269552 -0.14779593 0.10863116 -0.044293758
000140 d2 b6 db 3d 1b 02 25 bd 1f 80 2f 3e ef d8 8a 3b
       0.107282296 -0.04028521 0.17138718 0.0042372863
000150 e4 58 bc bc f0 6e 79 3d 41 c6 19 3e 74 50 3d bd
       -0.022991605 0.060896814 0.15017034 -0.046219304
000160 5b fa 86 bc 55 cb 18 bd 06 dc b5 bd ae e9 a7 bd
       -0.0164768 -0.037303288 -0.08879857 -0.08198868
000170 f8 28 a0 bd ea 79 a1 bd 9c 24 58 b9 49 54 fa 3d
       -0.07820314 -0.078845814 -0.00020613003 0.12223107
000180 50 03 25 3e 77 41 08 3e da ea 2a bd 6e 7e 98 bc
       0.16114545 0.13306223 -0.04172788 -0.018614974
000190 34 8c 99 bd 54 3c 2f bd 8b 1d 24 bc 5a 64 42 3d
       -0.07497445 -0.042782143 -0.010016809 0.047458984
0001a0 5d 69 95 bd 7a 11 b3 bd b9 f1 b7 3d 11 f8 b5 bc
       -0.07295487 -0.08743568 0.08981652 -0.022213014
0001b0 53 bf 16 bd c8 59 23 3d 05 0b fb bc d5 c9 05 bb
       -0.036803555 0.039880544 -0.030644903 -0.002041449
0001c0 6b 10 55 3d d8 15 00 3e 83 38 05 3e 4a 09 c9 3c
       0.05201761 0.12508333 0.13009839 0.024540562
0001d0 63 2d de 3c 07 40 62 bd df 50 b0 3d 0f c6 11 3d
       0.027121251 -0.055236842 0.08609175 0.035589274
0001e0 c3 14 d3 3d da ed 04 3d c1 18 0b 3d 80 11 8a 3d
       0.10306694 0.032453395 0.033959154 0.06741619
0001f0 74 4c ec bd e3 ed 29 bd ca af 15 3d db f5 52 bd
       -0.1153802 -0.041486632 0.0365446 -0.051503997
000200 fd ad a9 bd f3 f2 2a 3d 6e b9 45 3d 3e 0d ac 3d
       -0.08285139 0.0417356 0.048272543 0.08400963
000210 b4 71 36 3d 3e 05 0e 3e fc f3 94 3d 05 1f 22 be
       0.04454203 0.13869187 0.07273099 -0.15832146
000220 96 66 15 bc 80 37 32 bc 53 27 30 3d cf f4 91 bd
       -0.009118697 -0.01087749 0.043006252 -0.07126772
000230 7b 7e 2d bd 9b 64 eb bc d1 ff 86 bd 86 33 3f bd
       -0.04235695 -0.028734496 -0.06591762 -0.046679996
000240 1e 90 b6 3d a9 26 86 3c b0 c2 d7 3d ec ff 1b 3d
       0.08914207 0.016375856 0.105351806 0.038085863
000250 51 fc 0b 3c 51 b7 b5 3d 34 55 cb 3d e3 96 dd 3d
       0.008544044 0.088728555 0.099283606 0.10819795
000260 46 e2 71 bc 2e 13 6b 3d a0 d2 28 bd 93 6c 95 bd
       -0.01476342 0.057391338 -0.041216493 -0.072960995
000270 05 ac 70 3d ef 8c 5c be 40 8d 33 3d 6b 54 33 bd
       0.0587578 -0.21538137 0.04383588 -0.04378168
000280 e0 2a 4e bd 2f aa 4e bd 12 c2 bb 3d 0c 39 24 bd
       -0.050333858 -0.05045527 0.09167875 -0.040093467
000290 93 39 83 bd 1e 28 92 3d 73 01 08 3e 56 58 6f be
       -0.06407466 0.07136558 0.13281803 -0.23373541
0002a0 4a 03 27 be 89 4b 15 3c 3b 08 bf bd ea bb d8 3d
       -0.16309848 0.009112247 -0.09327742 0.10582717
0002b0 ad 9b a4 3c 45 df 54 3c 39 40 13 3d 8c a6 a6 bd
       0.020093763 0.012992685 0.03594992 -0.08137235
0002c0 8d 50 1c bd f1 ab 49 39 d6 58 ca 3d 48 00 4d 3d
       -0.038162757 0.00019232907 0.09880225 0.050049096
0002d0 bf af 82 3c 7c 6d 0a ba ae 35 b7 3d 51 96 a1 bd
       0.015952943 -0.00052805967 0.089457855 -0.07889999
0002e0 82 99 92 3d c9 d7 ef 3d cf b7 43 3b ee 4c 48 3c
       0.071581855 0.117110796 0.0029864197 0.012225373
0002f0 87 8b c9 3d b8 2c c7 3b d3 b1 03 3e 3c e9 9a 3d
       0.09841066 0.006078329 0.12860803 0.07564017
000300 32 64 dc 3c 47 b9 89 3c 70 4d 87 bd e4 d6 91 be
       0.026903246 0.01681198 -0.06606567 -0.2848426
000310 cc f5 5a be 84 bc 4e bc 28 08 d1 bd 2f 0f 35 3d
       -0.21382827 -0.012618188 -0.10206634 0.044203933
000320 8d 9a e7 3d fa b9 23 3a 59 74 4a 3d ec 57 79 3d
       0.11308775 0.0006245669 0.049427364 0.060874864
000330 33 2c 1e 3e 46 30 de bc 4b a2 aa 3d f4 20 9b bc
       0.15446548 -0.027122628 0.08331736 -0.018936612
000340 03 85 ac bd 2a 43 83 bc 6b d8 82 bd c9 4d 09 bd
       -0.084238075 -0.016023237 -0.06388935 -0.033521447
000350 c7 88 85 bc 2d f4 4c be d3 48 1c be 34 96 1d 3d
       -0.016300572 -0.2001502 -0.15262155 0.038473323
000360 92 87 13 3b 42 01 cc be dd 8b c8 bd 80 c6 79 bd
       0.0022511226 -0.3984471 -0.09792302 -0.06098032
000370 f3 ee 8c bb 9a 9b f3 3d 5b 9d 29 3e 53 f9 5a be
       -0.004300946 0.11894913 0.16563933 -0.21384172
000380 f9 d1 e3 3d 91 4c 02 3e 16 9b e0 3d ad de c7 3c
       0.111240335 0.1272452 0.1096708 0.024398172
000390 23 46 17 be 70 aa 2e bc 6c 6d 81 3d 4b bd 83 3d
       -0.14772849 -0.010660753 0.06319699 0.06432589
0003a0 bb ad 01 3e 61 7d f7 bc 20 c2 57 bd dd be 28 bd
       0.12663929 -0.030211153 -0.052675366 -0.041197646
0003b0 b2 a3 e2 bd 5f 1e e0 3d ad c0 55 3d ca 85 ce bc
       -0.11066379 0.10943293 0.052185703 -0.02521028
0003c0 b9 8d af bd 25 44 3e bd 4e 5a 99 3d 24 67 8d 3b
       -0.08571953 -0.046451706 0.074879274 0.004315274
0003d0 8c d5 09 3d ab a5 ca bb 92 53 fd bd 59 ff df bd
       0.03365092 -0.0061843 -0.123694554 -0.109373756
0003e0 7f cd 49 be 8c db fc bd 57 f8 8e bd 4f 8d ea 3d
       -0.19707297 -0.12346563 -0.06980961 0.11452734
0003f0 5a 96 39 3e 21 82 99 bd 58 26 94 bc 76 bf 5b bc
       0.18123761 -0.07495523 -0.01808469 -0.013412347

layers.1.bias f4 [64]
000000 fb 3b 10 bd 1d aa 24 3c 9c f8 f9 3c 53 a3 c9 bc
       -0.03521345 0.010050324 0.030514054 -0.024614012
000010 cb 8a e7 3b 09 00 9e 3c 78 a1 2a bb f4 4e cb bb
       0.007066106 0.019287126 -0.0026036184 -0.0062044803
000020 1b 34 37 bb 74 a2 48 3c 02 aa 12 bc 5d 34 92 bc
       -0.0027954641 0.012245763 -0.008951666 -0.017847234
000030 01 a3 4c 3d f7 01 1b 3d 4c d8 01 3c 32 3d 3e 3d
       0.04996014 0.03784367 0.007925104 0.04644508
000040 01 57 c2 3b 92 1f 46 3b b5 c8 08 3c f9 e4 dd 3c
       0.005930782 0.003023122 0.008348634 0.027086722
000050 e0 e7 31 3c 56 bd 60 3c 99 10 79 3c ca cc 93 3c
       0.010858506 0.013717016 0.015201711 0.018041987
000060 51 ba c2 3b 83 c5 7b 3c 39 cc bb 3c 94 e6 da 3c
       0.005942621 0.015366915 0.02292453 0.026721276
000070 ea ef ef bb 2c c5 27 3d a6 9c 3a bc 64 7f 86 bc
       -0.007322301 0.040959522 -0.011389887 -0.016418166
000080 c4 33 43 ba e7 9a 03 3c 5f 58 00 3c b8 4a 97 3c
       -0.00074463733 0.008032537 0.007833569 0.018468246
000090 93 2f 85 3b fc f9 e4 3c 1b 23 a4 38 86 8a 5b 3c
       0.004064509 0.027951233 7.826668e-05 0.013399726
0000a0 38 99 5d 3b 73 30 4c bd 35 b2 45 3c c3 88 55 bc
       0.003381325 -0.049850892 0.012066414 -0.013033095
0000b0 e2 22 a3 bb f3 d7 10 3c 0b 19 80 bc a6 5a ac 3c
       -0.0049785236 0.008840549 -0.015636941 0.021039318
0000c0 a1 4f 3d 3c 92 29 b5 3b a3 b1 32 bc 45 da 74 3b
       0.01155463 0.005528637 -0.01090661 0.0037361544
0000d0 88 8c 90 3b a4 4e 09 bd c4 f6 89 3c 52 fa c4 ba
       0.004411284 -0.033522263 0.0168413 -0.0015028215
0000e0 7e 81 db 3b c7 d5 f0 3b e2 fc 51 3b 4b a6 a8 3c
       0.0066987863 0.007349703 0.00320416 0.020587107
0000f0 0c 42 ce 3c c8 b0 d9 bb ab 93 7b 3c 0c 37 81 ba
       0.025177978 -0.0066433884 0.015355031 -0.0009858324

layers.2.weight f4 [128, 64]
000000 f5 fa 8b be d2 a5 8b bd 9d c7 6d bc a7 7a 16 be
       -0.27339903 -0.06818737 -0.014512924 -0.14695226
000010 06 5e 05 be 75 e3 7c 3d 9f f3 2a 3d b2 b0 c7 bc
       -0.13024148 0.061740357 0.04173624 -0.024376247
000020 7c 5b a0 3d 96 d3 69 3d a6 4c 80 bd ff dc 2c bd
       0.07829949 0.05708655 -0.062646195 -0.042202946
000030 17 b3 15 3e cf cb c0 3d ca 28 96 3d 45 68 9f be
       0.14619099 0.094138734 0.07331999 -0.3113424
000040 e7 0e ff bc a9 99 68 be f0 4e 87 3d e6 36 90 3c
       -0.031135036 -0.22714867 0.06606853 0.017604303
000050 53 6e 95 bd 3e 64 5b bd d0 b1 26 3d 80 25 af bd
       -0.07296433 -0.053562395 0.04069692 -0.085520744
000060 b7 0d 22 be e0 d2 44 3e f0 98 27 bc db 5f b5 bc
       -0.15825544 0.19221067 -0.010229334 -0.022140434
000070 14 e5 ec bd a7 e6 53 3e 6e 2a 03 bf 55 d8 22 bd
       -0.11567131 0.20693456 -0.5123662 -0.03975709
000080 00 ca 05 bd 51 49 a6 bd e1 a1 1b 3d 2f 70 3c bc
       -0.032663345 -0.08119453 0.037996177 -0.011501356
000090 e9 ad 2b bd 92 be 9a 3d 10 02 6a bd 59 25 62 3d
       -0.0419139 0.0755588 -0.057130873 0.0552114
0000a0 b5 78 0b 3d bc e0 43 3e 08 5d 2d be 8a 64 fb be
       0.034050662 0.19128698 -0.1693002 -0.49100143
0000b0 16 81 40 3e be 2f 05 3d 61 f4 e2 3b 37 4b a2 bd
       0.18799242 0.032516234 0.006926105 -0.07924502
0000c0 aa b6 86 bd d0 d6 8f bc 18 ce 87 be ad b5 67 3e
       -0.06577809 -0.017558485 -0.26524425 0.22627898
0000d0 28 86 9d 3c 88 a4 95 be 60 8c 96 bc 87 a9 d4 bd
       0.01922901 -0.2922709 -0.018377483 -0.10383897
0000e0 8a 3d 63 bb c9 79 5b be 39 33 e5 be e7 ff cc bc
       -0.0034674131 -0.21433176 -0.44765642 -0.025024367
0000f0 27 72 94 bd 60 9c 3d 3e 69 fe 67 3d df 2f b7 3d
       -0.07248335 0.18516684 0.05663911 0.089446776
000100 cd b9 ba 3e fa df b8 3d 56 c5 70 3d 2b ce 0a 3d
       0.3646988 0.09027095 0.058781944 0.033888023
000110 e8 c4 1f bb b4 bf 40 bd fc ed 8e 3c 86 c9 e1 3d
       -0.002437884 -0.047057822 0.017447464 0.11024766
000120 45 a8 19 bc cf 30 ab 3d b3 00 b4 3c 79 ba 4c 3d
       -0.0093784975 0.08358919 0.02197299 0.04998252
000130 f8 6f c2 bd 38 89 d1 3a d3 e4 7b bd 06 dc 76 bd
       -0.094940126 0.0015986329 -0.06149752 -0.060268424
000140 6a 59 0b 3e 5c 52 2b bd e1 77 27 3c 9d 40 9e bc
       0.13608328 -0.04182659 0.010221452 -0.01931792
000150 01 8d 8b 3b b0 25 13 bd 5c c0 3b 3d f2 17 80 3d
       0.0042587523 -0.035924613 0.045837745 0.06254567
000160 0f 61 c4 3d 14 4d 79 bd 9f 6d e9 3c eb 76 64 bd
       0.09588825 -0.060864523 0.028494654 -0.05577747
000170 cc 3d 77 bd 57 ac 90 3c c3 bb 29 bd 26 8f ac bb
       -0.06036167 0.017660303 -0.04143883 -0.005266088
000180 e4 04 ea ba ba b7 10 be 01 73 c6 3c 95 ad 41 bd
       -0.0017854241 -0.14132586 0.02422476 -0.04728468
000190 ab 35 78 3d 2f f5 a1 3d 8a 2f 17 be ec 7a 4d 3d
       0.060598057 0.07908093 -0.14764228 0.050166056
0001a0 2c c4 da bc be cf d3 bd d6 e8 fc bd 74 7d 95 bd
       -0.02670487 -0.10342358 -0.123490974 -0.07299319
0001b0 f2 f0 75 3d ae e1 89 bd c8 a3 a6 3d 14 95 5f 3c
       0.060044236 -0.06732498 0.081367075 0.013646383
0001c0 e4 eb 7c bc be 83 95 3d a5 20 ee bc b1 58 88 3a
       -0.0154371 0.073005185 -0.0290683 0.0010402409
0001d0 26 91 c7 bc ba 68 0f 3e 9c fd 0d 3e 7a 0a 81 bd
       -0.024361204 0.14004794 0.13866276 -0.06300826
0001e0 67 4d 57 3d a7 55 c2 bd 6e b1 67 3d 45 6b c1 3c
       0.05256405 -0.09488993 0.056565695 0.02361072
0001f0 fa dc 1e bd 3d 30 25 bd 4e ba 63 bc f2 35 ba bc
       -0.03878496 -0.040329207 -0.013899399 -0.022730801
000200 84 f1 eb 3d 4d f8 a8 bd 0c de 9b bd 5e af c8 bc
       0.11520675 -0.082504846 -0.076107115 -0.024497684
000210 3a 12 c7 3c 18 55 b1 bc 77 56 4a 3e cc 35 46 3d
       0.024300683 -0.021647021 0.19759546 0.04839115
000220 7b bb b6 3d ef c2 26 3c e2 08 2e be 69 c7 85 3d
       0.08922478 0.010178312 -0.16995576 0.06532175
000230 3c 20 4e 3d ba 6a 69 bd 0f e2 40 bd 70 7c df 3c
       0.05032371 -0.056986548 -0.047090586 0.027281016
000240 fb b4 8b bd dc 17 85 3d 68 82 34 bd 47 83 52 bc
       -0.06821629 0.064986914 -0.044069678 -0.012848682
000250 6b 93 e9 bc b2 de 03 bd d0 b7 84 3b 70 35 b7 bc
       -0.028512677 -0.0321948 0.0040502325 -0.022364348
000260 39 64 b1 bd 48 dd c3 bd 16 76 e4 bd 99 48 cb bd
       -0.08661694 -0.095636904 -0.111553356 -0.09925956
000270 b7 9e b2 3c ef 3c 99 3d 08 26 d8 3d 2d 06 1f 3d
       0.021804197 0.07482325 0.10554129 0.03882425
000280 82 4f ed bd ca 6d 4f bb 8c b4 0d bd 39 af cd bd
       -0.115874305 -0.0031651133 -0.03459601 -0.10043187
000290 f6 50 54 be 19 65 08 bd 86 01 62 bd 9f 64 b3 3d
       -0.20734009 -0.03329954 -0.055177234 0.08759426
0002a0 3a 32 8c 3c 33 58 fd 3c 91 67 19 3d 80 1b ef 3c
       0.017113794 0.030925846 0.037452284 0.029187918
0002b0 5f 67 2b 3d 29 8e 82 3d a6 8b 34 3d 4a 24 3c 3e
       0.04184663 0.06374771 0.04407849 0.18373218
0002c0 5d 5a 04 3e b6 79 e8 bd a6 17 99 bb 14 29 d4 3b
       0.12925096 -0.113513395 -0.0046720086 0.0064746235
0002d0 21 f1 d3 bc cc cb 14 3d 0e d5 fc 3c 96 9c 69 3c
       -0.025871815 0.03632717 0.030863311 0.014258524
0002e0 cc 21 7f bd a3 f0 57 bd 92 4b 07 3e 55 79 f2 ba
       -0.06228809 -0.052719723 0.13212422 -0.0018499295
0002f0 ec 38 9e bc 3e fe 0f bd 69 ea ed 3b 71 7c 1d 3c
       -0.019314252 -0.035154574 0.00726061 0.009612189
000300 4e 5c 7e 3d b0 19 be 3c c9 01 97 bd a1 55 9c bd
       0.062099747 0.023205608 -0.07373387 -0.0763352
000310 9e cf 98 bc 1e 8c 95 bd d9 8b 1b 3c 88 7f aa 3c
       -0.018653687 -0.07302116 0.0094937915 0.020812765
000320 15 0c e1 3d 0d b5 14 3b 7f c6 64 3d 24 73 af 3d
       0.109886326 0.0022690922 0.055853363 0.08566883
000330 c1 ba 80 bd 9b 0c f8 bb 38 1f be bd 7a 52 9a 3d
       -0.062856205 -0.007569862 -0.09283298 0.075352624
000340 c7 4e fd bc b9 c1 2e 3d ca 51 a3 bc 7a 40 c5 3d
       -0.030921353 0.042665217 -0.019936461 0.096314386
000350 e6 c6 ed bc 55 ff ec bd 3b 5a c1 bb 5b 3c 92 bd
       -0.029025506 -0.11572138 -0.005900649 -0.07140418
000360 0e 5a 97 3d 78 a8 91 3d 64 33 9c bd 71 40 72 3d
       0.073902234 0.07112211 -0.076269895 0.059143487
000370 9b 5d d0 bd 8b 17 a7 3d 67 13 30 3d ce b1 83 3d
       -0.10174104 0.08158787 0.042987254 0.06430398
000380 22 1d 1e bd 65 c9 cc 3d 6e a7 dc bd d8 5e 47 3b
       -0.038602002 0.099993505 -0.10774122 0.0030421522
000390 a7 ca 40 bc df 1c 0b bd e6 3b 82 3d 2c 41 d0 3d
       -0.011767066 -0.03396308 0.06359081 0.101686805
0003a0 93 59 aa 3d 1b 71 7a 3d 76 52 b6 3d 36 b3 dc bc
       0.08317866 0.061143022 0.08902447 -0.026940923
0003b0 63 e1 c5 bd eb 7c 82 3c 83 5a 66 3c ad a0 45 be
       -0.0966213 0.015928706 0.014059666 -0.19299574
0003c0 2e 01 7c 3d 17 0b 98 3d 1d 31 10 3d 6b 47 9b 3d
       0.061524563 0.0742399 0.035203088 0.07581981
0003d0 e1 83 6c bd 11 ff 9d bb e2 12 4d 3d 2b 97 8c 3c
       -0.057742957 -0.004821666 0.050066836 0.017161926
0003e0 a4 28 17 3c 2a e4 0e 3e 0b b0 e4 bd 4e 20 8b 3d
       0.009225998 0.13954225 -0.1116639 0.06793271
0003f0 bb 8d af bc 23 2c 7c 3b 8c 87 37 bc 0f 31 e5 3d
       -0.021429887 0.0038478456 -0.0112017505 0.11190998

layers.2.bias f4 [128]
000000 79 25 b4 bb 0e 44 5c bc 51 ed 24 3b 96 8a 78 3c
       -0.005497631 -0.01344396 0.0025165866 0.01516976
000010 35 b4 9d bb fb 7a c8 bb 81 23 b8 3c 29 e4 36 3c
       -0.004812742 -0.006118176 0.022477867 0.011162796
000020 1c 94 e1 39 53 4d f6 3c 7c b7 fe bb da d9 86 bc
       0.00043025694 0.030066168 -0.007773338 -0.016461302
000030 8f 83 df 3b a8 da 31 bc dd 9a 33 3b 59 59 af 3c
       0.006821103 -0.010855354 0.0027405538 0.021404909
000040 38 30 c0 3b 65 0f aa 3c af 91 91 b9 2e 36 95 3c
       0.005865123 0.020759294 -0.00027765098 0.018214311
000050 e7 54 94 3b df 21 35 3d 1e a4 5e 3b da 40 dd bb
       0.0045267227 0.044221755 0.0033972333 -0.0067521157
000060 cc 32 97 3c 1c 72 1d 3c df 8d bd 3b fa 94 12 3d
       0.018456839 0.009609725 0.0057847346 0.035786606
000070 67 18 10 3d 1a d0 1f 3c 2c 71 7b 3c 3e 79 7a bc
       0.035179522 0.009754205 0.0153468065 -0.015287695
000080 4a 72 da bc 12 66 51 3c 16 7e 5f 39 71 f5 21 3b
       -0.026665825 0.012780683 0.00021313908 0.0024712945
000090 0a 1f bd 3c 8a 5d c4 3c c1 c3 2e 3d e3 50 c2 ba
       0.02308609 0.023970384 0.042667154 -0.0014825132
0000a0 c4 89 32 3d 5b ea 40 bd 9d 32 d7 3b 84 fb 85 3c
       0.043588415 -0.0470985 0.006567313 0.016355284
0000b0 65 e7 8e 3c a6 15 24 3b 66 a1 09 3d 3a df b2 bc
       0.017444322 0.0025037318 0.033601187 -0.021834958
0000c0 87 b4 fa 3a 9f 4d ac 3c d8 f4 76 3c 0a 7c 29 3c
       0.0019127288 0.021033106 0.015073024 0.010344515
0000d0 dc 8e b7 3b 4a e7 8e bc f5 47 a4 3c 3f 79 38 bc
       0.005601747 -0.017444272 0.020053843 -0.011259376
0000e0 3b 62 b5 3c 9c a4 64 ba 57 1d 44 3b 78 0d 16 ba
       0.022141567 -0.00087220385 0.0029924714 -0.0005724053
0000f0 77 72 93 3b fb d6 0a 3c 3d 5a 39 bc c2 93 d4 bb
       0.0044997293 0.008474107 -0.011313018 -0.0064873407
000100 28 62 22 bc cd 55 a1 bb 58 32 18 bc c7 ac a9 3c
       -0.009911098 -0.0049235583 -0.009289347 0.02071227
000110 49 ce 22 bd f9 45 08 3d ac 31 1d bc 93 4c 12 bc
       -0.03974751 0.033269856 -0.009594362 -0.0089293895
000120 84 39 18 bc f7 02 ff 3b 44 ba 5e ba a5 bd fa 3c
       -0.009291057 0.007782336 -0.00084963837 0.030608008
000130 ba d6 00 b9 07 6a cf bb e3 f2 0a 3d e3 de d4 3c
       -0.00012287023 -0.006329778 0.03392304 0.025985187
000140 c5 48 c8 bc 24 90 70 3c bb 11 a9 3c 32 7a dd 3c
       -0.024448762 0.014682803 0.020638337 0.027035806
000150 bc 62 ee bb 59 cb 8b 3c fb fb 30 bb cd de 54 3b
       -0.0072749536 0.017064737 -0.002700566 0.0032481432
000160 e3 61 25 bc e1 87 03 3c 4e ba 13 bc 9c 0f d1 3b
       -0.010094139 0.0080280015 -0.0090165865 0.0063800346
000170 c7 96 5f bb ae 99 d5 3c 46 f0 2e 3c 90 ac ab 3c
       -0.003411697 0.026074257 0.010677403 0.020956308
000180 80 15 4d 3b f6 f0 58 3c 68 be 6b 3c b4 95 af bb
       0.0031293333 0.013241043 0.014388658 -0.005358422
000190 7e 12 e6 3c fb 6c bf 3b 44 f3 98 3b 99 2c 2c 3c
       0.02808499 0.005841849 0.0046676714 0.01050868
0001a0 83 24 b1 b8 ae c3 16 bc 05 d1 07 3d 3a 00 ef 3a
       -8.4468185e-05 -0.009201927 0.03315832 0.001823432
0001b0 56 70 e2 3c b8 95 de b9 ff 94 3d bc b5 81 86 bc
       0.027641457 -0.0004245469 -0.011571168 -0.016419271
0001c0 f3 99 d4 bb a3 93 ed 39 4f ef 0b ba 3f 7b 47 3c
       -0.0064880787 0.0004531416 -0.0005338089 0.01217538
0001d0 e6 44 d8 3a 0b 3d c2 3b 35 4f 75 3c 9f d9 1b 3d
       0.0016500026 0.005927687 0.014972498 0.038049337
0001e0 ec 57 2d 3d 3a 5c d9 bb 93 2f f7 3a d6 b0 ac 3c
       0.042320177 -0.0066333087 0.0018858783 0.021080416
0001f0 86 18 83 3b 85 c3 ed bb bd ed 60 3b 52 d1 6d 3b
       0.004000726 -0.0072559738 0.003432139 0.0036288095

layers.3.weight f4 [256, 128]
000000 0d e9 17 bb ba 74 f0 3c cd c8 ed 3c 56 d5 4c bd
       -0.002317968 0.029352535 0.029026413 -0.05000814
000010 5d 57 9d 3c 74 a4 4a bd c1 d9 e7 bc 61 6f 8e 3c
       0.019206697 -0.04947324 -0.028302075 0.017387094
000020 88 e4 d2 3c 18 88 f2 bc ef a2 e0 bc 77 ea 9f bb
       0.025743738 -0.02960591 -0.027421443 -0.0048802453
000030 cd f4 a0 3c 49 8e 39 bc 00 a3 61 3b 2c c6 e1 ba
       0.01964798 -0.011325427 0.003442943 -0.0017225198
000040 32 a5 b5 3c 3c 2a 36 bd 07 b9 9f bc 89 46 37 bd
       0.022173498 -0.04447387 -0.019497408 -0.044745002
000050 0e e7 7d bc 3d 6d f5 3c 10 cd 65 3c 82 e3 d9 bc
       -0.015496982 0.029959315 0.0140259415 -0.026597742
000060 4b d5 98 3c a2 f6 ce 3b 33 c8 f3 bc 88 c2 31 3d
       0.018656394 0.006316022 -0.029758548 0.04339841
000070 66 cd 18 3c fe dc d1 bc 59 89 3a 3c 47 db 90 bc
       0.009326315 -0.025618073 0.011385285 -0.017682685
000080 aa 24 5e bc 9c 2e d6 3c c7 39 aa bc b1 1e 68 bc
       -0.013558546 0.026145272 -0.020779504 -0.014167474
000090 1b e7 fd 3b 1c 57 86 bc 22 fd dd ba f2 5f 27 bb
       0.007748497 -0.016398959 -0.0016936401 -0.0025539366
0000a0 08 2f b8 bc 02 7c 86 bc 54 cc cc bc 62 2b c4 bc
       -0.022483364 -0.016416553 -0.024999775 -0.023946468
0000b0 6f a9 b8 3c dc 6c 4b bc fd 3d fe bb 95 ba 70 bc
       0.02254173 -0.012416091 -0.0077588544 -0.014692922
0000c0 ac 64 bd bc ea 0d d2 bc e8 98 2d bd 08 18 f1 bc
       -0.023119293 -0.0256414 -0.04238215 -0.029430404
0000d0 8d ca 02 bc 32 3a 21 ba d4 89 a9 3c ad cf fe 3c
       -0.007982862 -0.00061503344 0.020695604 0.031104887
0000e0 f1 50 2f bd 26 43 57 bb 04 2e d6 bb 26 61 29 bd
       -0.0428018 -0.003284642 -0.006536247 -0.041352414
0000f0 b2 6a cc bc bf d1 23 3c 02 29 4e bc ab 1d ba bc
       -0.02495322 0.009998738 -0.012583019 -0.022719225
000100 79 fe 18 3d 4e 38 b2 3c de 7a c1 bb f1 3f 8f bc
       0.03735206 0.021755364 -0.0059045395 -0.017486544
000110 37 27 92 3c 56 ca 44 bc 3f a3 34 bd ca 0c 48 bc
       0.017840965 -0.012011131 -0.044100996 -0.01221008
000120 cf 3c 87 3c ee 54 4d 3c 42 b5 29 3d 60 2b 47 bd
       0.016508488 0.012532456 0.041432627 -0.04862535
000130 d4 8b c3 3b a8 8f da bc a4 41 27 bc 7c af 10 bd
       0.0059675965 -0.026679829 -0.010208521 -0.035323605
000140 e0 64 0f 3d c9 13 37 bd 40 4e 3f bd b8 f3 b8 3b
       0.03500831 -0.044696603 -0.046705484 0.005644288
000150 af 1c 90 bc bf e7 e3 bc cf 92 a4 bc 8c ba 32 bd
       -0.017591802 -0.027820466 -0.020089535 -0.043634936
000160 c6 d6 58 3c 80 5f 47 bd 9d f7 93 3c 6e e3 e2 3b
       0.0132348 -0.04867506 0.018062407 0.0069240844
000170 8b 1b 2b bd c8 9f 04 3c 67 36 48 bd 45 8e bd 3c
       -0.041774314 0.008094735 -0.048880007 0.023139128
000180 76 d5 3b bd eb 2c 22 bd bd 4c 17 bd bd 13 ac bc
       -0.04585787 -0.03959362 -0.036938418 -0.021005506
000190 a6 de 53 bc b0 60 b1 bc a2 fe 86 39 76 b4 22 3d
       -0.0129315015 -0.02165255 0.00025748188 0.039722882
0001a0 3e b0 9e 3b 76 f2 c1 bc e4 0b 21 3d 8e e5 8a 3c
       0.004842787 -0.023675185 0.03931798 0.016955163
0001b0 90 d6 a5 3c 40 9e d3 3c c1 38 af bb 32 86 3c bd
       0.020243913 0.025832295 -0.0053473418 -0.046026416
0001c0 16 bc cd 3c 7d 59 19 3d e4 9d b5 bc 44 3b 3c bd
       0.0251141 0.03743886 -0.022170015 -0.045954958
0001d0 10 91 27 3d 8b 9d 01 3d f8 5b ea bb fa 2c 2c 3d
       0.040909827 0.031644385 -0.007152077 0.04203508
0001e0 e1 bf e5 3c 3a f4 55 bc c6 ad d6 3c df 2f 1b 3d
       0.028045597 -0.013058716 0.026205909 0.03788745
0001f0 01 a4 2d 3c 8e 44 df 3b cf 23 0b bd fb a2 20 bb
       0.010598184 0.0068135923 -0.033969697 -0.0024511206
000200 73 a5 a9 bd c2 3e 7a 3c 4b 71 39 3c 85 73 48 bd
       -0.0828351 0.015273752 0.011318515 -0.048938293
000210 0b 72 f8 3d 1c 26 a7 3c d3 a3 e5 bc 64 81 df 3d
       0.12131127 0.020403914 -0.028032219 0.10913351
000220 da 4c 85 bd 01 fe 44 bd 65 8d a1 3d 64 3f 20 3d
       -0.06508799 -0.0480938 0.07888297 0.039122954
000230 a2 95 94 3b 4a ae d7 be 89 9f 37 bd 32 3b c6 bd
       0.004534439 -0.4212516 -0.04482988 -0.09679259
000240 a8 a3 15 bd 5e 76 94 3d e3 fa 0a 3d 9e b3 39 bc
       -0.036533028 0.07249139 0.03393067 -0.011334328
000250 de be 20 3d 83 36 1a 3d 26 15 78 bc b0 22 e7 3d
       0.039244525 0.037649643 -0.015141761 0.11285913
000260 11 ab 2a bc 15 ef b5 3d 6a 22 60 3d 92 b7 a1 bd
       -0.010416762 0.08883492 0.05472032 -0.078963414
000270 27 17 26 3d 93 2d ca 3d 56 03 9f bd 9f d8 b0 ba
       0.040549424 0.09871974 -0.07764308 -0.0013492292
000280 77 9e e9 3d e3 0e a0 3d 23 7a 80 3d cd 88 a6 bd
       0.11407178 0.078153394 0.06273296 -0.081315614
000290 4a de 40 bd 20 74 01 be 4a a0 9f bc 98 ac b2 bd
       -0.04708699 -0.12641954 -0.019485611 -0.08724326
0002a0 31 98 b1 bc 54 55 da 3d 31 d8 8c 3d 9f f8 da 3c
       -0.021679016 0.10660806 0.06877173 0.02672988
0002b0 e2 d8 ad 3d d8 d1 ad bc 8b 3c bd bc 42 63 f4 3d
       0.08488633 -0.021218225 -0.023100158 0.119329944
0002c0 96 1f 84 bd 69 9c 77 bd ef 94 f2 3b 86 72 ed 3b
       -0.06451337 -0.0604519 0.007403008 0.0072463183
0002d0 c1 e9 78 bc 71 54 2f 3d dd 8e 32 bd 95 d0 cd 3d
       -0.01519245 0.04280514 -0.043593276 0.100495495
0002e0 9f f4 ee 3b be d6 8c bc 54 88 e2 bd ec ad e2 bd
       0.0072923447 -0.01719224 -0.11061159 -0.11068329
0002f0 01 73 91 bc 60 3b 42 3d d7 3f 2d 3c de 86 85 3c
       -0.017755033 0.047419906 0.010574303 0.016299661
000300 7b 27 42 3d 97 92 1c 3e 0c c3 dc bd 64 de 79 3b
       0.047400933 0.15290295 -0.1077939 0.003812694
000310 36 54 d2 bc e5 e5 89 bd 49 0b 48 bc 40 f0 9e 3d
       -0.02567492 -0.06733302 -0.012209722 0.07760668
000320 fc 88 fd bd 2e b4 df 3d 8e c3 9c bd d2 a5 ed bb
       -0.12379643 0.109230384 -0.076544866 -0.0072524333
000330 49 8b 1b 3d cc c3 4b be 94 66 08 be 8d 13 29 bb
       0.03797463 -0.1989891 -0.1332038 -0.0025799007
000340 9c 41 f0 3c aa cd 7f 3d c8 7b c9 3c 9a 78 98 ba
       0.02932816 0.062451996 0.024595156 -0.0011632622
000350 48 1c ac bc ed 7e c9 3c 1d 11 56 3d d9 b1 00 3e
       -0.02100958 0.024596656 0.052262414 0.12567843
000360 2e cd f1 3d 3a f6 56 3d 94 da 1a be 08 94 9f bc
       0.11806713 0.052480914 -0.15122443 -0.019479766
000370 1c ca dd 3d 21 1e 30 3a 42 20 8c bd 1d ec c7 3b
       0.10829565 0.0006718357 -0.0684209 0.006101145
000380 ac d9 70 3d 29 7c 56 bb 7f 88 b6 3b fa 95 d7 bc
       0.058801338 -0.0032727814 0.005570471 -0.026316632
000390 48 bc b3 bd 0a eb 5f bb 72 b6 5c 3d e0 26 be bb
       -0.08776146 -0.0034167194 0.05388493 -0.005802974
0003a0 75 5a 44 3d 3a 54 6c 3d 81 1b 28 3d 8f be 70 ba
       0.04793783 0.057697512 0.041041855 -0.0009183669
0003b0 6b ab 8d bd 80 43 37 bc a6 16 85 bd 19 c6 9e 3d
       -0.06917461 -0.011185527 -0.064984605 0.07752628
0003c0 4a 86 b1 bd 97 a4 4d 3d 5d c8 b6 3d 86 43 3e 3d
       -0.08668192 0.050205793 0.08924935 0.046451114
0003d0 30 af d9 bc 35 0c 77 3d 72 4c e5 bc 77 2a 93 3d
       -0.026572794 0.060314376 -0.027990554 0.07185834
0003e0 4f 96 29 3d 2f 96 8c bd 1b 8c a7 3d c5 67 cf 3d
       0.04140311 -0.06864583 0.0818102 0.10127214
0003f0 52 2a 0a bd 93 53 e7 3d e8 21 1d bd 27 24 b1 3d
       -0.033731766 0.112952374 -0.038362414 0.08649474

layers.3.bias f4 [256]
000000 2b 03 8c bb 6b 4f 67 3a 08 eb 15 3c 20 22 fe 3c
       -0.0042728386 0.0008823785 0.009150274 0.031022131
000010 19 e2 98 b9 31 34 05 3d fa a9 10 bd 66 c0 b7 3c
       -0.00029160155 0.032520477 -0.035318352 0.02243061
000020 7b ed 20 bc 27 29 5b 3b 28 96 de bb 19 95 a5 bd
       -0.009822245 0.0033441277 -0.0067928024 -0.08085079
000030 28 55 65 bd 17 7b ab bb 00 00 00 00 ba eb 9c 3c
       -0.055989414 -0.0052331793 0.0 0.019155372
000040 11 74 5c bc 1d 15 c3 3d 58 89 ce bb fe 03 ae bb
       -0.013455407 0.095255114 -0.0063029937 -0.0053105345
000050 36 c9 77 3d 52 68 25 3d 75 94 04 3e 6f 33 5c 3c
       0.060494624 0.04038269 0.12947257 0.013439997
000060 b3 d4 b2 3b 38 02 32 3c ec c3 38 3c 49 ed 57 bd
       0.0054574846 0.010864787 0.01127718 -0.052716527
000070 e2 dd 54 3c 90 1b 01 3d 87 e5 a8 bc ae a5 11 3d
       0.012992354 0.031520426 -0.02061726 0.035558395
000080 f8 9c cd 3c f9 9b 4d 3c ac 50 41 bd 50 0e 77 3d
       0.025099263 0.012549394 -0.047196075 0.060316384
000090 fe 13 94 3d 85 9d a3 3d 8a 8a 9f bc 80 50 db ba
       0.07230376 0.07989029 -0.01947524 -0.0016732365
0000a0 8f 08 11 3b fd 4e d2 3c ee 08 d6 3d fb e3 92 ba
       0.0022130345 0.02567243 0.10450922 -0.001120686
0000b0 4a b9 e9 bc c0 d7 e9 3c 91 13 a3 3d 91 07 ec 3d
       -0.028530736 0.02854526 0.07962716 0.11524881
0000c0 3c dd 66 bc 5c 73 8e 3c 47 16 0b bc 50 f0 38 b9
       -0.014090832 0.017388992 -0.008489198 -0.00017637131
0000d0 8b 5c 08 bd 9b 86 be 3c ae ff 3b 3c 50 fd af 3c
       -0.03329138 0.023257544 0.011474533 0.021483094
0000e0 b4 7d a2 3d 1b ba 26 3c c9 29 81 3c 86 43 eb bb
       0.07934132 0.010176207 0.015766995 -0.0071796803
0000f0 a6 1d e6 bb 06 65 b8 3c 39 d2 8b bd 00 00 00 00
       -0.0070225773 0.02250911 -0.06827206 0.0
000100 ab 9b 2f bd c1 ac bb 3d c5 3e 80 3d d6 90 c2 3c
       -0.042873066 0.091638096 0.06261972 0.023750704
000110 b9 66 1d bc 8b da a7 3c 4d 35 ce bc e1 ff 15 3d
       -0.0096070105 0.020489952 -0.0251719 0.03662098
000120 11 f3 b3 3c cd 71 d4 3d 1b 51 0b 3b 36 d4 80 3c
       0.021966489 0.10373268 0.002125806 0.01572619
000130 48 07 8e bd ad 70 8f 3c 39 d0 da 3b 64 33 ea 3a
       -0.069349825 0.017509783 0.006677654 0.0017868099
000140 ba ce 78 3d f2 c7 62 3d 63 33 92 3d b1 8c 9f bc
       0.060744025 0.055366464 0.071387075 -0.019476267
000150 7c 2b ab 3d 79 d8 7a 3d da 15 ee 3d c5 62 25 bd
       0.08357903 0.0612416 0.116252616 -0.040377397
000160 7a 1d e8 ba d3 ae cc 3d 43 78 9d bd 3e e4 fa 3d
       -0.001770898 0.099942826 -0.07688954 0.12250565
000170 6e ce f0 3b 12 0d 94 3b 07 bf c9 3c 6d 21 87 3c
       0.007348827 0.0045181597 0.024627222 0.01649543
000180 b2 d2 fc 3c fa 4a 9a bc 77 fd 52 bc 69 47 48 3d
       0.030862186 -0.01883458 -0.012877814 0.048896227
000190 db 80 99 bb 51 58 d8 3c b2 6e 57 bb 36 11 8f 3d
       -0.00468455 0.0264093 -0.0032872376 0.069857046
0001a0 90 6c 8a 3d cb 2b 44 b8 cb c3 13 3d c2 30 e4 3d
       0.06758988 -4.6770827e-05 0.036075395 0.11142112
0001b0 77 dc eb ba d6 d8 2a bc 4f 95 0f 3d d6 2e 1b 3c
       -0.0017994781 -0.010427674 0.0350545 0.009471616
0001c0 4e 01 e9 3c b4 ef bc 3a 21 10 03 bd 6f 4d 88 3c
       0.028443005 0.0014414699 -0.031997804 0.016638486
0001d0 e6 c6 08 bb ad a9 69 3c f7 41 a3 bb 0d 41 1f bc
       -0.0020870506 0.014261645 -0.004982229 -0.009720099
0001e0 72 d5 bf 3c a3 2c 37 bc 8d 08 36 3c 47 e6 a4 3d
       0.023417208 -0.011180076 0.011110437 0.080517344
0001f0 eb 7a ef 3c f7 a1 e2 3c 24 f5 f7 3c 34 b1 54 3d
       0.029233417 0.027665121 0.03026826 0.051926807
000200 a2 d4 61 3c e0 6f 0a 39 24 87 e6 3b ab c9 b6 3b
       0.013783606 0.00013202382 0.007035153 0.00557824
000210 fd 64 d9 ba ca db ce bb 88 5a db ba 4b 9b 04 3c
       -0.0016585883 -0.006312822 -0.0016735354 0.008093665
000220 31 b5 66 3b 6b 00 34 3d 87 eb 3c bd 6d 95 4a 3c
       0.0035203213 0.04394571 -0.046123054 0.012364727
000230 22 1c ce 3c 38 5b 09 bc 30 20 1e 3c 8c 04 6c bd
       0.0251599 -0.008383565 0.009651229 -0.057621524
000240 15 e5 48 3b f9 c5 88 bd 57 a9 00 3d 39 08 98 3c
       0.0030654122 -0.06678385 0.031411495 0.018558608
000250 e0 a9 8c 3c bc 3d a6 3d e6 e9 8d bb c8 b6 10 3c
       0.017170846 0.08117244 -0.0043308614 0.008832641
000260 ad 97 d3 3c ce fe f9 3c 45 42 dd bc 31 88 e0 3c
       0.02582916 0.030517008 -0.027009139 0.027408691
000270 a7 ea c9 bc e6 00 11 3b 14 42 02 bd 07 69 ac 3c
       -0.024648024 0.002212578 -0.0318013 0.021046175
000280 ee 7c e0 3c 33 9e 03 3d 06 64 36 bc 3a 42 c6 bc
       0.027403321 0.032133292 -0.011132246 -0.024201501
000290 65 39 07 bc c8 1a 9f 3b 9b 22 a7 3d 5e 36 05 bd
       -0.00825343 0.0048554875 0.08160897 -0.03252255
0002a0 55 a4 95 3c 0c 28 6e ba d4 92 cb bb f7 a3 93 3d
       0.018266836 -0.0009084947 -0.0062125716 0.07209008
0002b0 16 c3 dc 3d c4 dc e2 bc 4d 02 12 3c a6 98 f0 3b
       0.10779397 -0.02769316 0.008911681 0.007342416
0002c0 b3 11 73 3d c8 91 2f 3d 31 5e e9 3b a1 05 75 3c
       0.05934305 0.042863637 0.007121824 0.014954955
0002d0 07 d1 94 3d f7 99 91 3d 61 0f 8b bc 48 07 0f 3e
       0.07266431 0.071094446 -0.016975107 0.13967621
0002e0 c7 6a be 3d 48 a2 fa bc d1 61 36 bc 33 56 23 bb
       0.0929771 -0.03059496 -0.01113172 -0.0024923205
0002f0 0e 87 74 3b 59 ab e4 b9 82 cc 19 3c a0 19 aa 3c
       0.0037311944 -0.00043615213 0.009387137 0.020764172
000300 9f b2 0b bd c0 50 36 3d dd b0 2d bb d1 86 7b bb
       -0.034105893 0.044510603 -0.0026503124 -0.0038379917
000310 cd 23 02 3e cf e7 87 3b 4d 88 b2 3c cf 90 ac 3c
       0.1270897 0.004147507 0.021793509 0.021065144
000320 08 60 64 3a c3 0a 70 bb f8 04 5c 3d 17 d1 27 bc
       0.00087118195 -0.0036627508 0.053715676 -0.010242722
000330 30 d4 51 3d af 0f a9 3c 02 82 18 3c d5 a2 e7 3d
       0.05122775 0.020637361 0.00930834 0.113103546
000340 4e 81 73 bd fa 52 c8 b9 9b 0c 66 3c 3e 08 7c 3d
       -0.059449486 -0.00038208795 0.014041091 0.061531298
000350 07 14 91 bc e6 08 d2 3d e0 40 37 bd 8b c2 f6 bc
       -0.017709745 0.102556035 -0.044739604 -0.030122062
000360 03 07 10 3e 61 df 2f bb 98 5c f2 3b 6c e6 83 b8
       0.14065175 -0.0026836025 0.007396292 -6.289486e-05
000370 55 a8 5c 3d b1 15 ad 3d 91 e5 45 3d 8e fb 37 ba
       0.05387147 0.08451403 0.048314635 -0.00070183806
000380 25 26 6c 3d b7 1c 7b bb 11 6a a0 38 2b 7d fd bb
       0.057653565 -0.0038316676 7.649151e-05 -0.0077358685
000390 ac 32 61 bc 40 a3 ff bb ef 56 88 3d a9 5d e5 3b
       -0.013744991 -0.0078014433 0.06657206 0.0069996906
0003a0 81 e9 bd bb 88 e1 dc 3d 09 f2 7f 3c 1d 99 12 3d
       -0.005795658 0.10785204 0.0156216705 0.03579055
0003b0 74 5a 81 3c e1 29 06 bd fc 00 e9 3d 87 4e 00 3e
       0.015790202 -0.032754783 0.11377141 0.12529956
0003c0 a0 e2 83 3c 46 4a 65 bb 8a fb 31 bd d2 ab 63 3d
       0.016099274 -0.0034986897 -0.043452777 0.055583782
0003d0 05 e9 d1 3c 55 ec 99 3d 4e d1 18 bd 0a 7b df 3b
       0.025623808 0.0751578 -0.037308984 0.0068200873
0003e0 ad d3 60 3c f9 ca 00 3c 94 01 5b 3d 8c 15 63 bc
       0.013722342 0.007860892 0.053468302 -0.013860118
0003f0 2d 34 64 3a d1 87 8e 3c a4 d1 7f 3d c5 6c 41 bc
       0.00087052846 0.017398747 0.06245579 -0.011805718

layers.4.weight f4 [64, 256]
000000 31 c7 66 bc 7e 08 63 3d ec a1 09 3d cf 13 0d bd
       -0.014085577 0.05542802 0.033601686 -0.03444272
000010 3c be 14 3d 00 d6 ab 3c 30 79 31 bd 7b b7 80 3c
       0.036314234 0.020976067 -0.043328464 0.01571249
000020 f4 7f 44 3e 84 63 7f 3c bd 15 a8 3d f2 a3 2c bc
       0.19189435 0.015587691 0.08207271 -0.0105371345
000030 95 6e 8e bd 81 9f 97 3d 45 56 99 3b 86 57 59 3d
       -0.069546856 0.0740347 0.0046794736 0.053061984
000040 b7 dc 38 3d a9 75 84 3d 6c 46 8b bc 4b e2 3e 3c
       0.045132365 0.064677544 -0.017001353 0.011650632
000050 0d 22 ce 3c af d3 ca 3b 81 52 3a 3d 02 af 7a bd
       0.025162721 0.0061897854 0.045488838 -0.061202057
000060 e1 a0 3e 3d fa 76 44 3d f2 65 53 3c 64 f2 23 3d
       0.046540145 0.047965027 0.012902724 0.040026084
000070 92 8b e9 3a 4c 72 25 3d 05 d6 a6 bd ed 83 b2 3d
       0.0017818084 0.040392205 -0.0814629 0.08716569
000080 13 1b 79 3d 69 9f 9a bd 71 9b 16 bd f0 40 be bb
       0.060816836 -0.07549936 -0.036769334 -0.005806081
000090 35 b3 1b 3c 5a 6d 2f bb de 92 8e bc 89 b9 49 bd
       0.0095031755 -0.002676806 -0.017404016 -0.049249206
0000a0 6d 1a c1 b9 9b b8 d5 3c bd 31 a1 3d da c5 39 bd
       -0.00036831517 0.026089003 0.07870815 -0.0453547
0000b0 d5 79 87 bd 36 77 40 3d 38 13 b4 3d d6 32 ca 3d
       -0.066150345 0.04698869 0.08792728 0.098729774
0000c0 fa eb 1e bd c7 3d 7c 3d 0a bc 3c 3d 1a b1 35 3c
       -0.038799264 0.061582353 0.046077766 0.011089588
0000d0 14 f1 4d bc f4 c0 fe 3b 27 61 0e 3d 19 f7 6b 3d
       -0.012569685 0.0077744666 0.03476062 0.057608698
0000e0 a3 f1 d1 3c 5e 26 35 bc 4f 08 09 bd 54 15 eb 3c
       0.025627917 -0.011056511 -0.03345519 0.028696693
0000f0 54 cf 70 3c 19 14 b6 3c 37 51 85 bd 6e a5 0b 3d
       0.014697868 0.02222638 -0.06509631 0.034093313
000100 a2 b6 45 bd 71 bf 0c 3e 7b 33 13 3d ac ed a8 3c
       -0.048269875 0.13744904 0.035937767 0.020621143
000110 e2 89 c6 bd 33 34 03 bd f7 7a cf bd 9b 1b 96 3d
       -0.09694268 -0.032032203 -0.101308756 0.07329484
000120 74 74 0b bd 91 54 ca 3d 25 b1 28 3d 81 c5 1c bc
       -0.034046605 0.09879411 0.041184563 -0.009568573
000130 80 45 8f bd 75 06 7f 3d 5e c5 60 bc 1a cb 03 bd
       -0.06995678 0.062262017 -0.013718931 -0.032176115
000140 26 26 d0 3d 4f 09 39 bd 3e f2 ca 3d fa 9a 68 3a
       0.10163526 -0.045174893 0.09909485 0.0008873191
000150 01 36 5b 3d 0e 84 8d 3d be 0b dd 3d 52 8e 23 bd
       0.0535183 0.06909953 0.10793255 -0.03993065
000160 d4 06 42 bc c3 fc b0 3d 17 a1 c3 bc 85 74 da 3d
       -0.011842448 0.086419605 -0.023880525 0.106667556
000170 67 87 4c bd 56 90 5f 3d a3 3e 85 3d bf af 97 3c
       -0.049933817 0.05458101 0.06506088 0.01851642
000180 ee 3f 38 bd 92 68 83 bd 9c ab 1d 3d 87 e4 4a 3d
       -0.044982843 -0.064164296 0.038493738 0.049534347
000190 d8 cf 02 3d b5 31 11 3d 1a 00 2c bc f8 36 c4 3d
       0.031936496 0.035447795 -0.010498071 0.09580797
0001a0 4e ca 31 3d 1d 13 78 3c 75 2d 00 3d 09 29 40 3d
       0.043405823 0.015141276 0.03129335 0.046914134
0001b0 dd 5e ed 3c b3 fa d0 bd 6f 3f 83 3d 52 f1 9f 3d
       0.028975898 -0.10204067 0.064085834 0.078097
0001c0 b8 43 03 bd ef ce 23 be 5e 81 d7 bd 05 87 b7 3d
       -0.032047004 -0.15996908 -0.10522722 0.089613
0001d0 b2 55 86 bd 76 a1 a0 39 c1 5d 31 3b de aa 57 3d
       -0.06559314 0.00030637876 0.0027063938 0.052653186
0001e0 42 df af bc 49 59 1b bd 3d 83 53 3d 82 b1 98 3d
       -0.021468762 -0.037926946 0.05163883 0.07455732
0001f0 5a 8c 7c 3d 79 66 9b bc a9 e3 85 bc 59 6f e5 3d
       0.061657287 -0.018969761 -0.016343908 0.112028785
000200 0f 11 f1 bc b6 56 f5 3b eb 3f 47 bd a0 40 a1 3d
       -0.02942708 0.0074871434 -0.04864494 0.07873654
000210 83 4d a2 bd 42 e2 9f bc 09 df 27 3d b6 df 2d 3d
       -0.079249404 -0.019517068 0.040984187 0.042449676
000220 7f 6c 44 3d cb c1 95 bc 23 88 e2 bc 71 92 fd bb
       0.047955032 -0.018280884 -0.027652806 -0.0077384044
000230 cd 63 47 bd d6 28 d7 bb 00 9b 14 3d f7 63 42 3c
       -0.04867916 -0.0065661473 0.036280632 0.011864654
000240 d0 35 29 3d b3 58 7f bc cd bd 87 3d 12 8a ae 3d
       0.041311085 -0.015585112 0.066279985 0.085224286
000250 92 87 31 bd 9d c7 fd 3c a9 8d 5a bd 53 ae db bd
       -0.04334218 0.030978972 -0.053357754 -0.10726609
000260 e6 fd 2f 3c 5d ed 26 bc d5 d2 93 bb 3a 62 e0 bc
       0.010741686 -0.010188428 -0.004511217 -0.027390588
000270 66 d2 45 3c 38 18 bd 3d 20 d9 8d bd fc 14 35 bd
       0.012074089 0.09233135 -0.06926179 -0.044209465
000280 ae e5 80 bd d7 92 48 3d 40 69 a0 bc 22 10 d4 bc
       -0.06293808 0.048968162 -0.019581437 -0.025886599
000290 30 c3 a6 3d 39 74 74 bc 10 99 63 3d 25 14 3d 3d
       0.08142698 -0.014920288 0.055565894 0.04616179
0002a0 19 90 d0 bc 08 a6 a0 bd e6 0e 78 bd 10 88 2e 3d
       -0.025459336 -0.07844168 -0.060561083 0.042610228
0002b0 67 c8 e0 3d 99 75 b9 3d 35 ce 3c 3d 2f e1 fb 3d
       0.10975724 0.09055633 0.04609509 0.1229881
0002c0 fe 3d c7 3c 28 4c e7 bc ed dc 29 3d 32 49 ae bc
       0.024321552 -0.028234556 0.041470457 -0.021275137
0002d0 aa 03 f5 3c b6 58 f0 3d 6a 1d d4 bc 10 18 c1 3d
       0.029908974 0.1173567 -0.025892932 0.09428418
0002e0 9d 25 c0 3c f4 06 46 bd 03 bb ac 3b dd b1 ae ba
       0.023455435 -0.048346475 0.005271317 -0.0013328154
0002f0 4f c1 9b bd a3 29 0f bd f4 8f 96 bd e4 88 3b 3c
       -0.0760523 -0.034951817 -0.07351676 0.0114462115
000300 a2 71 51 bc 97 3e e0 3c 45 ac 36 3d 42 49 4a 3c
       -0.01278344 0.027373595 0.044597883 0.012346568
000310 c0 01 c5 3d a7 9c 6a 3d fa b4 96 bd 08 bd ab 3d
       0.096194744 0.0572783 -0.07358737 0.08385664
000320 b4 66 9f bb 11 d5 32 3d 66 b5 9b 3d f4 ff 0c bb
       -0.004864538 0.043660227 0.076029584 -0.0021514865
000330 66 fc 69 3d 31 81 93 bc 27 22 40 3d 60 c0 c0 3d
       0.05712547 -0.01800594 0.04690757 0.094116926
000340 94 88 7c 3c 3f 97 e8 ba 34 ee 8b 3d a6 4c 68 3d
       0.015413422 -0.001774527 0.06832543 0.056713723
000350 a6 b7 a5 bc c2 fa a2 3d 06 92 08 be 82 28 9b 3c
       -0.020229172 0.079579845 -0.13336954 0.018940214
000360 bc ce 80 3d 17 94 63 3d 0d ed b7 3d 32 89 7c 3d
       0.062894315 0.05556115 0.08980761 0.061654277
000370 3e ee 4b 3c 1a 0a a4 3c e0 40 07 3d 1b 91 16 3d
       0.012446938 0.020024348 0.033020854 0.036759477
000380 10 1d be 3d 00 db 1a 3d 7e 16 d2 bd c7 05 9e bb
       0.09282887 0.03780651 -0.10258196 -0.004822466
000390 d8 f2 89 bd 36 5b 5d bc 13 bb 9f bc 96 6b e5 3c
       -0.06735772 -0.013510516 -0.019498384 0.028005403
0003a0 65 85 07 bd 18 b0 ca 3d 75 38 c5 3b 76 b8 bb bc
       -0.0330862 0.098968685 0.006018693 -0.022915106
0003b0 4a 34 7a bd a9 e8 04 bc 48 2d a1 3d 0e d1 a8 3d
       -0.061085023 -0.008112111 0.07869965 0.08242999
0003c0 77 8d 35 3d 95 44 3d bd 92 ef 2c bd 8f d6 89 3d
       0.044324365 -0.046207983 -0.04222066 0.06730377
0003d0 ed 9d f8 3b 09 67 fc 3d 64 70 2b 3d 8e 68 77 3b
       0.0075871856 0.1232434 0.04185523 0.0037751528
0003e0 4a bc 83 3d b8 58 60 bd 68 fe c1 3c 6d b6 a1 3d
       0.06432398 -0.05477211 0.02368088 0.07896123
0003f0 cc ee 99 3d f6 85 13 be 3b 14 b6 3d 1c e5 9b 3c
       0.0751625 -0.14406571 0.088905774 0.019030146

layers.4.bias f4 [64]
000000 e8 44 0a 3e 4d e7 bd 3d 09 d0 f9 3d 88 2b 28 3d
       0.13502848 0.09272633 0.12197883 0.04105714
000010 99 c3 30 ba 17 a9 d6 3c b1 97 1f 3c 1c a6 14 3d
       -0.00067430135 0.026203675 0.009740756 0.036291227
000020 23 f9 23 3d 3f ae 98 3d 89 58 ab 3d df 37 76 bb
       0.040032517 0.0745511 0.08366496 -0.0037569923
000030 d5 93 e7 3d 42 23 b8 bb 55 73 0b 3d 8d 86 bc 3d
       0.113074936 -0.0056194374 0.034045536 0.09205351
000040 00 18 1f 3e 9d 98 0c 3e 1e 9b 82 3c 60 66 af 3c
       0.15536499 0.13730092 0.015943106 0.02141112
000050 d2 06 81 3d 01 f1 46 3d d5 46 35 3d 63 ad 0e bb
       0.06300129 0.048569683 0.044257004 -0.0021770827
000060 f1 5f 0f 3e 4c 88 18 3e 25 bf 71 3d d7 75 2b 3d
       0.14001442 0.14895743 0.05902018 0.041860428
000070 54 45 9e bb 5e 39 c9 3c 0b ad 21 3e 33 c2 af 3b
       -0.004830042 0.024563488 0.15788667 0.0053637265
000080 01 8c 22 3d a9 a3 01 3e 43 8d ac 3d 12 03 24 3c
       0.0396843 0.12660088 0.08425381 0.010010498
000090 39 74 7c bd d8 f9 92 3d bb 19 3e 3d 38 71 c8 bb
       -0.061634276 0.0717656 0.046411257 -0.0061170124
0000a0 25 d1 4a bc 89 0a 12 3e 76 c3 e6 bc f8 2f a5 bc
       -0.0123789655 0.14261831 -0.028169375 -0.020164475
0000b0 10 49 15 bc 17 35 36 3c 34 c3 9c 3d 82 ab 8f bd
       -0.009111658 0.011121056 0.076544195 -0.070151344
0000c0 6c 12 52 3d 1e 76 c5 3d 4c d4 d3 bc e7 07 49 bb
       0.0512871 0.0964167 -0.025858067 -0.0030674876
0000d0 1e ff 5b 3c c3 e3 1d 3d 53 ab f8 3d 5a 2d 0a bd
       0.013427524 0.03854729 0.121420525 -0.033734657
0000e0 1c c1 a9 bd 07 cd 35 3e df 3b e5 3d 1a 2f 60 3d
       -0.08288786 0.17753993 0.1119306 0.05473242
0000f0 80 59 81 3c 0c 58 7f 3d 1a 4c fb ba 4d c0 8a 3c
       0.015789747 0.062339827 -0.001917246 0.0169374
