models/best_model.pth (torch, 71396 bytes, 7 tensors)

layers.0.weight f4 [64, 5]
-0.24965972 -0.31134626 0.3698148 0.19444408 -0.00063062937 0.12304884 0.48389283 0.08193942
0.012696897 -0.00036785932 -0.2489447 -0.036646068 -0.27293688 -0.30244598 0.0003997474 -0.3853461
-0.50139225 -0.36502135 -0.14205377 -0.0008687975 0.15534595 0.0841714 0.41868484 0.014959752
0.00034870623 -0.24435149 -0.3486572 -0.07761725 -0.25144732 0.001084105 -0.5000024 -0.08576268
-0.35786042 -0.10545974 0.00051873113 0.25509384 -0.45482543 -0.40722492 0.48542368 -0.0010749722
0.015298208 -0.08625809 0.012531265 -0.09621623 0.29576465 0.21219328 -0.09527761 0.3324395
-0.21913853 0.00031934213 0.14318043 -0.2563263 0.35933048 0.2554535 -0.00049081334 -0.04956732
-0.15647852 0.04907984 0.5267648 0.00029527018 0.029678414 0.042933043 0.014213316 0.022347154
0.31340578 -0.5094611 -0.009045703 0.4136313 0.18081534 0.0019017826 -0.10397358 -0.4002834
0.19628696 -0.46511474 -0.00033311077 0.076219305 0.011993228 -0.4469808 -0.0075561204 4.35783e-05
0.46317077 -0.05727339 -0.06286841 -0.09010327 0.0011663289 -0.3891725 0.03140264 0.3696775
-0.11006338 -0.00024735363 0.40183467 0.11436043 0.057878807 0.055039473 -0.0007982394 0.08369361
-0.3920822 -0.120209925 -0.4773633 4.113183e-05 -0.5165174 0.3202306 -0.41621992 0.32663548
0.00012979165 0.22456107 0.07490518 0.26385397 -0.4408511 0.00090809487 -0.067979366 0.023177052
-0.38603294 0.17828107 0.00032214218 -0.24282452 0.08160694 0.5713929 -0.07809179 -0.00040416452
-0.08025099 0.29177126 -0.3462805 0.26732352 0.0015784444 0.00940218 0.5415906 0.14559478
-0.22326379 -0.0006445374 -0.27307254 0.57125777 -0.027640209 0.24617495 3.7244658e-06 -0.115110435
0.2882266 0.022977017 0.28464603 0.0016339397 -0.03701811 -0.0060966806 0.067011006 -0.6456588
-0.0019834512 0.3251713 0.4071429 -0.23883472 -0.31585142 -0.000564511 -0.30184904 -0.014083534
-0.38961276 -0.23801106 -0.00010034674 0.17167228 -0.08850024 -0.56895036 0.07220045 0.0012226091
0.50682235 -0.05509424 -0.060321175 -0.08269951 -0.0011661842 0.19689047 0.53358763 0.17982109
0.49627808 0.00028011648 0.22635591 -0.24281466 -0.29464695 -0.49537936 0.0010994392 0.3629185
0.07575001 0.42232928 0.069549665 0.0012764496 0.24162303 -0.48860732 -0.11253299 0.04466905
0.0005994928 0.48532262 0.028269466 -0.44004032 0.08750167 -2.7289707e-05 0.5622595 0.22981076
-0.34794247 -0.37465727 -8.40735e-05 0.008401923 0.7057773 0.009246802 -0.6125192 -0.00012098618
-0.37163666 0.39894 0.15929145 -0.3393807 -0.0002159168 0.36203083 0.032273944 0.3007777
0.28901368 0.00083377655 -0.02022929 -0.4110765 0.08764762 -0.056857377 -0.00033572948 -0.0138425855
-0.59094507 -0.062752314 0.390608 0.0006055928 -0.104556814 0.04927337 -0.043285023 -0.0028958833
0.36569014 0.32022098 0.24266939 0.1390512 0.1678607 0.00045214657 0.6088927 0.11564288
-0.115699574 0.019200103 -0.0005516354 0.20996065 0.48507634 0.3782067 0.35651416 0.00038197282
0.3409927 -0.2868525 0.32523683 -0.21771155 -7.232052e-05 0.35784978 0.09395043 -0.44622052
0.16865733 -0.001223819 0.043306254 -0.078326754 -0.06438401 0.40838215 -0.0006661946 -0.38655838
00000000: cca6 7fbe c768 9fbe 5e58 bd3e 591c 473e
00000010: d250 25ba 0801 fc3d cdc0 f73e dbcf a73d
00000020: a506 503c 3edd c0b9 5ceb 7ebe 301a 16bd
00000030: 62be 8bbe 33da 9abe 3095 d139 164c c5be
00000040: 3e5b 00bf 14e4 babe 8b76 11be 03c0 63ba
00000050: 0213 1f3e 0e62 ac3d dc5d d63e bf19 753c
00000060: 8fd2 b639 4737 7abe 3283 b2be cbf5 9ebd
00000070: b4bd 80be 8718 8e3a 2800 00bf 58a4 afbd
00000080: 7b39 b7be 47fb d7bd 75fb 073a a99b 823e
00000090: e1de e8be c97f d0be 7489 f83e 15e6 8cba
000000a0: 56a5 7a3c 15a8 b0bd ef4f 4d3c 040d c5bd
000000b0: 776e 973e 3249 593e e820 c3bd 8335 aa3e
000000c0: da65 60be 606d a739 e49d 123e 333d 83be
000000d0: 2afa b73e cdca 823e eda9 00ba 1a07 4bbd
000000e0: e83b 20be f107 493d 0fda 063f 7ece 9a39
000000f0: 2520 f33c 8fda 2f3d f8de 683c 6111 b73c
00000100: b976 a03e 0b6c 02bf 6e34 14bc 7bc7 d33e
00000110: a827 393e 3c45 f93a 1af0 d4bd f2f1 ccbe
00000120: 73ff 483e 8523 eebe 5fa5 aeb9 de18 9c3d
00000130: 3f7f 443c abda e4be 5599 f7bb d8c7 3638
00000140: b824 ed3e 8197 6abd 27c1 80bd 1088 b8bd
00000150: 81df 983a 9e41 c7be 0ea0 003d 5f46 bd3e
00000160: e968 e1bd 3eaf 81b9 46bd cd3e cd35 ea3d
00000170: 5412 6d3d 1271 613d f040 51ba 8e67 ab3d
00000180: 00bf c8be 9f30 f6bd f668 f4be f784 2c38
00000190: 7c3a 04bf 44f5 a33e c71a d5be c43c a73e
000001a0: ae18 0839 56f3 653e e367 993d de17 873e
000001b0: 3cb7 e1be 370d 6e3a c438 8bbd cddd bd3c
000001c0: 1ca6 c5be 508f 363e 31e5 a839 fea6 78be
000001d0: 8a21 a73d ce46 123f 97ee 9fbd 0be6 d3b9
000001e0: a25a a4bd 0b63 953e ad4b b1be a1de 883e
000001f0: cee3 ce3a 9a0b 1a3c aea5 0a3f cc16 153e
00000200: 439f 64be 2cf6 28ba 2ad0 8bbe f33d 123f
00000210: b86d e2bc 4915 7c3e d6f1 7936 05bf ebbd
00000220: 7092 933e 4c3a bc3c 20bd 913e eb29 d63a
00000230: 4da0 17bd aac6 c7bb 113d 893d e549 25bf
00000240: cafc 01bb da7c a63e 0975 d03e 1791 74be
00000250: 47b7 a1be b1fb 13ba f58b 9abe 9fbe 66bc
00000260: 537b c7be 2cb9 73be 3f71 d2b8 dcca 2f3e
00000270: 9d3f b5bd bba6 11bf d4dd 933d f43f a03a
00000280: 1cbf 013f 7faa 61bd 5613 77bd 5c5e a9bd
00000290: a6da 98ba a89d 493e 3399 083f 0523 383e
000002a0: 2918 fe3e 99dc 9239 d8c9 673e 68a4 78be
000002b0: f7db 96be 5da2 fdbe 0f1b 903a 74d0 b93e
000002c0: d222 9b3d 8b3b d83e 0e70 8e3d 8b4e a73a
000002d0: 076c 773e bd2a fabe b277 e6bd e5f6 363d
000002e0: 4827 1d3a 357c f83e 5e95 e73c f74c e1be
000002f0: 1334 b33d 33ec e4b7 3df0 0f3f 8353 6b3e
00000300: 8425 b2be 14d3 bfbe 9e50 b0b8 38a8 093c
00000310: d2ad 343f e67f 173c 0fce 1cbf f6b9 fdb8
00000320: 2947 bebe dd41 cc3e 4c1d 233e 4fc3 adbe
00000330: ba67 62b9 1b5c b93e af31 043d 89ff 993e
00000340: 9af9 933e cc91 5a3a e5b7 a5bc 9e78 d2be
00000350: 9880 b33d 48e3 68bd d904 b0b9 03cc 62bc
00000360: 2d48 17bf 4984 80bd c6fd c73e a5c0 1e3a
00000370: e221 d6bd e0d2 493d a34b 31bd dcc8 3dbb
00000380: bd3b bb3e 01f4 a33e 537e 783e 7063 0e3e
00000390: ade3 2b3e 160e ed39 64e0 1b3f 2dd6 ec3d
000003a0: e6f3 ecbd 8949 9d3c a09b 10ba edff 563e
000003b0: ed5b f83e 4fa4 c13e 0689 b63e 8643 c839
000003c0: 9896 ae3e 55de 92be 7185 a63e c7ef 5ebe
000003d0: c9aa 97b8 1638 b73e 1569 c03d 0477 e4be
000003e0: 82b4 2c3e 8d68 a0ba e661 313d c769 a0bd
000003f0: c4db 83bd 7717 d13e 90a3 2eba fbea c5be

layers.0.bias f4 [64]
-0.10734731 -0.3517782 -0.107923545 -0.09107843 -0.34308043 -0.2810865 -0.12989646 -0.09920147
-0.46236384 -0.14235947 0.13993296 -0.11592644 -0.42899245 0.0015341578 -0.061894696 -0.05592488
-0.3417144 -0.21413092 -0.16357149 -0.17335914 -0.13902847 0.04698866 -0.24569052 -0.08984776
-0.13977239 -0.109145954 -0.15340872 -0.34690213 -0.14141054 -0.19193251 -0.15162213 0.016563494
-0.5156528 -0.10551686 -0.03538853 -0.2203653 -0.2186641 -0.07004343 -0.09190348 -0.054000176
-0.06639644 -0.01759748 -0.4384395 -0.10484201 -0.5647414 -0.44524378 -0.15722708 -0.09435929
-0.0674588 -0.094684504 -0.4397818 -0.5582825 -0.1229964 -0.04327031 -0.11153891 -0.496823
-0.26771042 -0.4426369 -0.1157017 -0.13973704 -0.0864581 -0.0683219 0.09014972 -0.29660133
00000000: e8d8 dbbd 461c b4be 0507 ddbd 5487 babd
00000010: 3da8 afbe 92ea 8fbe 9403 05be 242a cbbd
00000020: f4ba ecbe aec6 11be 964a 0f3e d76a edbd
00000030: e6a4 dbbe cb15 c93a 4b85 7dbd 7d11 65bd
00000040: 31f5 aebe 2345 5bbe 497f 27be 0f85 31be
00000050: 7b5d 0ebe 2e77 403d 4c96 7bbe 1a02 b8bd
00000060: 7e20 0fbe ea87 dfbd 2d17 1dbe 289d b1be
00000070: edcd 10be f589 44be d542 1bbe 2ab0 873c
00000080: d201 04bf 3919 d8bd 90f3 10bd 71a7 61be
00000090: 7be9 5fbe ee72 8fbd e437 bcbd 4a2f 5dbd
000000a0: dbfa 87bd 9728 90bc 247b e0be 68b7 d6bd
000000b0: e492 10bf fef6 e3be 2300 21be 723f c1bd
000000c0: d727 8abd f3e9 c1bd 152b e1be 9aeb 0ebf
000000d0: 89e5 fbbd 353c 31bd 836e e4bd 965f febe
000000e0: 5711 89be 4ea1 e2be 03f5 ecbd 3a17 0fbe
000000f0: f210 b1bd 5aec 8bbd 6ba0 b83d 21dc 97be

layers.1.weight f4 [128, 64]
-0.62553775 0.024276711 0.007962278 0.1834379 -0.01152511 -0.092096716 0.12262757 0.023950677
0.10559479 1.2114855 0.019230573 -0.7033061 -0.52853143 0.011478931 -0.05585354 0.03022056
0.027040819 -0.26465997 0.024805658 0.13042001 0.0657872 -0.0791681 0.12995775 -1.5636795
0.027006805 -0.21759024 -0.1986002 -0.9015679 -0.4420896 -0.0014098975 0.14171515 0.13480006
-0.2984383 0.007526818 -0.15451148 -0.1725172 -0.3212826 0.13901635 0.11543432 -0.061172437
0.22376633 -0.07762418 0.31480524 -0.24662666 -0.079601586 0.045492403 0.23771125 -0.08504521
0.39088252 0.083977945 -0.37679338 -0.31867194 0.021690924 0.010615974 -0.1028871 0.16749987
0.016954541 -0.61060095 -0.20658858 -0.3026555 0.7473893 0.05399169 -0.19406115 -0.9116114
0.17760009 0.0053504733 -0.5455032 0.01981518 -0.0011854174 -0.14384958 0.07160683 0.1835068
-0.16430967 -0.10475193 0.052373365 0.0915171 0.15703543 0.32315293 -0.011720421 -0.43671355
-0.07402034 0.3621929 -0.05302938 -0.24689324 0.061387375 -0.16512474 -0.31142157 0.1478277
-0.40919167 0.018192574 -0.07824728 -0.1365151 -0.28958 -1.0925047 -0.5134187 -0.3945161
0.55605227 -0.29945034 -0.6599385 -0.5566731 0.21740818 -0.8948833 0.98053867 0.1576088
0.37930772 -0.4744758 0.46505624 0.2131372 -0.5464694 -2.1403234 0.80865175 -0.05986119
0.016771335 -0.14534298 0.2725921 -0.0513203 -0.5472399 -0.2973684 0.044787772 0.017134115
0.025270082 -0.13424736 0.07720657 -0.4009234 0.18769936 -0.024295544 0.19215015 -0.20452355
-0.0024043517 0.037632395 -0.019900357 -0.124075934 -0.019039707 -0.027903074 -0.028535295 0.037660934
-0.08207592 -0.030923486 0.00072572095 -0.057964873 0.01715789 0.006207476 -0.09249884 -0.053779274
-0.090272605 -0.023235403 -0.115786605 -0.010007594 -0.09358022 0.016255282 -0.091639325 0.05993615
-0.08498523 0.013756573 0.014001858 0.115325324 0.0738705 0.09111123 0.011696996 -0.06533203
-0.01746352 -0.029992636 -0.051923145 0.0067207855 -0.026459403 0.05437411 -0.10463809 -0.06259867
-0.019500064 0.07238393 -0.059204865 -0.071588494 -0.04485775 0.035420503 -0.06956847 -0.03247131
-0.0574594 0.08884255 -0.101790175 0.110756546 -0.07986065 -0.10610847 -0.021603176 -0.061721344
-0.09304683 -0.039575927 0.047280848 -0.08506643 -0.046332125 -0.14010054 -0.13503622 -0.004530275
-0.27849188 -0.3245362 1.1611282 -0.3418621 1.2469285 0.23787677 0.07182802 -0.057759006
0.21766591 -1.3508422 0.11433547 0.20344038 -0.100320905 0.2034451 0.64440644 -0.28828573
-0.20942453 -0.7668004 -0.10378466 -0.31814882 -0.06886534 -1.1506633 -0.06079848 -0.53230816
-0.069043584 -1.0176668 0.013543005 -0.048181888 -0.3959319 0.24124825 0.007687443 -0.19390117
-0.36123067 0.15192662 -0.6719559 -0.07057009 0.002498786 0.34124297 0.09721617 -0.109696686
-0.8339076 0.22890888 0.5509789 -0.36883992 0.14128599 0.10434809 0.22613326 -0.11438736
-0.179729 -0.04018896 0.23361258 -0.000539924 0.29282114 -0.4703305 -0.384327 0.41541985
-0.04314716 -0.03536194 0.22018573 0.038032524 0.639584 -0.40948036 -0.16853297 -1.5475973
00000000: 3e23 20bf f4df c63c 3774 023c 25d7 3b3e
00000010: d1d3 3cbc 349d bcbd 2a24 fb3d 3634 c43c
00000020: 1542 d83d f511 9b3f 6f89 9d3c de0b 34bf
00000030: d64d 07bf 2012 3c3c aec6 64bd 1c91 f73c
00000040: b584 dd3c 8381 87be 3c35 cb3c d38c 053e
00000050: 71bb 863d e322 a2bd a513 053e a626 c8bf
00000060: 603d dd3c facf 5ebe da5d 4bbe 27cd 66bf
00000070: 9159 e2be 4fcc b8ba c71d 113e 0709 0a3e
00000080: e8cc 98be 87a3 f63b 4238 1ebe 59a8 30be
00000090: 277f a4be 4d5a 0e3e d468 ec3d f38f 7abd
000000a0: 0023 653e 6df9 9ebd 272e a13e b38b 7cbe
000000b0: 2806 a3bd 3e56 3a3d 946a 733e 2f2c aebd
000000c0: c121 c83e a1fc ab3d 10eb c0be f828 a3be
000000d0: 2ab1 b13c 9fee 2d3c 79b6 d2bd 1685 2b3e
000000e0: 40e4 8a3c 5850 1cbf f58b 53be a9f5 9abe
000000f0: e854 3f3f 6426 5d3d f7b7 46be 5d5f 69bf
00000100: ccdc 353e 0653 af3b 19a6 0bbf 7253 a23c
00000110: 0260 9bba 4e4d 13be 9aa6 923d 35e9 3b3e
00000120: cb40 28be 2e88 d6bd 7485 563d 516d bb3d
00000130: e5cd 203e 4d74 a53e 0207 40bc eb98 dfbe
00000140: fa97 97bd 5971 b93e 5635 59bd 95d1 7cbe
00000150: 5471 7b3d 7616 29be a672 9fbe 2560 173e
00000160: 9281 d1be 9808 953c 1c40 a0bd 9dca 0bbe
00000170: d443 94be 32d7 8bbf 686f 03bf 04fe c9be
00000180: 7159 0e3f 8e51 99be bbf1 28bf 2182 0ebf
00000190: 40a0 5e3e 1217 65bf 9504 7b3f 3464 213e
000001a0: 9f34 c23e 7eee f2be da1b ee3e a340 5a3e
000001b0: 6be5 0bbf 0ffb 08c0 cd03 4f3f 0231 75bd
000001c0: 0a64 893c cad4 14be 3191 8b3e 3c35 52bd
000001d0: ea17 0cbf ac40 98be 6273 373d d85c 8c3c
000001e0: 3403 cf3c 2478 09be 7a1e 9e3d d545 cdbe
000001f0: 4334 403e 7307 c7bc 02c3 443e 9f6e 51be
00000200: 5492 1dbb 6d24 1a3d 1306 a3bc 861b febd
00000210: 29f9 9bbc fd94 e4bc dac2 e9bc 5a42 1a3d
00000220: 6c17 a8bd 4053 fdbc 4f3e 3e3a 936c 6dbd
00000230: b48e 8c3c 1568 cb3b 0870 bdbd a847 5cbd
00000240: d8e0 b8bd 2c58 bebc 8721 edbd e4f6 23bc
00000250: fda6 bfbd cc29 853c 66ad bbbd 9c7f 753d
00000260: bc0c aebd 4063 613c 0d68 653c af2f ec3d
00000270: 6b49 973d 8698 ba3d c2a4 3f3c cdcc 85bd
00000280: a80f 8fbc 1eb3 f5bc 5dad 54bd 093a dc3b
00000290: 64c1 d8bc 63b7 5e3d 7f4c d6bd bb33 80bd
000002a0: 99be 9fbc 073e 943d cd80 72bd fd9c 92bd
000002b0: c3bc 37bd 1715 113d ea79 8ebd a300 05bd
000002c0: 8c5a 6bbd 15f3 b53d 5e77 d0bd 54d4 e23d
000002d0: fb8d a3bd 664f d9bd 25f9 b0bc 85cf 7cbd
000002e0: 568f bebd 5e1a 22bd 90a9 413d 4f37 aebd
000002f0: c1c6 3dbd 8476 0fbe ef46 0abe b372 94bb
00000300: 7d96 8ebe 9c29 a6be d99f 943f 8d08 afbe
00000310: 5a9b 9f3f f895 733e 921a 933d b594 6cbd
00000320: d0e3 5e3e 66e8 acbf b728 ea3d ad52 503e
00000330: 0c75 cdbd ea53 503e d2f7 243f 309a 93be
00000340: 6273 56be 084d 44bf 0d8d d4bd 67e4 a2be
00000350: 4509 8dbd ef48 93bf d407 79bd 5945 08bf
00000360: b966 8dbd e842 82bf 7be3 5d3c 5f5a 45bd
00000370: 96b7 cabe c809 773e f2e6 fb3b 078e 46be
00000380: 3af3 b8be a792 1b3e 4d05 2cbf 0d87 90bd
00000390: acc2 233b 66b7 ae3e 4519 c73d a8a8 e0bd
000003a0: f87a 55bf 1767 6a3e f40c 0d3f 96d8 bcbe
000003b0: 46ad 103e 74b4 d53d 7a8f 673e ec43 eabd
000003c0: e10a 38be 2e9d 24bd 2338 6f3e b089 0dba
000003d0: a7ec 953e 29cf f0be 82c6 c4be e9b1 d43e
000003e0: 14bb 30bd aed7 10bd 5e78 613e fec7 1b3d
000003f0: c7bb 233f 69a7 d1be e893 2cbe ab17 c6bf

layers.1.bias f4 [128]
0.06372954 0.024383234 -0.018512104 -0.099235855 -0.061156474 0.053146265 -0.031055558 -0.12049381
0.114370994 -0.44082054 0.041575763 -0.043505505 -0.025554314 0.027970238 0.19279172 -0.32878602
0.03621484 -0.06335233 -0.02430137 0.005255191 -0.022298476 -0.13758782 0.15626429 0.046028987
-0.15033874 0.0530803 -0.03962538 -0.07009596 0.16788378 -0.0312424 -0.038846012 -0.5312043
-0.024104258 0.120225355 0.23530428 0.11874604 -0.1961436 -0.045850918 -0.05238019 -0.037405822
-0.27628368 0.05670844 -0.102725446 -0.032586917 -0.036167156 -0.10009789 -0.100134015 -0.43377325
-0.2944259 0.059484016 -0.18906842 -0.3197025 -0.079538085 -0.062943324 0.024479097 -0.673895
0.1069869 -0.037647896 -0.021566803 -0.045785856 -0.020507429 0.056705844 0.34378314 0.045622677
-0.03900379 0.065022275 0.026653973 0.14040577 0.111613676 -0.009028694 0.0032198257 0.12294684
-0.040257394 -0.5062121 -0.05138095 0.09609776 -0.033498343 -0.016178314 0.2703834 0.07890158
0.13952193 0.067769535 -0.19239095 -0.05306853 0.22248243 -0.5292976 -0.01925255 0.063395634
-0.011158255 0.17821155 0.014451375 -0.030490868 -0.024310054 -0.31510913 -0.13864209 -0.098222055
0.026844218 0.060169823 -0.11300734 -0.061414253 0.20368275 -0.10862259 -0.03977643 0.08377823
0.20339075 0.105991006 -0.23264356 0.19604488 0.1938005 -0.025113387 -0.35527983 -0.03399475
-0.30007476 -0.09620993 0.10553178 -0.035389874 -0.18613292 -0.046511773 -0.056018125 0.14327672
-0.31326926 0.011864104 -0.2154708 0.088013604 -0.019248988 0.1410894 -0.14579439 -0.031125292
00000000: a284 823d 59bf c73c b2a6 97bc 2b3c cbbd
00000010: 367f 7abd e6af 593d 3a68 febc 75c5 f6bd
00000020: 573b ea3d 3bb3 e1be 594b 2a3d d432 32bd
00000030: 4857 d1bc d721 e53c 316b 453e a456 a8be
00000040: 0356 143d debe 81bd ab13 c7bc bd33 ac3b
00000050: 4bab b6bc d2e3 0cbe bf03 203e e488 3c3d
00000060: 66f2 19be bb6a 593d 394e 22bd 788e 8fbd
00000070: bae9 2b3e 10f0 ffbc ff1c 1fbd 01fd 07bf
00000080: 4b76 c5bc b638 f63d 9bf3 703e 2031 f33d
00000090: ded9 48be 2cce 3bbd 9c8c 56bd d936 19bd
000000a0: 0e75 8dbe 1c47 683d b861 d2bd dc79 05bd
000000b0: 0324 14bd 1f00 cdbd 1013 cdbd 8717 debe
000000c0: febe 96be 83a5 733d 279b 41be 0cb0 a3be
000000d0: dde4 a2bd 6ee8 80bd 6388 c83c 6284 2cbf
000000e0: f31b db3d ae34 1abd ddac b0bc f389 3bbd
000000f0: 32ff a7bc 6344 683d 5804 b03e d8de 3a3d
00000100: 70c2 1fbd 662a 853d 6f59 da3c 88c6 0f3e
00000110: b695 e43d 16ed 13bc b603 533b 8ecb fb3d
00000120: f0e4 24bd 1e97 01bf d574 52bd e7ce c43d
00000130: 8f35 09bd 6288 84bc b16f 8a3e 2797 a13d
00000140: d6de 0e3e c1ca 8a3d 2202 45be 635e 59bd
00000150: 6fd2 633e 0c80 07bf 86b7 9dbc 92d5 813d
00000160: 1dd1 36bc 177d 363e 76c5 6c3c fcc7 f9bc
00000170: e125 c7bc fc55 a1be 31f8 0dbe a528 c9bd
00000180: 68e8 db3c a274 763d 6470 e7bd 838d 7bbd
00000190: 3692 503e 8575 debd 9cec 22bd ec93 ab3d
000001a0: aa45 503e d011 d93d 1d3a 6ebe fdbf 483e
000001b0: a373 463e 97ba cdbc 3de7 b5be 143e 0bbd
000001c0: 66a3 99be b609 c5bd 0c21 d83d f9f4 10bd
000001d0: a199 3ebe 2183 3ebd 4373 65bd 22b7 123e
000001e0: d464 a0be a961 423c 61a4 5cbe 7a40 b43d
000001f0: 0eb0 9dbc bd79 103e 204b 15be 78fa febc

layers.2.weight f4 [64, 128]
-0.6342224 0.102141015 -0.021407668 -0.13038017 -0.06885738 0.091185346 -0.07017346 -0.22038323
0.28705657 -0.45949253 0.29618075 -0.02949728 0.03332082 -0.013249139 0.42280826 0.15058546
-0.333454 -0.009603605 0.0042392747 0.024227697 0.053432092 0.051269438 -0.24339172 -0.52799606
-0.13861679 -0.1943217 0.0023677894 -0.102505326 0.055087056 0.038233593 -0.026444124 0.7267122
-0.041595068 -0.34625933 0.012526595 0.25662354 0.3264429 -0.011280081 -0.006572207 0.0047261165
0.01653506 0.09359593 0.038535833 -0.02568189 0.0760283 0.027422877 0.10203568 0.0666296
-0.12046278 -0.033533413 0.2455523 -0.2966265 0.20442376 -0.6536316 -0.014874562 -0.07577575
0.33705902 -0.012578712 0.19899136 -0.049170267 -0.09319713 -0.14941134 0.22920229 -0.28641507
-0.016681137 -0.090695 0.1554643 -0.18025246 -0.26904145 -0.09904544 -0.027922459 -0.12216731
0.021173218 -0.23495533 0.02919127 0.2003243 0.14967957 0.08867732 0.18907613 0.0764841
-0.07807478 0.20802066 -0.0298656 0.031701297 -0.2024081 -0.18352133 -0.08297485 -0.1866681
-0.11360798 0.011477097 -0.103359684 -0.032690436 0.022048924 0.19692571 -0.24368037 -0.12895493
0.1907903 -0.061398752 0.008179165 -0.04055149 0.11445938 -0.0968762 -0.049280304 0.29206353
-0.19835587 -0.16730604 -0.41384178 0.009939968 -0.17477715 0.013128296 -0.051321916 -0.035602503
0.0609266 -0.06826635 0.064663514 0.04997754 -0.5594744 0.05213267 -0.039037764 0.053969733
-0.14669514 -0.013859523 0.035499666 -0.056464158 -0.054743916 0.37506688 -0.06996413 0.021342997
-0.04320346 -0.09093388 0.018372241 0.061345033 -0.027260603 0.0039608274 0.033594012 -0.08905094
-0.0035967012 0.007886982 0.006761633 0.13427496 -0.043344993 -0.00032750287 -0.06606771 -0.068391874
-0.09531136 0.035989415 -0.06669671 0.005931393 0.073649965 0.026400344 -0.055684667 -0.022807142
-0.08217755 -0.01746574 -0.019287404 -0.008319156 0.044180144 0.013699417 -0.05168767 0.018649658
0.014703707 -0.00962087 -0.10140715 -0.02973666 -0.054981574 -0.07560272 -0.022964323 0.08448305
-0.056889 0.04137348 -0.0028609396 0.113852 0.012989405 -0.0010129167 -0.011557306 -0.12340292
0.011829287 -0.0062529086 -0.007487717 -0.0477438 -0.06795291 -0.019608153 -0.022550132 0.011331133
-0.030345146 -0.011113212 -0.010323597 0.046001613 0.05383794 0.011665551 -0.054445688 -0.014307538
0.05400061 0.01312826 0.017581727 -0.10100269 0.065683365 -0.10183291 0.0074290195 -0.039635595
0.039023716 0.011633726 0.025133168 -0.012645295 0.0028157928 -0.031971924 -0.006114696 0.027959075
0.044145998 0.023388622 -0.020319367 0.007908178 -0.014936866 0.027464481 -0.019369692 -0.068353415
0.012607193 -0.079332046 0.020577831 -0.043406148 -0.04541401 -0.008575193 -0.008561869 -0.068486445
0.023914635 -0.05201259 0.0015036452 -0.016001582 -0.032120857 -0.059150614 0.020010678 0.011719487
-0.021169083 -0.061410904 -0.01886608 -0.01273208 -0.016086979 -0.0912349 0.0028535991 -0.02807396
-0.07635465 0.0051530595 0.00697364 0.030495524 0.024100382 -0.054895334 -0.07347803 -0.0030566216
0.049390793 -0.08020558 0.02463549 -0.029481312 -0.018990824 0.015511941 -0.070315346 0.0775628
00000000: 665c 22bf 4f2f d13d 225f afbc 6182 05be
00000010: 1905 8dbd 62bf ba3d 1ab7 8fbd 24ac 61be
00000020: 14f9 923e 9b42 ebbe 01a5 973e 48a4 f1bc
00000030: 6a7b 083d eb12 59bc 537a d83e 1333 1a3e
00000040: 7cba aabe 7058 1dbc 9de9 8a3b 2a79 c63c
00000050: 9cdb 5a3d e7ff 513d ae3b 79be c02a 07bf
00000060: 8ff1 0dbe 45fc 46be ea2c 1b3b 50ee d1bd
00000070: f7a2 613d d49a 1c3d 59a1 d8bc d009 3a3f
00000080: 975f 2abd e748 b1be 593c 4d3c 2964 833e
00000090: 8623 a73e 17d0 38bc ab5b d7bb 8add 9a3b
000000a0: 8974 873c 39af bf3d c0d7 1d3d d462 d2bc
000000b0: bab4 9b3d f1a5 e03c 15f8 d03d 1a75 883d
000000c0: 31b5 f6bd 555a 09bd 1072 7b3e 6edf 97be
000000d0: 7654 513e 6754 27bf 6fb4 73bc 5130 9bbd
000000e0: 0093 ac3e f116 4ebc 64c4 4b3e c366 49bd
000000f0: 23de bebd 49ff 18be 01b4 6a3e ffa4 92be
00000100: e1a6 88bc 4dbe b9bd 0932 1f3e 1a94 38be
00000110: cdbf 89be 56d8 cabd a4bd e4bc db32 fabd
00000120: 7573 ad3c 2198 70be 8822 ef3c d021 4d3e
00000130: 9a45 193e 749c b53d 2c9d 413e b2a3 9c3d
00000140: ace5 9fbd 5e03 553e b4a8 f4bc 38d9 013d
00000150: 1244 4fbe 04ed 3bbe b8ee a9bd ec25 3fbe
00000160: 4dab e8bd 6f0a 3c3c 3eae d3bd 68e6 05bd
00000170: f29f b43c e5a6 493e 5987 79be c30c 04be
00000180: 885e 433e 427d 7bbd e801 063c 5219 26bd
00000190: ae69 ea3d 0767 c6bd 25da 49bd 5a89 953e
000001a0: cd1d 4bbe 4652 2bbe 12e3 d3be 3fdb 223c
000001b0: c8f8 32be 1018 573c ee36 52bd eed3 11bd
000001c0: 2c8e 793d 3acf 8bbd 4e6e 843d 40b5 4c3d
000001d0: b739 0fbf 1189 553d 10e6 1fbd 5e0f 5d3d
000001e0: 4037 16be 0e13 63bc 1968 113d f646 67bd
000001f0: 283b 60bd c408 c03e 5b49 8fbd 82d7 ae3c
00000200: 1cf6 30bd 8b3b babd 6281 963c ee44 7b3d
00000210: a151 dfbc d4c9 813b e099 093d 5760 b6bd
00000220: a2b6 6bbb 6638 013c b090 dd3b 607f 093e
00000230: 858a 31bd b1b4 abb9 824e 87bd 0a11 8cbd
00000240: 9a32 c3bd a369 133d 4998 88bd 215c c23b
00000250: cbd5 963d 8945 d83c 9b15 64bd 0bd6 babc
00000260: b44c a8bd 5014 8fbc 9e00 9ebc 124d 08bc
00000270: 3df6 343d 8573 603c 73b6 53bd 2bc7 983c
00000280: d1e7 703c dba0 1dbc 8dae cfbd 4c9a f3bc
00000290: 5c34 61bd 99d5 9abd ad1f bcbc 7305 ad3d
000002a0: 7104 69bd 3d77 293d 9a7e 3bbb 3d2b e93d
000002b0: 83d1 543c d8c3 84ba db5a 3dbc acba fcbd
000002c0: a0cf 413c 33e5 ccbb 865b f5bb 018f 43bd
000002d0: e52a 8bbd 47a1 a0bc 0ebb b8bc 37a6 393c
000002e0: 6296 f8bc 3114 36bc 4e24 29bc 306c 3c3d
000002f0: 2c85 5c3d de20 3f3c 7102 5fbd 2a6a 6abc
00000300: be2f 5d3d ea17 573c 8e07 903c 80da cebd
00000310: 0085 863d c68d d0bd 226f f33b ef58 22bd
00000320: 55d7 1f3d 629b 3e3c 13e4 cd3c 362e 4fbc
00000330: 2a89 383b fef4 02bd ca5d c8bb 6e0a e53c
00000340: 6fd2 343d 7f99 bf3c cd74 a6bc 4d91 013c
00000350: c2b9 74bc 31fd e03c 30ad 9ebc e0fc 8bbd
00000360: 668e 4e3c d778 a2bd d792 a83c a5ca 31bd
00000370: 0a04 3abd f77e 0cbc 1547 0cbc 9f42 8cbd
00000380: a0e8 c33c 270b 55bd f615 c53a c015 83bc
00000390: 2991 03bd ea47 72bd 6fed a33c 1703 403c
000003a0: c96a adbc 008a 7bbd 0a8d 9abc 379a 50bc
000003b0: d7c8 83bc 5dd9 babd 7303 3b3b 5dfb e5bc
000003c0: d45f 9cbd ffda a83b 2283 e43b c0d1 f93c
000003d0: 2a6e c53c eed9 60bd a67b 96bd 9a51 48bb
000003e0: 004e 4a3d d342 a4bd 5ed0 c93c cb82 f1bc
000003f0: a592 9bbc cc25 7e3c 7e01 90bd 3fd9 9e3d

layers.2.bias f4 [64]
0.20214163 -0.015772428 -0.13081264 -0.053280603 0.25870425 -0.041746017 -0.025307264 -0.027956048
-0.020766744 0.20049445 -0.027940586 0.29813915 -0.020188456 -0.9159445 -0.043754388 -0.017827893
-0.072738655 -0.027150879 -0.08944627 -0.019560324 -0.02730987 -0.015539551 -0.05956734 -0.3279943
-0.015360217 -0.016257823 -0.030089982 0.20568508 -0.81997967 0.032321367 -0.04074207 -0.018395966
0.0028235184 0.029078089 -0.57035464 -0.020959958 0.008980139 -0.022613963 0.24020818 0.11709817
-0.06397499 0.3644251 -0.19901662 -0.018493216 -0.031235747 -0.02087761 -0.015402291 -0.021435576
-0.014778404 -0.015480403 -0.023871507 -0.035375483 -0.017321516 0.25535908 0.21696405 0.20719339
-0.034923904 -0.021686379 -0.018504642 -0.031269334 -0.035443593 -0.019416433 0.19663294 0.21453784
00000000: 37fe 4e3e 2e35 81bc c0f3 05be c33c 5abd
00000010: e274 843e dffd 2abd 2e51 cfbc 1504 e5bc
00000020: 051f aabc 6b4e 4d3e a8e3 e4bc b2a5 983e
00000030: 4362 a5bc 577b 6abf cd37 33bd cd0b 92bc
00000040: 01f8 94bd 856b debc 9b2f b7bd f93c a0bc
00000050: f3b8 dfbc 9a99 7ebc e2fc 73bd deee a7be
00000060: 6ba9 7bbc 202f 85bc 447f f6bc 1c9f 523e
00000070: 30ea 51bf 6963 043d 28e1 26bd 23b3 96bc
00000080: c70a 393b 2c35 ee3c c302 12bf 38b4 abbc
00000090: 6f21 133c eb40 b9bc 22f9 753e 2ad1 ef3d
000000a0: 5205 83bd ed95 ba3e 03cb 4bbe 167f 97bc
000000b0: 1ce2 ffbc 8607 abbc e459 7cbc a999 afbc
000000c0: 1e21 72bc 84a1 7dbc 2e8e c3bc e2e5 10bd
000000d0: dae5 8dbc 6dbe 823e d32b 5e3e 812a 543e
000000e0: 5e0c 0fbd a2a7 b1bc 0c97 97bc 4614 00bd
000000f0: 4d2d 11bd 360f 9fbc 255a 493e cfaf 5b3e

output_layer.weight f4 [1, 64]
-0.21208401 0.09302538 0.044443797 -0.025976319 -0.18617727 -0.04187121 -0.059054356 0.0064890776
0.04028969 0.14036484 0.012240478 0.13189182 -0.04195459 -0.25007668 -0.00536104 -0.0015127665
-0.2137248 -0.004887341 -0.00376382 0.021090666 -0.0038711973 -0.04908953 -0.101452254 0.15432437
0.07500716 -0.004716276 -0.0002183656 0.112455375 -0.2768058 0.12803903 0.005108606 -0.014295327
-0.11076092 0.15947302 0.23334531 -0.10562129 -0.012316508 -0.007815991 -0.21117537 0.11316538
0.021304717 0.3109045 -0.13626255 0.0050906227 -0.009429443 0.0063244686 -0.0017623131 -0.08304348
0.010102346 0.0010449386 -0.036057185 -0.010348041 -0.02646367 -0.22855633 0.16228086 -0.17787327
0.0038220284 -0.041485373 -0.053043645 -0.01564505 -0.063157134 -0.0019043952 -0.16423233 0.08610077
00000000: 8d2c 59be 1784 be3d b30a 363d 4acc d4bc
00000010: 41a5 3ebe 2581 2bbd fbe2 71bd 54a2 d43b
00000020: cd06 253d cdbb 0f3e 498c 483c a60e 073e
00000030: 93d8 2bbd 0d0a 80be aaab afbb 0548 c6ba
00000040: adda 5abe fd25 a0bb 6caa 76bb 55c6 ac3c
00000050: eab3 7dbb 1a12 49bd 33c6 cfbd 3507 1e3e
00000060: 5b9d 993d fe8a 9abb 12f9 64b9 014f e63d
00000070: 7db9 8dbe aa1c 033e 1866 a73b f236 6abc
00000080: 9fd6 e2bd e54c 233e 13f2 6e3e fa4f d8bd
00000090: 2ecb 49bc a40e 00bc 5b3e 58be 40c3 e73d
000000a0: 3b87 ae3c e02e 9f3e 6988 0bbe 3dcf a63b
000000b0: f37d 1abc 7d3d cf3b 6afd e6ba b312 aabd
000000c0: 4f84 253c 52f6 883a b3b0 13bd d48a 29bc
000000d0: 57ca d8bc ac0a 6abe f42c 263e 6924 36be
000000e0: ff7a 7a3b 91ec 29bd 4b44 59bd 0c2a 80bc
000000f0: 8758 81bd e69c f9ba 852c 28be 9a55 b03d
