models/best_model.pth (torch, 10466 bytes, 25 tensors)

network.0.weight f4 [8, 5]
0.15768377 -0.16564828 0.049816586 0.18751585 -0.0893662 0.24921425 -0.08055432 -0.06897541
0.47085074 0.43644086 0.1615809 0.019682312 -0.25219643 0.08573533 -0.40238413 -0.6972562
-0.075095 0.42732903 -0.11782606 -0.18161067 -0.552699 0.07609943 0.11192663 -0.28715527
0.27127898 -0.26030058 0.25305292 0.70186055 0.022105847 -0.31816816 -0.122490294 0.24607329
0.021473566 -0.0082537485 -0.4422991 0.60942715 -0.121172436 0.08027935 -0.45148313 -0.24775167
00000000: db77 213e b49f 29be 7a0c 4c3d 2804 403e
00000010: a005 b7bd 0532 7f3e aaf9 a4bd fb42 8dbd
00000020: 5913 f13e 2d75 df3e 7775 253e cd3c a13c
00000030: e41f 81be 0196 af3d 4b05 cebe 627f 32bf
00000040: 68cb 99bd dfca da3e ca4e f1bd 26f8 39be
00000050: af7d 0dbf 05da 9b3d ca39 e53d 0406 93be
00000060: 14e5 8a3e 1e46 85be 2790 813e 22ad 333f
00000070: 5217 b53c f0e6 a2be 31dc fabd a3fa 7b3e
00000080: 55e9 af3c bb3a 07bc 0775 e2be 6b03 1c3f
00000090: 4129 f8bd 8069 a43d cc28 e7be 9db2 7dbe

network.0.bias f4 [8]
1.8751207e-08 -1.4436613e-09 1.4432905e-09 9.057257e-09 4.4672313e-10 1.08889555e-08 4.9835327e-09 -8.063401e-09
00000000: 5712 a132 516a c6b0 455d c630 3d9a 1b32
00000010: b196 f52f 2212 3b32 9e3b ab31 3687 0ab2

network.1.weight f4 [8]
0.6439991 0.6382288 0.57638586 0.86148167 0.57311916 0.87269926 0.55851495 0.776725
00000000: 20dd 243f f662 233f 068e 133f 108a 5c3f
00000010: f0b7 123f 3869 5f3f d6fa 0e3f 73d7 463f

network.1.bias f4 [8]
0.04290886 0.16009825 0.0072424114 0.074939676 -0.086461395 0.06224773 -0.08339691 0.031408895
00000000: 33c1 2f3d ccf0 233e c051 ed3b f979 993d
00000010: ac12 b1bd 7af7 7e3d 00cc aabd 9da6 003d

network.1.running_mean f4 [8]
0.028486881 0.035084922 0.034334365 -0.033384755 -0.052924033 -0.04144301 -0.0041628373 -0.010148176
00000000: 525d e93c 35b5 0f3d 31a2 0c3d 74be 08bd
00000010: dfc6 58bd 25c0 29bd 6968 88bb 8944 26bc

network.1.running_var f4 [8]
0.081512295 0.51074815 0.28361517 0.84082735 0.5393132 0.72048604 0.24981257 0.6317548
00000000: ebef a63d 64c0 023f 0236 913e 7640 573f
00000010: 6e10 0a3f c671 383f dece 7f3e afba 213f

network.4.weight f4 [8, 8]
-0.09810101 -0.040806286 -0.0818213 -0.06230212 -0.5206166 -0.21256477 -0.0031946115 -0.13535248
-0.31223208 0.34031495 0.11876082 0.22348721 -0.2994514 -0.67804694 -0.12067493 -0.13938859
-0.095737755 -0.19463408 -0.2658731 -0.16133426 0.26459336 0.26044005 0.07061931 -0.2757027
0.25673273 -0.4955715 -0.3413112 0.45433503 -0.32653677 -0.049008276 0.09714415 -0.35168028
-0.30039826 -0.07445035 0.086712904 -0.1541795 -0.044203963 0.46020144 -0.3609245 0.4689746
0.29152918 0.055318248 0.15775223 0.30399984 0.092894875 0.18806615 -0.11935028 0.38189632
0.30200034 0.18840948 0.2212736 -0.23110121 0.25952056 0.3059854 -0.019907087 0.39840892
-0.068763465 -0.19609706 -0.023946062 0.38668102 0.13808602 -0.12104436 0.12931658 0.17242432
00000000: 2fe9 c8bd 7e24 27bd ed91 a7bd 8230 7fbd
00000010: 2147 05bf 94aa 59be b05c 51bb d799 0abe
00000020: e2dc 9fbe c33d ae3e df38 f33d d5d9 643e
00000030: b251 99be 7c94 2dbf 6b24 f7bd e2bb 0ebe
00000040: 2812 c4bd 284e 47be 8520 88be cf34 25be
00000050: c878 873e 6658 853e dba0 903d e728 8dbe
00000060: 7972 833e 8cbb fdbe 57c0 aebe 9a9e e83e
00000070: d42f a7be e7bc 48bd 83f3 c63d 700f b4be
00000080: cdcd 99be 6d79 98bd 8996 b13d 3be1 1dbe
00000090: 370f 35bd 869f eb3e 19cb b8be 701d f03e
000000a0: 5043 953e 6395 623d cd89 213e dea5 9b3e
000000b0: ab3f be3d 6a94 403e eb6d f4bd ea87 c33e
000000c0: ca9f 9a3e 6aee 403e 8c95 623e cca5 6cbe
000000d0: e1df 843e 1eaa 9c3e 3014 a3bc 41fc cb3e
000000e0: dcd3 8cbd abcd 48be 882a c4bc 0efb c53e
000000f0: 6c66 0d3e 1be6 f7bd 916b 043e 0090 303e

network.4.bias f4 [8]
2.828951e-09 9.968469e-10 3.098067e-09 -2.2246715e-08 1.2967427e-08 -7.0074395e-09 1.2503479e-09 -1.8169654e-08
00000000: 6f67 4231 6f01 8930 c5e5 5431 0b19 bfb2
00000010: 59c7 5e32 17c6 f0b1 b5d8 ab30 7e13 9cb2

network.5.weight f4 [8]
0.4646823 0.68026257 0.7480918 0.7902522 1.0170958 0.57176614 0.49689642 0.8256791
00000000: d7ea ed3e b025 2e3f f282 3f3f f84d 4a3f
00000010: 3230 823f 445f 123f 3569 fe3e b55f 533f

network.5.bias f4 [8]
0.019420661 0.061616942 0.0027764516 0.05022627 0.122907445 -0.055441793 -0.0824429 0.042579986
00000000: 1418 9f3c 0c62 7c3d 21f5 353b 10ba 4d3d
00000010: e6b6 fb3d ef16 63bd d3d7 a8bd 5a68 2e3d

network.5.running_mean f4 [8]
-0.31775755 -0.24731658 -0.14067431 -0.17624263 0.12763794 0.45929876 0.4044436 0.12047052
00000000: 1eb1 a2be 8f40 7dbe ed0c 10be f378 34be
00000010: 85b3 023e 3529 eb3e 3b13 cf3e 3fb9 f63d

network.5.running_var f4 [8]
0.06948582 0.21633378 0.095973596 0.21793824 0.14988308 0.097406834 0.10668821 0.09989142
00000000: 954e 8e3d 9a86 5d3e ce8d c43d 342b 5f3e
00000010: f37a 193e 3c7d c73d 597f da3d df93 cc3d

network.8.weight f4 [8, 8]
-0.0077587967 -0.22404772 -0.0069354163 -0.34333462 0.33931065 -0.00784289 -0.029021714 -0.0018854869
0.18547806 0.071495205 0.0053305263 -0.11301421 -0.2686587 -0.29154575 0.44183356 -0.32541925
-0.16393162 -0.80646986 0.28695422 0.036449928 0.056649312 0.03160134 -0.29257363 -0.068338856
0.0024758414 0.2894567 -0.19171031 -0.3189 -0.2487513 0.61763304 -0.12885289 -0.1602821
-0.004773294 -0.078900434 0.25999352 0.48400348 0.23209482 0.17262495 -0.04248708 -0.07000601
-0.23016495 -0.14456661 0.11628563 -0.3729576 0.4491441 -0.03240961 -0.20706487 -0.0006801458
-0.04922871 -0.12115132 0.3886233 -0.13428529 0.41688147 -0.080317594 -0.07404724 -0.031802956
0.04851615 -0.49728778 -0.046966217 0.5995893 -0.3238015 0.1839444 -0.12416669 0.26349756
00000000: 813d febb c46c 65be 7d42 e3bb 8ec9 afbe
00000010: 20ba ad3e 777f 00bc f2be edbc 7122 f7ba
00000020: f6ed 3d3e 146c 923d b2ab ae3b fe73 e7bd
00000030: a28d 89be 7c45 95be 0238 e23e 5a9d a6be
00000040: b1dd 27be cf74 4ebf aaeb 923e 854c 153d
00000050: 1c09 683d 6870 013d 36cc 95be 3ef5 8bbd
00000060: ba41 223b ab33 943e b54f 44be dc46 a3be
00000070: a9b8 7ebe 331d 1e3f 03f2 03be fe20 24be
00000080: 4b69 9cbb 8d96 a1bd df1d 853e 4ecf f73e
00000090: 44aa 6d3e 98c4 303e ef06 2ebd 505f 8fbd
000000a0: 5cb0 6bbe 4509 14be 2927 ee3d 4cf4 bebe
000000b0: 37f6 e53e f0bf 04bd d008 54be d04b 32ba
000000c0: 0ba4 49bd 2f1e f8bd a2f9 c63e 1582 09be
000000d0: 7d71 d53e 8d7d a4bd 14a6 97bd d143 02bd
000000e0: dfb8 463d 819c febe a65f 40bd af7e 193f
000000f0: 4fc9 a5be ec5b 3c3e 1b4b febd 27e9 863e

network.8.bias f4 [8]
4.6558318e-10 -1.3810706e-08 -1.7711264e-08 -3.7123654e-10 5.178632e-09 -1.5279953e-09 9.805012e-09 2.5211106e-08
00000000: 02f5 ff2f 2144 6db2 7b23 98b2 e616 ccaf
00000010: bbef b131 8e01 d2b0 e672 2832 cf8f d832

network.9.weight f4 [8]
0.6081514 0.6303285 0.7222675 0.5693155 0.58166134 1.0536903 1.0720154 0.8386538
00000000: cfaf 1b3f 355d 213f 86e6 383f a9be 113f
00000010: c2e7 143f 53df 863f cd37 893f 04b2 563f

network.9.bias f4 [8]
-0.068311 0.22083557 -0.05383955 0.14344807 -0.09493896 0.086020164 0.17264058 -0.106704
00000000: a3e6 8bbd b822 623e dc86 5cbd 0de4 123e
00000010: 5c6f c2bd 572b b03d b1c8 303e a087 dabd

network.9.running_mean f4 [8]
-0.044737056 -0.20571713 -0.22506139 -0.14619824 0.3321476 -0.01978887 0.17583662 0.0119423205
00000000: 343e 37bd 83a7 52be 7e76 66be feb4 15be
00000010: 400f aa3e 451c a2bc 840e 343e b9a9 433c

network.9.running_var f4 [8]
0.15823846 0.2193404 0.2295287 0.15486138 0.16840501 0.22896194 0.20681156 0.37422428
00000000: 4309 223e c59a 603e 9209 6b3e fb93 1e3e
00000010: 5d72 2c3e 0075 6a3e 69c6 533e 539a bf3e

network.12.weight f4 [8, 8]
-0.30884337 0.17317687 0.25536513 0.09568663 0.10301871 -0.5971048 -0.22182079 -0.058832537
-0.0021402386 0.39098677 -0.0053837616 0.00049649744 -0.1111977 0.19158615 -0.0003039502 -0.00017274298
0.02906284 0.58005226 -0.60842675 0.32526895 -0.15663746 -0.34294644 -0.7259824 0.5655299
-0.032601036 0.18280229 -0.011268136 0.048768982 -0.054884743 0.114806205 -0.016768282 -0.55972
-0.00045664964 0.002954767 1.4062123e-05 -0.0009858422 -0.3416115 0.0025782885 -0.0036020086 0.0013740663
-0.115488134 0.045944344 0.1830666 0.14297111 0.2846917 -0.6162504 -0.32805437 -0.12754497
-0.0016417545 -0.24764079 -0.000631583 -0.0021693131 -0.000700653 0.2941094 -0.09958875 -0.0016345622
0.01344522 0.050049555 0.003568584 0.0003684182 -0.0012684795 -0.00019292311 0.05335212 -0.0022009015
00000000: b820 9ebe 4755 313e 38bf 823e 5af7 c33d
00000010: 79fb d23d dcdb 18bf fd24 63be 63fa 70bd
00000020: 3f43 0cbb 6b2f c83e 446a b0bb 6127 023a
00000030: 9fbb e3bd 292f 443e 815b 9fb9 5722 35b9
00000040: 3115 ee3c 4e7e 143f dbc1 1bbf a789 a63e
00000050: 9265 20be ad96 afbe fcd9 39bf 91c6 103f
00000060: aa88 05bd 8630 3b3e fd9d 38bc fcc1 473d
00000070: d3ce 60bd 841f eb3d a35d 89bc cf49 0fbf
00000080: 7a6a efb9 c4a4 413b 5cec 6b37 6037 81ba
00000090: b4e7 aebe 81f8 283b ad0f 6cbb 041a b43a
000000a0: 0b85 ecbd 2330 3c3d d075 3b3e 0567 123e
000000b0: 1cc3 913e 96c2 1dbf bef6 a7be 269b 02be
000000c0: 2430 d7ba 8c95 7dbe d190 25ba 092b 0ebb
000000d0: 07ac 37ba 8295 963e 30f5 cbbd ce3e d6ba
000000e0: 5749 5c3c c300 4d3d e8de 693b 4128 c139
000000f0: 1c43 a6ba 674b 4ab9 c187 5a3d 003d 10bb

network.12.bias f4 [8]
1.1958658e-08 -3.663671e-10 4.268671e-08 -9.554277e-10 3.15067e-10 -2.1215705e-09 2.0040478e-10 1.0550785e-08
00000000: bc72 4d32 9669 c9af 8956 3733 2050 83b0
00000010: bd35 ad2f 10cb 11b1 ee58 5c2f d842 3532

network.13.weight f4 [8]
0.48880845 0.15833257 0.36750484 0.3046746 0.13458696 0.38193947 0.16996595 0.14932194
00000000: 1a45 fa3e ef21 223e 9829 bc3e 4ffe 9b3e
00000010: 2ad1 093e 928d c33e 8e0b 2e3e dae7 183e

network.13.bias f4 [8]
-0.50570846 -0.096903466 -0.59865093 -0.34971523 -0.04390081 -0.3903447 -0.0510356 -0.09134535
00000000: 1c76 01bf 5375 c6bd 3041 19bf e00d b3be
00000010: 56d1 33bd 43db c7be b50a 51bd 4513 bbbd

network.13.running_mean f4 [8]
-0.22511107 0.20977281 -0.16822818 -0.05321216 -0.06556428 -0.2869314 -0.033043552 0.04812831
00000000: 8483 66be afce 563e 0244 2cbe fef4 59bd
00000010: 9146 86bd ace8 92be ad58 07bd 3122 453d

network.13.running_var f4 [8]
0.7160536 0.04411817 1.7539926 0.18279073 0.01982946 0.68370855 0.07441925 0.0028363864
00000000: 4a4f 373f 41b5 343d d482 e03f 7e2d 3b3e
00000010: 6471 a23c 8607 2f3f 1f69 983d abe2 393b

network.16.weight f4 [1, 8]
-0.44211054 0.00021585764 0.52110755 -0.03149416 0.00032272242 0.08073328 -0.00093450956 -0.000688302
00000000: 505c e2be d857 6239 4e67 053f 0500 01bd
00000010: 1233 a939 7d57 a53d e0f9 74ba 2a6f 34ba
