models/best_model.pth (torch, 21346 bytes, 19 tensors)

network.0.weight f4 [64, 5]
0	0x80225f16	-3.156517e-39
1	0x800b20f0	-1.022006e-39
2	0x002cd7bf	4.118157e-39
3	0x801cb81d	-2.637441e-39
4	0x801dd3b1	-2.73917e-39
5	0x93566de2	-2.7064774e-27
6	0x27eff108	6.6597152e-15
7	0xa0c5886e	-3.346338e-19
8	0x1fdcbd3a	9.3486673e-20
9	0x0012de76	1.732843e-39
10	0x801f2169	-2.858886e-39
11	0x80174ebb	-2.14046e-39
12	0x000ea78b	1.3458e-39
13	0x00047157	4.08e-40
14	0x00147634	1.879113e-39
15	0x00225083	3.151289e-39
16	0x80061875	-5.59787e-40
17	0x8016d29d	-2.095935e-39
18	0x00017e8c	1.37232e-40
19	0x003154d2	4.530367e-39
20	0x8013296a	-1.759731e-39
21	0x8012e28d	-1.73431e-39
22	0x00148740	1.885228e-39
23	0x00105027	1.498121e-39
24	0x801e716d	-2.795754e-39
25	0x0016340c	2.039052e-39
26	0x800f4a85	-1.404265e-39
27	0x000c1df3	1.11277e-39
28	0x0015f57f	2.016613e-39
29	0x802f2fc7	-4.333408e-39
30	0x8040d954	-5.955434e-39
31	0x00028084	2.29774e-40
32	0x000e248b	1.298806e-39
33	0x800cade5	-1.164408e-39
34	0x000b58d7	1.04206e-39
35	0x80195d91	-2.329453e-39
36	0x000f0478	1.379136e-39
37	0x000e785b	1.328872e-39
38	0x000b1566	1.017867e-39
39	0x801b5f3e	-2.513725e-39
40	0x8012563b	-1.683973e-39
41	0x001995a3	2.349567e-39
42	0x00118a7d	1.610884e-39
43	0x0017f017	2.198344e-39
44	0x000c1493	1.109407e-39
45	0x800dd59c	-1.27049e-39
46	0x00067215	5.91938e-40
47	0x80053c82	-4.80884e-40
48	0x800bed17	-1.095242e-39
49	0x00126429	1.68897e-39
50	0x00498cad	6.754456e-39
51	0x001ae86c	2.4711e-39
52	0x87ef6bad	-3.602401e-34
53	0x99befb5e	-1.9747066e-23
54	0x0001f0d0	1.78223e-40
55	0x80149066	-1.88851e-39
56	0x00139df1	1.801533e-39
57	0x801a794d	-2.431237e-39
58	0x00183bd4	2.225514e-39
59	0x8015cbb2	-2.001618e-39
60	0x002ab43f	3.921751e-39
61	0x0004eadf	4.51598e-40
62	0x0003e6d0	3.58306e-40
63	0x800f7a3f	-1.421386e-39
64	0x8015f27d	-2.015534e-39
65	0x800a45a2	-9.43335e-40
66	0x800011c6	-6.376e-42
67	0x000bdbaf	1.088998e-39
68	0x800de5e5	-1.276332e-39
69	0x0017774a	2.155009e-39
70	0x003b7592	5.46047e-39
71	0x1a233c53	3.375634e-23
72	0x1f02142c	2.7545257e-20
73	0x9bc4f986	-3.258673e-22
74	0x0010f23d	1.556267e-39
75	0x0006412b	5.74391e-40
76	0x0002ace3	2.45691e-40
77	0x800ff4e9	-1.46539e-39
78	0x802e85cd	-4.272431e-39
79	0x800bd3a9	-1.08612e-39
80	0x00161fb9	2.031761e-39
81	0x8016660f	-2.056993e-39
82	0x0013bf48	1.813493e-39
83	0x000df815	1.282857e-39
84	0x0012cdd1	1.726872e-39
85	0x801fc760	-2.918423e-39
86	0x00212f1c	3.047471e-39
87	0x80131020	-1.750659e-39
88	0x00056708	4.96138e-40
89	0x8004e9e6	-4.51249e-40
90	0x000ff458	1.465186e-39
91	0x0018de67	2.283835e-39
92	0x80114a0a	-1.587764e-39
93	0x800b26d4	-1.02412e-39
94	0x0015c3e7	1.998822e-39
95	0x000088ec	4.9118e-41
96	0x8017508a	-2.141108e-39
97	0x0006c444	6.2142e-40
98	0x0007b3ad	7.07304e-40
99	0x00167f1a	2.065976e-39
100	0x80084e4e	-7.62774e-40
101	0x0220c58e	1.1811639e-37
102	0x8010020d	-1.470104e-39
103	0x000e701a	1.325911e-39
104	0x800c85ce	-1.150026e-39
105	0x800293eb	-2.36734e-40
106	0x00218fed	3.082202e-39
107	0x804681e1	-6.475077e-39
108	0x0009e4c8	9.08591e-40
109	0x0017b70e	2.177884e-39
110	0x80143bd5	-1.858174e-39
111	0x001297a5	1.707439e-39
112	0x8008fb1f	-8.24769e-40
113	0x800d2b7f	-1.209465e-39
114	0x80392f23	-5.251533e-39
115	0x80102aa8	-1.48467e-39
116	0x001ee816	2.838322e-39
117	0x0011f015	1.647329e-39
118	0x800b3964	-1.030778e-39
119	0x801a1433	-2.394969e-39
120	0x80040720	-3.69898e-40
121	0x000b22ef	1.022722e-39
122	0x00302b8a	4.423723e-39
123	0x80226539	-3.158719e-39
124	0x000d45a0	1.218838e-39
125	0x00176dad	2.15156e-39
126	0x001024df	1.482595e-39
127	0x0017a751	2.172238e-39
128	0x001d00d4	2.663526e-39
129	0x80153003	-1.945769e-39
130	0x802fdc7c	-4.395363e-39
131	0x00219772	3.0849e-39
132	0x8011148f	-1.568578e-39
133	0x80112624	-1.574886e-39
134	0x00298c0b	3.815493e-39
135	0x8039c0b1	-5.303748e-39
136	0x1d39ae76	2.457474e-21
137	0x99fa106e	-2.585603e-23
138	0x1445e8d2	9.991874e-27
139	0x001ba4ae	2.538634e-39
140	0x0014ca28	1.90923e-39
141	0x801c4770	-2.597021e-39
142	0x8018180a	-2.212675e-39
143	0x801303df	-1.746263e-39
144	0x000cae63	1.164584e-39
145	0x00199846	2.350513e-39
146	0x8006b627	-6.16357e-40
147	0x801aa010	-2.445143e-39
148	0x80173438	-2.130949e-39
149	0x000a1503	9.25893e-40
150	0x001a5626	2.418627e-39
151	0x8028fe9f	-3.76476e-39
152	0x80096144	-8.61412e-40
153	0x8002240e	-1.96605e-40
154	0x80220a2f	-3.12606e-39
155	0x8020d9cc	-3.016867e-39
156	0x165729b6	1.7380723e-25
157	0x8a394069	-8.91954e-33
158	0x85248ad7	-7.736744e-36
159	0x000b84cf	1.057833e-39
160	0x0017f6c6	2.200742e-39
161	0x801c611e	-2.606233e-39
162	0x80409207	-5.929856e-39
163	0x0ad44dc3	2.0444108e-32
164	0x00150802	1.931418e-39
165	0x802614c3	-3.497197e-39
166	0x80174bac	-2.139362e-39
167	0x8048722b	-6.653111e-39
168	0x003502ea	4.868327e-39
169	0x80135ed3	-1.778891e-39
170	0x802639f4	-3.510539e-39
171	0x8017f6ea	-2.200792e-39
172	0x80070a7f	-6.46614e-40
173	0x80126a43	-1.691158e-39
174	0x802b9543	-4.002471e-39
175	0x00206c5c	2.977608e-39
176	0x80199698	-2.34991e-39
177	0x80066cd4	-5.90053e-40
178	0x8006b29e	-6.15089e-40
179	0x802a18ac	-3.865941e-39
180	0xb195958a	-4.3534714e-09
181	0x39084e98	0.00012999249
182	0xb649ec02	-3.0088709e-06
183	0x366070a1	3.344416e-06
184	0x3073fcfe	8.876241e-10
185	0x00189c30	2.260081e-39
186	0x801aa34a	-2.4463e-39
187	0x801606d6	-2.022833e-39
188	0x80118e20	-1.612188e-39
189	0x802eafe7	-4.287535e-39
190	0x00139970	1.799917e-39
191	0x25ae179d	3.020019e-16
192	0xa40a9661	-3.0051356e-17
193	0x21640930	7.7261564e-19
194	0x80237830	-3.257358e-39
195	0x801676ef	-2.063046e-39
196	0x0015173d	1.936882e-39
197	0x00142905	1.851425e-39
198	0x001722ca	2.124696e-39
199	0x801e1d42	-2.76556e-39
200	0x803924f6	-5.247882e-39
201	0x8029c37f	-3.835386e-39
202	0x800b0039	-1.01027e-39
203	0x00096300	8.62034e-40
204	0x0016b4fc	2.085306e-39
205	0x801b4a91	-2.506308e-39
206	0x800ffbc7	-1.467853e-39
207	0x800c44c8	-1.1267e-39
208	0x8011c738	-1.63267e-39
209	0x0014d9a1	1.91478e-39
210	0x149d2246	1.5866467e-26
211	0xa83eb484	-1.0586262e-14
212	0x19fcec86	2.615172e-23
213	0x9769179a	-7.531615e-25
214	0x001205a1	1.655058e-39
215	0x80092771	-8.40668e-40
216	0x8020294e	-2.953553e-39
217	0x001875fb	2.246375e-39
218	0x80217357	-3.071948e-39
219	0x800bf7b3	-1.099048e-39
220	0x0006dc80	6.30113e-40
221	0x8009f80a	-9.15499e-40
222	0x80245219	-3.335529e-39
223	0x0007ccf0	7.16366e-40
224	0x803dcd1f	-5.675549e-39
225	0x0025d400	3.473965e-39
226	0x00175d0b	2.145594e-39
227	0x803302c6	-4.684605e-39
228	0x801696ef	-2.074526e-39
229	0x001453b3	1.866736e-39
230	0x000dbdab	1.261901e-39
231	0x80177689	-2.154739e-39
232	0x80077f4f	-6.88518e-40
233	0x8020ec51	-3.02351e-39
234	0x803c04ca	-5.511848e-39
235	0x0045a5d9	6.396144e-39
236	0x8025009c	-3.398132e-39
237	0x8000c348	-7.0054e-41
238	0x8004f0eb	-4.53767e-40
239	0x80034cd8	-3.03073e-40
240	0x8011f23e	-1.648104e-39
241	0x802fb775	-4.38208e-39
242	0x00109042	1.521118e-39
243	0x0013fbee	1.83525e-39
244	0x8018559d	-2.234764e-39
245	0x80003b2c	-2.1227e-41
246	0x8010206a	-1.480996e-39
247	0x80173606	-2.131596e-39
248	0x800f4139	-1.40093e-39
249	0x8000469c	-2.533e-41
250	0x00072b5c	6.58403e-40
251	0x802776e5	-3.624236e-39
252	0x000a4b93	9.45466e-40
253	0x801edcd7	-2.834287e-39
254	0x0013fcfd	1.83563e-39
255	0x028d028e	2.0719554e-37

network.0.bias f4 [64]
0	0x81a90f2a	-6.2102555e-38
1	0x02624640	1.6624018e-37
2	0x820d2b88	-1.0371537e-37
3	0x01f7efd0	9.1077584e-38
4	0x826a667f	-1.722102e-37
5	0x825407dc	-1.5577556e-37
6	0x8248ec38	-1.4761471e-37
7	0x02588e41	1.5909999e-37
8	0x018bbe52	5.133363e-38
9	0x827289cf	-1.7818901e-37
10	0x012aaae0	3.1346665e-38
11	0x014b718c	3.7366677e-38
12	0x01f27bfc	8.907467e-38
13	0x81d88604	-7.953817e-38
14	0x829f30da	-2.339099e-37
15	0x012a6048	3.1293147e-38
16	0x005e8fd8	8.684138e-39
17	0x01995528	5.6325517e-38
18	0x0249f49b	1.4837346e-37
19	0x01ad9fb6	6.377934e-38
20	0x016bb2d4	4.3290986e-38
21	0x02104214	1.0598413e-37
22	0x8126d740	-3.064382e-38
23	0x00748d28	1.0703555e-38
24	0x8196a5a4	-5.533898e-38
25	0x81aecfca	-6.421567e-38
26	0x019ff900	5.8764673e-38
27	0x02053af5	9.788217e-38
28	0x814c6f18	-3.7548588e-38
29	0x01936f8e	5.4159345e-38
30	0x8001d360	-1.67663e-40
31	0x02052451	9.781719e-38
32	0x815b0754	-4.0229205e-38
33	0x81fd9e42	-9.316461e-38
34	0x823fdba1	-1.4095494e-37
35	0x81dc5d9e	-8.094957e-38
36	0x01a93c62	6.216744e-38
37	0x81916b80	-5.341884e-38
38	0x01983666	5.591404e-38
39	0x8266195e	-1.6905011e-37
40	0x01b34518	6.585336e-38
41	0x8071c478	-1.0447891e-38
42	0x82a06a5e	-2.3570939e-37
43	0x8195bea2	-5.50075e-38
44	0x822c0b95	-1.2639888e-37
45	0x021d6262	1.1562773e-37
46	0x825c92f5	-1.6205222e-37
47	0x821a8d5d	-1.1354702e-37
48	0x021117a2	1.06597e-37
49	0x8075ac68	-1.0806601e-38
50	0x814988d0	-3.7016028e-38
51	0x81e6a382	-8.472328e-38
52	0x026cb49b	1.7390373e-37
53	0x02416da6	1.4210868e-37
54	0x81b462ea	-6.626349e-38
55	0x0194465a	5.4467563e-38
56	0x02322ef1	1.3090846e-37
57	0x01b0c8ca	6.494031e-38
58	0x0207136e	9.92381e-38
59	0x015f6ed4	4.1038147e-38
60	0x827079ab	-1.7667332e-37
61	0x8181d90a	-4.769855e-38
62	0x01260590	3.0493376e-38
63	0x818f3f64	-5.2620865e-38

network.1.weight f4 [64]
0	0x00127615	1.695399e-39
1	0x000aecae	1.00326e-39
2	0x0006c7c0	6.2267e-40
3	0x00015878	1.23572e-40
4	0x001f6e52	2.886476e-39
5	0x00154fe9	1.957212e-39
6	0x0003b8c6	3.41791e-40
7	0x800a7f1d	-9.63955e-40
8	0x000787ba	6.91538e-40
9	0x8007be99	-7.11222e-40
10	0x0008aea7	7.97337e-40
11	0x801070bd	-1.509811e-39
12	0x00132a25	1.759993e-39
13	0x000ac43c	9.8875e-40
14	0x000bec50	1.094963e-39
15	0x000b5177	1.039415e-39
16	0x00008af3	4.9846e-41
17	0x00085868	7.66398e-40
18	0x00118575	1.609079e-39
19	0x000c561d	1.132918e-39
20	0x000a53bd	9.48395e-40
21	0x000d1ebf	1.204891e-39
22	0x00158368	1.975685e-39
23	0x000cd994	1.180078e-39
24	0x00091f1e	8.37682e-40
25	0x000fa765	1.437582e-39
26	0x800d903c	-1.245603e-39
27	0x002765b3	3.618067e-39
28	0x00096ef7	8.66326e-40
29	0x000e0e91	1.290922e-39
30	0x000cc51c	1.172735e-39
31	0x001f0592	2.848899e-39
32	0x0009ba7e	8.9342e-40
33	0x80055779	-4.90557e-40
34	0x0005e757	5.42167e-40
35	0x0003f56b	3.63546e-40
36	0x0e1b2bb7	1.9126273e-30
37	0x000f7d49	1.422476e-39
38	0x800b8d31	-1.06084e-39
39	0x0015a8c2	1.989084e-39
40	0x801e4154	-2.7785e-39
41	0x001ef2ee	2.842212e-39
42	0x000de076	1.274383e-39
43	0x000c2547	1.115399e-39
44	0x8019bcaf	-2.363574e-39
45	0x0005a398	5.17864e-40
46	0x00159e95	1.985434e-39
47	0x80441b2d	-6.254563e-39
48	0x8017d62e	-2.18905e-39
49	0x8002483f	-2.09588e-40
50	0x00097b75	8.70808e-40
51	0x8039d821	-5.312156e-39
52	0x000f3e40	1.399864e-39
53	0x85787753	-1.168282e-35
54	0x801fdd0c	-2.926197e-39
55	0x0017f5b0	2.200352e-39
56	0x0009d21e	9.01895e-40
57	0x0015e4ae	2.01058e-39
58	0x00031fd0	2.86919e-40
59	0x0017c4c1	2.182798e-39
60	0x000e8b31	1.33563e-39
61	0x000c7c35	1.146583e-39
62	0x000586a9	5.07484e-40
63	0x000ef29d	1.37273e-39

network.1.bias f4 [64]
0	0x8009ed11	-9.11563e-40
1	0x000cd7f4	1.179495e-39
2	0x003788c9	5.100022e-39
3	0x80040d7f	-3.72183e-40
4	0x800ef510	-1.373609e-39
5	0x8009b141	-8.90106e-40
6	0x80139f70	-1.80207e-39
7	0x8007a2f4	-7.01305e-40
8	0x002fdadd	4.394782e-39
9	0x00021200	1.90128e-40
10	0x80143e7a	-1.859122e-39
11	0x000f18e0	1.386456e-39
12	0x8010540f	-1.499522e-39
13	0x803b505a	-5.447119e-39
14	0x801e26ed	-2.769029e-39
15	0x801813ff	-2.211225e-39
16	0x000427c5	3.81609e-40
17	0x0011c50e	1.631893e-39
18	0x8010b9c6	-1.536011e-39
19	0x800ea376	-1.344336e-39
20	0x8041668a	-6.006091e-39
21	0x0011cafb	1.634019e-39
22	0x8009c234	-8.96186e-40
23	0x002009d0	2.942256e-39
24	0x000482b7	4.14234e-40
25	0x800dd441	-1.270004e-39
26	0x8019fc0e	-2.386308e-39
27	0x80010f58	-9.734e-41
28	0x80179096	-2.164084e-39
29	0x80195f5a	-2.330093e-39
30	0x002d674b	4.169652e-39
31	0x801a4e27	-2.415759e-39
32	0x003c4730	5.535667e-39
33	0x0016e168	2.101241e-39
34	0x80211ff7	-3.042038e-39
35	0x801b4a4e	-2.506214e-39
36	0x9ba79463	-2.7723725e-22
37	0x8009690c	-8.64203e-40
38	0x001d2e6a	2.67988e-39
39	0x800d8fd7	-1.245461e-39
40	0x800f234e	-1.390197e-39
41	0x0024d124	3.381103e-39
42	0x800eccbd	-1.359143e-39
43	0x00106c30	1.508178e-39
44	0x8004439a	-3.91593e-40
45	0x00108af8	1.51922e-39
46	0x801a87b7	-2.436408e-39
47	0x802021ce	-2.950863e-39
48	0x80174932	-2.138474e-39
49	0x80174866	-2.138188e-39
50	0x8017bb48	-2.1794e-39
51	0x80157f0e	-1.974124e-39
52	0x000fb064	1.44081e-39
53	0x802bd843	-4.026506e-39
54	0x801164ce	-1.597365e-39
55	0x8014aa68	-1.89784e-39
56	0x000b9277	1.062732e-39
57	0x000b8a44	1.059791e-39
58	0x80463bf7	-6.449996e-39
59	0x0011aeef	1.623958e-39
60	0x802e04ca	-4.226151e-39
61	0x801e5caf	-2.788313e-39
62	0x00121172	1.659297e-39
63	0x0026b666	3.555181e-39

network.1.running_mean f4 [64]
0	0x804af6e8	-6.8844e-39
1	0x2530a235	1.5320524e-16
2	0x000bb92f	1.076622e-39
3	0x80015557	-1.2245e-40
4	0x0050e571	7.429148e-39
5	0x0097e495	1.394916e-38
6	0x0053e3b0	7.704025e-39
7	0x8091805d	-1.3362195e-38
8	0x80710a1e	-1.038104e-38
9	0x005a8c92	8.315622e-39
10	0x17310d6c	5.7208725e-25
11	0x80343652	-4.794932e-39
12	0x80523198	-7.548302e-39
13	0x0016e441	2.102263e-39
14	0x1c9a6e22	1.0219334e-21
15	0x80425f10	-6.095245e-39
16	0x806cf3d8	-1.0005708e-38
17	0x80605fe7	-8.850611e-39
18	0x80b22f4d	-1.6363687e-38
19	0x8031aa6b	-4.561074e-39
20	0x00883a58	1.2510557e-38
21	0x8000fc31	-9.0469e-41
22	0x804455e7	-6.27563e-39
23	0x0022c7e1	3.19411e-39
24	0x8019ecff	-2.380906e-39
25	0x0001efcc	1.77858e-40
26	0x8049b7f8	-6.769987e-39
27	0x1a8d3f57	5.8418564e-23
28	0x8077d7e7	-1.1005875e-38
29	0x000de78b	1.276923e-39
30	0x0126434c	3.0537668e-38
31	0x13add4dc	4.3881235e-27
32	0x88263ba4	-5.0023915e-34
33	0x80455ecd	-6.370657e-39
34	0x01190eaa	2.8112183e-38
35	0x007bf37f	1.1383116e-38
36	0x362d5c2b	2.5832658e-06
37	0x8016a77e	-2.080466e-39
38	0x22d8cbea	5.876282e-18
39	0x004c136f	6.986469e-39
40	0x00125d69	1.686548e-39
41	0x80dfeaea	-2.0563587e-38
42	0xa58c0fa4	-2.4296727e-16
43	0x80193e38	-2.318207e-39
44	0x00630c8d	9.096216e-39
45	0x000d91d5	1.246176e-39
46	0x802db3d0	-4.197102e-39
47	0x8017502d	-2.140978e-39
48	0x00046d5e	4.06576e-40
49	0x00831959	1.2039543e-38
50	0x001a9cd7	2.443986e-39
51	0x9e844316	-1.400379e-20
52	0x80640437	-9.185062e-39
53	0x8081ef67	-1.193266e-38
54	0x80471db8	-6.530981e-39
55	0x871cb312	-1.178876e-34
56	0x10f2110b	9.547843e-29
57	0x00401ebf	5.888501e-39
58	0x000aa77e	9.7844e-40
59	0x807939bb	-1.1132805e-38
60	0x005693ef	7.950921e-39
61	0x0026de30	3.569455e-39
62	0x0020b1ac	3.002473e-39
63	0x801078e0	-1.51273e-39

network.1.running_var f4 [64]
0	0x00000004	6e-45
1	0x10a8364f	6.634799e-29
2	0x00000004	6e-45
3	0x00000004	6e-45
4	0x00000004	6e-45
5	0x00000004	6e-45
6	0x00000004	6e-45
7	0x00000004	6e-45
8	0x00000004	6e-45
9	0x00000004	6e-45
10	0x00000004	6e-45
11	0x00000004	6e-45
12	0x00000004	6e-45
13	0x00000004	6e-45
14	0x000fcd69	1.45122e-39
15	0x00000004	6e-45
16	0x00000004	6e-45
17	0x00000004	6e-45
18	0x00000004	6e-45
19	0x00000004	6e-45
20	0x00000004	6e-45
21	0x00000004	6e-45
22	0x00000004	6e-45
23	0x00000004	6e-45
24	0x00000004	6e-45
25	0x00000004	6e-45
26	0x00000004	6e-45
27	0x000021fc	1.2191e-41
28	0x00000004	6e-45
29	0x00000004	6e-45
30	0x00000004	6e-45
31	0x00000004	6e-45
32	0x00000004	6e-45
33	0x00000004	6e-45
34	0x00000004	6e-45
35	0x00000004	6e-45
36	0x329b0112	1.8044862e-08
37	0x00000004	6e-45
38	0x0c393cef	1.4270218e-31
39	0x00000004	6e-45
40	0x00000004	6e-45
41	0x00000004	6e-45
42	0x1151ae8d	1.654098e-28
43	0x00000004	6e-45
44	0x00000004	6e-45
45	0x00000004	6e-45
46	0x00000004	6e-45
47	0x00000004	6e-45
48	0x00000004	6e-45
49	0x00000004	6e-45
50	0x00000004	6e-45
51	0x0349ab52	5.9265257e-37
52	0x00000004	6e-45
53	0x00000004	6e-45
54	0x00000004	6e-45
55	0x00000004	6e-45
56	0x00000004	6e-45
57	0x00000004	6e-45
58	0x00000004	6e-45
59	0x00000004	6e-45
60	0x00000004	6e-45
61	0x00000004	6e-45
62	0x00000004	6e-45
63	0x00000004	6e-45

network.4.weight f4 [32, 64]
0	0x801d46f4	-2.688683e-39
1	0x00147382	1.878146e-39
2	0x801323d0	-1.757722e-39
3	0x00117ff1	1.6071e-39
4	0x8046641b	-6.464396e-39
5	0x8019b399	-2.360315e-39
6	0x801bfc9e	-2.57018e-39
7	0x8032a734	-4.651756e-39
8	0x0012d6f1	1.730145e-39
9	0x00039802	3.30037e-40
10	0x001f57d4	2.878407e-39
11	0x80466df0	-6.467923e-39
12	0x803cb73b	-5.57586e-39
13	0x8009f525	-9.14461e-40
14	0x0011b8dd	1.62752e-39
15	0x000c7769	1.144862e-39
16	0x80294a42	-3.791894e-39
17	0x0019faf2	2.38591e-39
18	0x800fda39	-1.455816e-39
19	0x800577b8	-5.02124e-40
20	0x0026fbce	3.58008e-39
21	0x8012cb79	-1.726031e-39
22	0x801bcfb8	-2.554074e-39
23	0x00150570	1.930496e-39
24	0x80102706	-1.483367e-39
25	0x00262488	3.502854e-39
26	0x001e5019	2.783799e-39
27	0x801b3bed	-2.501056e-39
28	0x00192797	2.31009e-39
29	0x0019e355	2.377439e-39
30	0x8015c787	-2.000122e-39
31	0x000476da	4.09978e-40
32	0x001447b2	1.86243e-39
33	0x00179cf8	2.168526e-39
34	0x8012a07f	-1.710614e-39
35	0x000990e6	8.78499e-40
36	0x000ff511	1.465446e-39
37	0x00197a5e	2.339784e-39
38	0x0007e66e	7.25511e-40
39	0x8012df43	-1.73313e-39
40	0x8003dee1	-3.5546e-40
41	0x002b207b	3.960578e-39
42	0x002145b5	3.055578e-39
43	0x80052549	-4.72553e-40
44	0x801adf93	-2.467926e-39
45	0x0004be9d	4.35721e-40
46	0x803ffd73	-5.876557e-39
47	0x8021686e	-3.068034e-39
48	0x800f36d7	-1.397205e-39
49	0x80195abb	-2.328435e-39
50	0x800742a9	-6.66762e-40
51	0x80254140	-3.42132e-39
52	0x0045dbe2	6.415528e-39
53	0x00060782	5.53706e-40
54	0x80481a7a	-6.621654e-39
55	0x00195be5	2.328853e-39
56	0x0006226b	5.6336e-40
57	0x803bcf4e	-5.492661e-39
58	0x801fe393	-2.928539e-39
59	0x800c57e5	-1.133557e-39
60	0x001571df	1.969395e-39
61	0x80220f06	-3.127796e-39
62	0x8022125e	-3.128996e-39
63	0x004334f0	6.171969e-39
64	0x801ca0dc	-2.6291e-39
65	0x8046c694	-6.499721e-39
66	0x001430b9	1.854188e-39
67	0x8005df27	-5.3923e-40
68	0x800435b5	-3.86608e-40
69	0x80171502	-2.119753e-39
70	0x00099027	8.78232e-40
71	0x800ca057	-1.159545e-39
72	0x00009f5e	5.717e-41
73	0x80059adc	-5.1473e-40
74	0x00027dc5	2.28789e-40
75	0x0000ba88	6.6915e-41
76	0x80071a3d	-6.52261e-40
77	0x00145b43	1.869448e-39
78	0x00329114	4.643819e-39
79	0x002e190b	4.233417e-39
80	0x000f2467	1.390591e-39
81	0x0011f03e	1.647386e-39
82	0x80097f52	-8.72193e-40
83	0x00132132	1.756783e-39
84	0x00027489	2.25476e-40
85	0x0010b03d	1.53259e-39
86	0x00154720	1.95406e-39
87	0x8017fec1	-2.203605e-39
88	0x80170e16	-2.11727e-39
89	0x800b1eb2	-1.021202e-39
90	0x0049917e	6.756184e-39
91	0x000c2316	1.114612e-39
92	0x80055e0e	-4.92918e-40
93	0x801fee85	-2.932465e-39
94	0x8043b5e4	-6.218228e-39
95	0x000d2913	1.208596e-39
96	0x00179b20	2.167865e-39
97	0x801a5df1	-2.421423e-39
98	0x800c990d	-1.15693e-39
99	0x0039be8d	5.30298e-39
100	0x0012be64	1.721338e-39
101	0x800ebc65	-1.35328e-39
102	0x80019c6b	-1.47948e-40
103	0x00251415	3.405117e-39
104	0x001457e4	1.868239e-39
105	0x8025bffb	-3.466783e-39
106	0x0043613c	6.18786e-39
107	0x001ac72f	2.459177e-39
108	0x001c6be0	2.610092e-39
109	0x000ddf64	1.273999e-39
110	0x001e9348	2.8079e-39
111	0x0001e524	1.74036e-40
112	0x00036b4f	3.14002e-40
113	0x80372daf	-5.06734e-39
114	0x000ad841	9.95932e-40
115	0x00158094	1.97467e-39
116	0x002c4e49	4.068845e-39
117	0x001313af	1.751936e-39
118	0x00127608	1.69538e-39
119	0x00130891	1.747947e-39
120	0x80166955	-2.058167e-39
121	0x001536ff	1.948274e-39
122	0x0007f40f	7.304e-40
123	0x000b43e9	1.034552e-39
124	0x80177ea7	-2.157651e-39
125	0x0041d879	6.046963e-39
126	0x0036016e	4.95963e-39
127	0x800a787f	-9.61581e-40
128	0x8024a289	-3.364384e-39
129	0x0007026b	6.43716e-40
130	0x800c4e77	-1.130174e-39
131	0x801a4556	-2.412596e-39
132	0x801032c3	-1.487578e-39
133	0x801865c6	-2.240561e-39
134	0x800223aa	-1.96465e-40
135	0x8039b952	-5.301104e-39
136	0x801251fa	-1.682447e-39
137	0x0025c840	3.46975e-39
138	0x80171083	-2.11814e-39
139	0x800d209c	-1.20556e-39
140	0x800c85cf	-1.150027e-39
141	0x8014a0ae	-1.894351e-39
142	0x801a6fad	-2.427785e-39
143	0x000db0a0	1.257223e-39
144	0x8012cba3	-1.72609e-39
145	0x0014a54b	1.896006e-39
146	0x80077e54	-6.88166e-40
147	0x8015935b	-1.981407e-39
148	0x003735b7	5.070222e-39
149	0x8015200c	-1.940042e-39
150	0x80244b12	-3.333008e-39
151	0x800ed07c	-1.360487e-39
152	0x80168718	-2.068843e-39
153	0x003dc53d	5.672721e-39
154	0x8002f908	-2.73007e-40
155	0x8019ceae	-2.37003e-39
156	0x800d2993	-1.208775e-39
157	0x001b99ef	2.53478e-39
158	0x001b71da	2.5204e-39
159	0x0013e7bc	1.828005e-39
160	0x801cec30	-2.656122e-39
161	0x8006bd6a	-6.18962e-40
162	0x8014b725	-1.90241e-39
163	0x800a314b	-9.36038e-40
164	0x80201d00	-2.949139e-39
165	0x801036f5	-1.489083e-39
166	0x801a1c6d	-2.39792e-39
167	0x004056d6	5.908623e-39
168	0x0013ffd1	1.836644e-39
169	0x800c4f66	-1.130509e-39
170	0x80158bf6	-1.978754e-39
171	0x00094a40	8.53155e-40
172	0x800f08bd	-1.380667e-39
173	0x80127bd4	-1.69746e-39
174	0x800732fe	-6.61141e-40
175	0x8001e29f	-1.73132e-40
176	0x8048f8de	-6.701432e-39
177	0x801fb31d	-2.911154e-39
178	0x80177514	-2.154216e-39
179	0x800866ed	-7.71607e-40
180	0x001e4801	2.780895e-39
181	0x80010552	-9.3744e-41
182	0x000a88ab	9.67382e-40
183	0x801c3d2f	-2.593342e-39
184	0x80057137	-4.99791e-40
185	0x8030a3d1	-4.46687e-39
186	0x80147580	-1.878861e-39
187	0x8010f86d	-1.558486e-39
188	0x0023c98c	3.286544e-39
189	0x8040f78c	-5.966275e-39
190	0x8021caba	-3.103296e-39
191	0x00193dda	2.318076e-39
192	0x8014d5e4	-1.91344e-39
193	0x0016df57	2.1005e-39
194	0x802aca04	-3.92956e-39
195	0x8018079c	-2.206782e-39
196	0x001887fa	2.252831e-39
197	0x802037fe	-2.958822e-39
198	0x001b7727	2.522302e-39
199	0x0012707f	1.693395e-39
200	0x00103b0a	1.490547e-39
201	0x8004036f	-3.68574e-40
202	0x0019164c	2.303886e-39
203	0x8018d954	-2.282015e-39
204	0x0023f699	3.302705e-39
205	0x801a8ffd	-2.439376e-39
206	0x0014f1a9	1.923401e-39
207	0x801c0b8f	-2.57554e-39
208	0x0014e1c7	1.917704e-39
209	0x801aee2b	-2.473161e-39
210	0x00171dd1	2.122913e-39
211	0x001751f6	2.141618e-39
212	0x001e451a	2.779854e-39
213	0x80175261	-2.141768e-39
214	0x00052617	4.72842e-40
215	0x00177ad4	2.156279e-39
216	0x0022826e	3.169196e-39
217	0x801e97d1	-2.809526e-39
218	0x8015fb35	-2.018662e-39
219	0x801592b4	-1.981173e-39
220	0x000333f8	2.9415e-40
221	0x0006f4b8	6.38802e-40
222	0x00099193	8.78742e-40
223	0x001d8832	2.712087e-39
224	0x801693d4	-2.073412e-39
225	0x0017bcd9	2.179962e-39
226	0x0014b4d2	1.901576e-39
227	0x801f5b1e	-2.879587e-39
228	0x801dd0b1	-2.738094e-39
229	0x801c9a80	-2.626818e-39
230	0x8040dca0	-5.956617e-39
231	0x801a08aa	-2.390831e-39
232	0x00186feb	2.2442e-39
233	0x002c0545	4.042652e-39
234	0x0010ae9b	1.532005e-39
235	0x801785bf	-2.160195e-39
236	0x801ffafe	-2.93694e-39
237	0x001239bc	1.67375e-39
238	0x000c31b5	1.119857e-39
239	0x001a16c3	2.395888e-39
240	0x001859da	2.236285e-39
241	0x0031a7b0	4.560094e-39
242	0x0016f1c5	2.107111e-39
243	0x0012a287	1.711343e-39
244	0x801b4a35	-2.506179e-39
245	0x8016a37c	-2.079028e-39
246	0x003fe23a	5.866791e-39
247	0x8037c87e	-5.122875e-39
248	0x001b23ed	2.492446e-39
249	0x00393c58	5.25627e-39
250	0x00138451	1.79234e-39
251	0x80186939	-2.241799e-39
252	0x802a7451	-3.898817e-39
253	0x0012b0c2	1.716448e-39
254	0x801f2997	-2.86182e-39
255	0x00145827	1.868333e-39

network.4.bias f4 [32]
0	0x81c282aa	-7.145184e-38
1	0x01cb2ec8	7.463755e-38
2	0x8248b150	-1.4744566e-37
3	0x81700d40	-4.4090545e-38
4	0x0168c9dc	4.2756497e-38
5	0x82184a14	-1.1188456e-37
6	0x828fb706	-2.1117012e-37
7	0x81e542ae	-8.4216995e-38
8	0x0267f2e0	1.7040901e-37
9	0x02154ff3	1.0969735e-37
10	0x01ecfb1a	8.705302e-38
11	0x025a15e4	1.6022393e-37
12	0x0150abc4	3.8326802e-38
13	0x021923d6	1.1250949e-37
14	0x81cdc01a	-7.558076e-38
15	0x01ffa236	9.390497e-38
16	0x81cec57c	-7.5955825e-38
17	0x01a62434	6.103072e-38
18	0x00469bb8	6.484346e-39
19	0x018c9ed0	5.165576e-38
20	0x01f36e88	8.9422707e-38
21	0x024f8b6c	1.524797e-37
22	0x80730dd0	-1.0566037e-38
23	0x0186646a	4.9367913e-38
24	0x81593d00	-3.990037e-38
25	0x0237b5bd	1.3496873e-37
26	0x00ae5d80	1.6012918e-38
27	0x80571a60	-7.99915e-39
28	0x80ff6360	-2.34537e-38
29	0x8226c605	-1.2252583e-37
30	0x819d9876	-5.789146e-38
31	0x023dcbbb	1.3943995e-37

network.5.weight f4 [32]
0	0x8001eb34	-1.7621e-40
1	0x000c8264	1.148801e-39
2	0x000be726	1.093111e-39
3	0x000c7687	1.144546e-39
4	0x000a6729	9.55362e-40
5	0x0ca50629	2.5425983e-31
6	0x000c5f6c	1.136257e-39
7	0x001052a1	1.49901e-39
8	0x0004164a	3.75338e-40
9	0x000a743e	9.60055e-40
10	0x000d4cff	1.221482e-39
11	0x00151afc	1.938226e-39
12	0x83ca8b08	-1.1904413e-36
13	0x0010319d	1.487166e-39
14	0x00095a3b	8.58888e-40
15	0x000aca51	9.90932e-40
16	0x001056c8	1.500499e-39
17	0x0b0646fa	2.5860858e-32
18	0x000ea309	1.344183e-39
19	0x000a0bb2	9.2255e-40
20	0x00072186	6.54874e-40
21	0x0988a134	3.2892404e-33
22	0x0009cd72	9.0022e-40
23	0x00120a1b	1.656664e-39
24	0x00051c3f	4.6931e-40
25	0x001302cc	1.745878e-39
26	0x001851dd	2.233419e-39
27	0x8740fd5d	-1.4518931e-34
28	0x0004d617	4.44143e-40
29	0x0009b266	8.90517e-40
30	0x000f45d2	1.402579e-39
31	0x00072dae	6.59235e-40

network.5.bias f4 [32]
0	0x0023732b	3.255557e-39
1	0x8008f874	-8.23812e-40
2	0x000c3c21	1.123596e-39
3	0x80139de6	-1.801518e-39
4	0x800c080b	-1.104911e-39
5	0x800ae78b	-1.001417e-39
6	0x8013fa2a	-1.834616e-39
7	0x80092c6b	-8.42454e-40
8	0x00187b43	2.24827e-39
9	0x8017cf6c	-2.186625e-39
10	0x80059690	-5.13189e-40
11	0x801c6079	-2.606002e-39
12	0x8014f53b	-1.924682e-39
13	0x8017c613	-2.183272e-39
14	0x8017a752	-2.17224e-39
15	0x801f53bc	-2.876939e-39
16	0x8016096f	-2.023765e-39
17	0x800ffb77	-1.467741e-39
18	0x80039929	-3.3045e-40
19	0x801b1328	-2.48643e-39
20	0x8017366c	-2.13174e-39
21	0x80054d00	-4.868e-40
22	0x0014e92c	1.920356e-39
23	0x001484c9	1.884344e-39
24	0x8019f1f2	-2.382681e-39
25	0x80198b4e	-2.34586e-39
26	0x800e3434	-1.304424e-39
27	0x06cf0842	7.787688e-35
28	0x000ab383	9.82752e-40
29	0x000d21a4	1.20593e-39
30	0x80045733	-3.98623e-40
31	0x001bbb1d	2.546682e-39

network.5.running_mean f4 [32]
0	0x00685919	9.582854e-39
1	0x80253cbf	-3.419705e-39
2	0x006566ef	9.312311e-39
3	0x8020d9c5	-3.016857e-39
4	0x806d0789	-1.0012772e-38
5	0x007e0980	1.157468e-38
6	0x80a3e7fe	-1.5052409e-38
7	0x005caff6	8.511989e-39
8	0x805702e9	-7.990732e-39
9	0x8082d2c7	-1.2014227e-38
10	0x80631027	-9.097508e-39
11	0x00269d40	3.54616e-39
12	0x0073c7a6	1.0632702e-38
13	0x000eb7d7	1.351646e-39
14	0x007bdf1d	1.1375804e-38
15	0x000ee791	1.368767e-39
16	0x80330c8b	-4.68811e-39
17	0x80154b49	-1.955553e-39
18	0x00469bb7	6.484345e-39
19	0x80547d83	-7.759207e-39
20	0x8002b712	-2.49344e-40
21	0x001a260d	2.401373e-39
22	0x800e82e2	-1.332649e-39
23	0x0036aa41	5.020192e-39
24	0x801d796f	-2.706792e-39
25	0x80275859	-3.613278e-39
26	0x004459a8	6.276976e-39
27	0x802f3dae	-4.338395e-39
28	0x80fdf139	-2.3320915e-38
29	0x00535f98	7.656639e-39
30	0x004d7be2	7.115774e-39
31	0x809e1d0e	-1.4520431e-38

network.5.running_var f4 [32]
0	0x00000004	6e-45
1	0x00000004	6e-45
2	0x00000004	6e-45
3	0x00000004	6e-45
4	0x00000004	6e-45
5	0x00000004	6e-45
6	0x00000004	6e-45
7	0x00000004	6e-45
8	0x00000004	6e-45
9	0x00000004	6e-45
10	0x00000004	6e-45
11	0x00000004	6e-45
12	0x00000004	6e-45
13	0x00000004	6e-45
14	0x00000004	6e-45
15	0x00000004	6e-45
16	0x00000004	6e-45
17	0x00000004	6e-45
18	0x00000004	6e-45
19	0x00000004	6e-45
20	0x00000004	6e-45
21	0x00000004	6e-45
22	0x00000004	6e-45
23	0x00000004	6e-45
24	0x00000004	6e-45
25	0x00000004	6e-45
26	0x00000004	6e-45
27	0x00000004	6e-45
28	0x00000004	6e-45
29	0x00000004	6e-45
30	0x00000004	6e-45
31	0x00000004	6e-45

network.8.weight f4 [16, 32]
0	0x0013f9c2	1.83447e-39
1	0x801acfa5	-2.462212e-39
2	0x00127f2d	1.698661e-39
3	0x0015f6d5	2.017092e-39
4	0x000a0b4d	9.22409e-40
5	0x0020cd5c	3.012405e-39
6	0x802c4d4c	-4.068491e-39
7	0x0017e368	2.193794e-39
8	0x80257b9c	-3.442256e-39
9	0x00135cf9	1.778227e-39
10	0x80280ef4	-3.678784e-39
11	0x0021eb84	3.115058e-39
12	0x0028b64a	3.738813e-39
13	0x00207496	2.980559e-39
14	0x800204ce	-1.85395e-40
15	0x000dc4ba	1.264434e-39
16	0x0017c5db	2.183194e-39
17	0x0015edf1	2.013903e-39
18	0x001fd5b2	2.92356e-39
19	0x0016be97	2.088752e-39
20	0x0019a01b	2.353322e-39
21	0x801d51cb	-2.692571e-39
22	0x0013ab04	1.806223e-39
23	0x002792d0	3.634251e-39
24	0x0001e21c	1.72948e-40
25	0x8019021c	-2.296644e-39
26	0x001def96	2.749177e-39
27	0x800c7e4d	-1.147334e-39
28	0x000104a8	9.3506e-41
29	0x0015f02f	2.014707e-39
30	0x001569c9	1.966494e-39
31	0x0013b36e	1.809242e-39
32	0x9fb20ff0	-7.54123e-20
33	0x800fe46a	-1.459472e-39
34	0x8643365d	-3.6715364e-35
35	0x801adfe2	-2.468037e-39
36	0x8ff7df7f	-2.4442168e-29
37	0xabea63e2	-1.6654423e-12
38	0x24af7c6e	7.6104944e-17
39	0x801e03fe	-2.756497e-39
40	0x9ed8fad6	-2.2973633e-20
41	0x22958f08	4.053797e-18
42	0x16eda3c0	3.8392756e-25
43	0x8aa2660f	-1.5638423e-32
44	0x9dfd7922	-6.709379e-21
45	0x001bc746	2.551044e-39
46	0x26d33c07	1.4657337e-15
47	0xa695389f	-1.0354299e-15
48	0x15020560	2.625753e-26
49	0x28788160	1.3794819e-14
50	0x915b07ae	-1.727842e-28
51	0x801f60f2	-2.881678e-39
52	0x1684b6ef	2.1441197e-25
53	0xa3b1a90b	-1.9261971e-17
54	0xa6fc2a1e	-1.7497429e-15
55	0x19a7e0cf	1.7358195e-23
56	0x9ad272e6	-8.703959e-23
57	0x00333518	4.702657e-39
58	0x17117f79	4.701292e-25
59	0xab2a9e8d	-6.0616166e-13
60	0x8c2b33f4	-1.3188995e-31
61	0x26951611	1.0344933e-15
62	0x80122d08	-1.669193e-39
63	0xa1eaf825	-1.592214e-18
64	0x89bbde15	-4.5227457e-33
65	0x001998a8	2.35065e-39
66	0x0e163ad3	1.851725e-30
67	0x09850303	3.2021418e-33
68	0x9578ebbe	-5.026917e-26
69	0x9d0d180e	-1.867363e-21
70	0x800e0a26	-1.289338e-39
71	0x801f5ebd	-2.880886e-39
72	0x06d94c34	8.17383e-35
73	0x9df00d88	-6.3541462e-21
74	0x002af6b0	3.945586e-39
75	0x1d009665	1.7018411e-21
76	0x244986ca	4.3699098e-17
77	0x0700d4bb	9.692166e-35
78	0x2402f25f	2.8394553e-17
79	0x93c766b0	-5.033592e-27
80	0x14960c0f	1.5150886e-26
81	0x281c6627	8.68189e-15
82	0x12176387	4.7769876e-28
83	0x08188437	4.5896254e-34
84	0x043c84a4	2.21602e-36
85	0xa03ee2c0	-1.6168651e-19
86	0xa21bf41f	-2.1135654e-18
87	0x1b870f98	2.2343954e-22
88	0x9cf012a9	-1.5886691e-21
89	0x84d0d5ac	-4.909679e-36
90	0x1b312780	1.465386e-22
91	0xa2a768c1	-4.5376353e-18
92	0x9df38edf	-6.446929e-21
93	0xa2cdf66e	-5.582628e-18
94	0x1b3db41b	1.5691909e-22
95	0x8b068bc8	-2.591262e-32
96	0x80022094	-1.95358e-40
97	0x800ad54a	-9.94869e-40
98	0x00205126	2.967846e-39
99	0x801d7cef	-2.708047e-39
100	0x00001c91	1.0248e-41
101	0xacaf41dd	-4.9811114e-12
102	0x800a2e63	-9.34995e-40
103	0x001d8210	2.709887e-39
104	0x00105979	1.501465e-39
105	0x800f3fbe	-1.400399e-39
106	0x003156ea	4.531118e-39
107	0x0002837c	2.30839e-40
108	0x8001b1ef	-1.55666e-40
109	0x80042fe8	-3.84528e-40
110	0x0000d2e2	7.565e-41
111	0x0012348a	1.671886e-39
112	0x000bfa81	1.100054e-39
113	0x001487da	1.885444e-39
114	0x80164231	-2.044126e-39
115	0x001204c6	1.654751e-39
116	0x0041905e	6.021096e-39
117	0xb1f459da	-7.1115496e-09
118	0x001e2af5	2.770475e-39
119	0x800cd6f4	-1.179137e-39
120	0x800a9db0	-9.74923e-40
121	0x002a6ffd	3.897265e-39
122	0x8006671f	-5.88006e-40
123	0xa08f4d7b	-2.4276415e-19
124	0x0001335d	1.10261e-40
125	0x80191e5f	-2.306782e-39
126	0x8021ac7c	-3.092447e-39
127	0x00067c5f	5.95629e-40
128	0x00269c8c	3.545907e-39
129	0x80226e0c	-3.161884e-39
130	0x0017a27d	2.170506e-39
131	0x0016cabc	2.093108e-39
132	0x80180f52	-2.209548e-39
133	0x15a28d78	6.565448e-26
134	0x80ed5ce8	-2.1798341e-38
135	0x0018a05d	2.26158e-39
136	0x8019f56f	-2.383932e-39
137	0x800bc259	-1.079909e-39
138	0x0022455e	3.147291e-39
139	0x001a2d2e	2.40393e-39
140	0x801560c8	-1.963264e-39
141	0x0015f0c9	2.014923e-39
142	0x801284dc	-1.7007e-39
143	0x1291bc85	9.19726e-28
144	0x8000834f	-4.7105e-41
145	0x879aa867	-2.3270323e-34
146	0x00159c04	1.984513e-39
147	0x00195da4	2.32948e-39
148	0x8016672b	-2.05739e-39
149	0x8016b994	-2.086954e-39
150	0x119ed930	2.5061857e-28
151	0x00203415	2.95742e-39
152	0x8018f389	-2.291416e-39
153	0x0017baec	2.179271e-39
154	0x001847ae	2.229766e-39
155	0x980a5d52	-1.7883197e-24
156	0x8014e481	-1.918682e-39
157	0x94507a82	-1.0525477e-26
158	0x003ead28	5.755918e-39
159	0x800f880c	-1.426337e-39
160	0x001db1ac	2.726966e-39
161	0x8013fde3	-1.835952e-39
162	0x001910c2	2.301899e-39
163	0x80233966	-3.234833e-39
164	0x80022b28	-1.99153e-40
165	0x80113484	-1.580042e-39
166	0x801d1f50	-2.674462e-39
167	0x80180b7f	-2.208176e-39
168	0x802d598e	-4.164723e-39
169	0x172128c7	5.2073374e-25
170	0x0018390d	2.224518e-39
171	0x801bc678	-2.550756e-39
172	0x8018fbcf	-2.294384e-39
173	0x003e86f0	5.742207e-39
174	0x800e24db	-1.298918e-39
175	0x801864c7	-2.240204e-39
176	0x0011dd33	1.640555e-39
177	0x8013fd4f	-1.835744e-39
178	0x001e7bbe	2.799455e-39
179	0x801964b9	-2.33202e-39
180	0x801815e1	-2.2119e-39
181	0x8014b0a8	-1.900082e-39
182	0x801ad748	-2.464951e-39
183	0x801e08f6	-2.75828e-39
184	0x800fbae1	-1.444572e-39
185	0x001bcbd8	2.552684e-39
186	0x801db8b3	-2.729487e-39
187	0x80138cfc	-1.79545e-39
188	0x8013dd67	-1.824299e-39
189	0x004b6e29	6.92718e-39
190	0x801ad233	-2.463128e-39
191	0x80136dd0	-1.784268e-39
192	0x80196113	-2.330711e-39
193	0x00205579	2.969398e-39
194	0x801ba27d	-2.537848e-39
195	0x80114fe0	-1.589857e-39
196	0x8027f35d	-3.668887e-39
197	0x80588ffd	-8.133177e-39
198	0x803d7096	-5.642353e-39
199	0x80073f3c	-6.65533e-40
200	0x0008fd25	8.25495e-40
201	0x801fcd89	-2.920633e-39
202	0x001f3cdc	2.868733e-39
203	0x801f00ec	-2.847231e-39
204	0x801ff49c	-2.93465e-39
205	0x2303ffdd	7.155705e-18
206	0x06aa77fc	6.4123194e-35
207	0x80154f97	-1.957097e-39
208	0x801f844b	-2.894358e-39
209	0x03e12a39	1.3234005e-36
210	0x0016d00d	2.095015e-39
211	0x8013afa7	-1.807887e-39
212	0x00016a3e	1.29948e-40
213	0x001edd3d	2.83443e-39
214	0x001a7d8a	2.432758e-39
215	0x001fb90e	2.913285e-39
216	0x8011443b	-1.58568e-39
217	0x0017b3af	2.176675e-39
218	0x001fc97f	2.919184e-39
219	0x804b7c91	-6.932348e-39
220	0x8010a10f	-1.527145e-39
221	0x801dc60b	-2.734274e-39
222	0x80159d7d	-1.985042e-39
223	0x0028dbe9	3.752309e-39
224	0x801db97d	-2.72977e-39
225	0x80186b5a	-2.242562e-39
226	0x000cf7ca	1.190916e-39
227	0x801e9877	-2.809759e-39
228	0x001337e4	1.764924e-39
229	0x0006171e	5.59306e-40
230	0x00161538	2.027993e-39
231	0x801949f3	-2.322415e-39
232	0x80368092	-5.005239e-39
233	0x8006e6e4	-6.33841e-40
234	0x800f7461	-1.419281e-39
235	0x001a4357	2.41188e-39
236	0x0014413f	1.860116e-39
237	0x001a9c12	2.44371e-39
238	0x800548c2	-4.85278e-40
239	0x800c18ab	-1.110875e-39
240	0x0016c81d	2.092168e-39
241	0x801b40de	-2.502828e-39
242	0x80064208	-5.747e-40
243	0x001522f8	1.94109e-39
244	0x002a058a	3.859078e-39
245	0x9fa6c533	-7.0629973e-20
246	0x8016d8ca	-2.09815e-39
247	0x80007dd4	-4.5139e-41
248	0x802f0a58	-4.319979e-39
249	0x0022bb94	3.189697e-39
250	0x802ac042	-3.92606e-39
251	0x001b35cd	2.498858e-39
252	0x0015729b	1.969658e-39
253	0x8006dd1d	-6.30333e-40
254	0x80455a02	-6.368938e-39
255	0x9f197c68	-3.2501917e-20

network.8.bias f4 [16]
0	0x01523074	3.8605672e-38
1	0x014a3ea4	3.7146483e-38
2	0x81b0436c	-6.4748935e-38
3	0x023e8750	1.3997828e-37
4	0x81a4bfa4	-6.0519076e-38
5	0x01d477da	7.804848e-38
6	0x0210868d	1.0618063e-37
7	0x8024b748	-3.371827e-39
8	0x813018c8	-3.2343874e-38
9	0x8202f297	-9.620511e-38
10	0x02abd964	2.5250968e-37
11	0x821bb762	-1.144023e-37
12	0x82ce5f5f	-3.032372e-37
13	0x814a2d3c	-3.7133995e-38
14	0x80d685e8	-1.9700833e-38
15	0x00443430	6.263535e-39

network.9.weight f4 [16]
0	0x0013ff0d	1.83637e-39
1	0x3916110a	0.00014311462
2	0x39e955e8	0.00044505228
3	0x00118117	1.607512e-39
4	0x28ebd65c	2.6183205e-14
5	0x00122a4a	1.66821e-39
6	0x13a7e8bc	4.238622e-27
7	0x1933f9c2	9.304521e-24
8	0x800fff4a	-1.469113e-39
9	0x0c95b0fa	2.30636e-31
10	0x0b0badb6	2.6901112e-32
11	0x2697fd2d	1.0546353e-15
12	0x8007769d	-6.85399e-40
13	0x2233c6c3	2.4364247e-18
14	0x0014c849	1.908559e-39
15	0x000cc015	1.170932e-39

network.9.bias f4 [16]
0	0x98949e9f	-3.841727e-24
1	0xb80114dd	-3.0775427e-05
2	0xb9e9d994	-0.00044603331
3	0x9f8f15a0	-6.059863e-20
4	0x9fd5546f	-9.034869e-20
5	0x98c9b736	-5.2142278e-24
6	0xa9e8a55c	-1.0331555e-13
7	0xaec48ca9	-8.938034e-11
8	0x8cf2303b	-3.7315031e-31
9	0xb25dcbc9	-1.2910228e-08
10	0xb9cf795c	-0.00039572536
11	0xb199fc01	-4.4815356e-09
12	0xb780f86c	-1.537447e-05
13	0xa34f327e	-1.1232185e-17
14	0x925cf0c3	-6.971652e-28
15	0x380d94f9	3.375576e-05

network.9.running_mean f4 [16]
0	0x808c2d15	-1.2873142e-38
1	0x80339461	-4.736839e-39
2	0x0095021e	1.3684248e-38
3	0x0131e8a1	3.267667e-38
4	0x800ba4d1	-1.069315e-39
5	0x0034a7a5	4.835585e-39
6	0x807d1a67	-1.1488908e-38
7	0x8024b750	-3.371838e-39
8	0x802c7608	-4.083103e-39
9	0x005e2113	8.644401e-39
10	0x817fe2a2	-4.6998704e-38
11	0x00638273	9.13851e-39
12	0x01083f82	2.502482e-38
13	0x8010d23e	-1.544789e-39
14	0x80138162	-1.791288e-39
15	0x0044342c	6.26353e-39

network.9.running_var f4 [16]
0	0x00000004	6e-45
1	0x00000004	6e-45
2	0x00000004	6e-45
3	0x00000004	6e-45
4	0x00000004	6e-45
5	0x00000004	6e-45
6	0x00000004	6e-45
7	0x00000004	6e-45
8	0x00000004	6e-45
9	0x00000004	6e-45
10	0x00000004	6e-45
11	0x00000004	6e-45
12	0x00000004	6e-45
13	0x00000004	6e-45
14	0x00000004	6e-45
15	0x00000004	6e-45

network.12.weight f4 [1, 16]
0	0xb79b9205	-1.8545436e-05
1	0xba8b123e	-0.0010610295
2	0xba1432e8	-0.00056533376
3	0x36854b4e	3.9724755e-06
4	0xb7d0fa42	-2.4912068e-05
5	0x3b074afe	0.0020644064
6	0x3a37042d	0.0006981518
7	0xb842aaef	-4.64124e-05
8	0x3884c377	6.330659e-05
9	0xb55f13a8	-8.310258e-07
10	0x3c427d48	0.01187069
11	0x3879ae68	5.9528655e-05
12	0x3a34e500	0.0006900579
13	0x3a48e6c8	0.00076637836
14	0xb7be2487	-2.2666774e-05
15	0x3a4e8b61	0.00078790454
