models/best_model.pth (torch, 71396 bytes, 7 tensors)

layers.0.weight f4 [64, 5]
00000000: 32c7 42bb 8d15 a23e 7180 43be 80e6 9dbe
00000010: 91cf 9239 e697 adbe c4e0 353e 3fa9 273e
00000020: 4a88 6abe 8c46 cfb9 f5b3 2c3e b4d8 01be
00000030: 3c62 873e febe 8fbd 38d7 a139 6949 85bd
00000040: 5d96 8e3e d045 c43d 17a2 6fbe 5921 09ba
00000050: 25d1 97be d510 e53d 9c97 99be 8da9 af3d
00000060: c13a a4b9 1f4f 3fbe bef0 313e ec49 373e
00000070: 2be6 6d3e f67b 06ba e41d 73be d94e 99be
00000080: 4d52 63be 05a2 8abe 212b 68b9 ec47 35be
00000090: d3ec 87be f500 60be d57e b1bd 98c0 c139
000000a0: 6a3f eeba 4cd9 a6bd f20a 8fbc 93db 9bbc
000000b0: 0f2f a03e f4c4 c4bd 203b b6be 6b23 3e3e
000000c0: 28cf 8e3e fd58 233a 2679 f23b 0c12 223c
000000d0: fff2 3c3d 665a c63b 0a00 3bbc 19b8 0a3e
000000e0: 77bf 2a3e 439a 823e 9e76 3d3e d0fb a53a
000000f0: 4434 b93c ec07 76be b114 b83d 9e8d fdbd
00000100: fff5 96bb e751 fd3d ddd3 93be 2a3f bcbd
00000110: 8d3c 7c3e d4d1 3e39 ee89 973e b6f4 d4bd
00000120: 2e1d 8c3e 67df 8ebd 6931 c6ba 98b3 713e
00000130: 5269 d1ba 2f76 48be 58a1 173d e469 cd38
00000140: c99f fd3d caab 3abe a93e 433e 0a68 8cbe
00000150: 4679 6cba c431 723e 6fdb c83d 0bbd 7d3e
00000160: 5a27 89bd fffa 0a3b b627 82bd 0e49 16be
00000170: 76d7 74bd 772c 37be b547 273b 3b9d 4a3e
00000180: b484 2dbe 00d3 d2bb 99ee 8cbe d0c1 7a3a
00000190: 2a74 20be 1aaf 49be 07c9 6f3c 9555 68bc
000001a0: 1802 81ba ceb1 1d3e 259d 0d3e 8c24 3c3e
000001b0: b22e 0fbe d089 52ba 1a16 58be 161e 62be
000001c0: d4ab b03e adcd cebb 4d68 03ba d9fe 4fbe
000001d0: 19f0 5d3c eb14 663e 0f6d 463d 26a2 9c39
000001e0: 87a6 c2bc 2119 0ebd 4beb 3d3d f454 2ebd
000001f0: fb37 593e c21b d33d 3af3 31be f31b 6dbe
00000200: 6957 1dbe 333d 3fba 7dfb 953d 2bf7 dbbc
00000210: d9e9 963c 2346 d7bc 6320 433e 9009 9abd
00000220: 77dd cb3b dac0 39bd 7f21 ca3c 4511 833e
00000230: a2c6 77bd a17f 2abe 7041 99be 0a6e 05be
00000240: 76c8 06b8 3a62 633c 28e4 99ba 729e 943d
00000250: bf82 d1bb d7fd e2bb 1aa0 b03c ba89 9e3e
00000260: bd6a 08be 2432 6e3b 8da1 93ba 6fae 19be
00000270: 6dc2 413e c2c5 88be 67be 813e b314 423a
00000280: 0cfb 863e 4512 f53d 3e21 5c3e 20e4 533e
00000290: 241a 053a e5aa 6abe aca7 3cbe f0b8 ac3d
000002a0: b70c 5f3e 4a02 8fba e933 cdbd bae9 86be
000002b0: 5261 483c 9f8f 2cbe b2fa d9b9 555b 4d3e
000002c0: 5198 1fbe 3cba abbc fcae 923e 7bd9 74ba
000002d0: d512 eebb 2744 9bbe 465a d63c 9d72 bbbd
000002e0: 16df 443b 24b1 1e3d 9c86 8cbe 8623 cb3d
000002f0: f15e 56be b0b1 ac38 6f66 f23d 27fe 5dbe
00000300: 7539 693e d918 22be aa80 01ba 14b1 063d
00000310: cdf0 79be 4be0 093d 523c 7e3e 0dab c939
00000320: 6698 6f3e 7210 533e e8b9 0d3d ebce a33e
00000330: 915d cf39 4f08 9c3e 5c1a 353e 0c6c 81be
00000340: b0fb 58be a779 f539 0e19 373e 9dbb 853e
00000350: a4e4 163e 740a 053e e1f3 9e39 28cb 3d3e
00000360: 5edd 40be e2b2 96be eea7 3e3e 2190 1639
00000370: 3ac4 8f3e e7b6 4f3e c71f c8bd 0e7a 96be
00000380: 57ea 86ba e635 1c3e 6a4f 2cbe 9fb2 593e
00000390: d3a2 03be 23a9 62b9 9aae 2d3e adc1 7cbe
000003a0: 0c5c 57be ed90 073e 0118 9fb9 e820 ca3d
000003b0: 8c1d 21be 6421 7d3e 1bb2 53be 75ed e639
000003c0: b5bf 453e bd33 13be fb67 7cbe 46a3 5e3d
000003d0: 8a8a 0e3a 8c6e 98be 1fa0 9ebd 3822 c3ba
000003e0: 360f 39bd db67 09ba 8a9b c3bd 971b 24be
000003f0: 4a6f 193e a37d 723e a41f c1b9 9401 94be
-0.002972078 0.31657067 -0.19091965 -0.3083992 0.0002800194 -0.33904952 0.17761523 0.16373156
-0.22903553 -0.00039534678 0.16865523 -0.12680322 0.26442134 -0.07018851 0.00030868663 -0.065081425
0.27849093 0.09583628 -0.23401676 -0.00052311044 -0.29651752 0.11184851 -0.2999848 0.08577261
-0.00031324293 -0.18682526 0.17376992 0.17899293 0.23232333 -0.0005130166 -0.23741871 -0.29942968
-0.22199364 -0.27076736 -0.00022141311 -0.17703217 -0.2654787 -0.21875365 -0.086667694 0.00036955322
-0.0018176858 -0.08146915 -0.017461274 -0.0190256 0.31285903 -0.09607878 -0.35591984 0.18568198
0.27892423 0.0006231217 0.007399696 0.009891998 0.046130177 0.006053257 -0.0114135835 0.1354679
0.166746 0.25508317 0.1850228 0.0012663547 0.02260793 -0.2402646 0.089883216 -0.12380527
-0.0046069617 0.12369137 -0.28872576 -0.09191735 0.24632473 0.00018197979 0.2959742 -0.103982374
0.27366012 -0.06976204 -0.0015120927 0.23603666 -0.0015976822 -0.19576333 0.037019104 9.7948854e-05
0.12383992 -0.18229595 0.19066872 -0.27423126 -0.00090207567 0.23651797 0.09807479 0.24779145
-0.06696959 0.0021206734 -0.063552305 -0.14676306 -0.059775792 -0.17888056 0.0025524918 0.19786541
-0.16945153 -0.0064338446 -0.27525786 0.00095656235 -0.15669313 -0.19695702 0.014635331 -0.014180561
-0.0009842543 0.15399858 0.13829477 0.18373317 -0.13982657 -0.00080314 -0.21102181 -0.2208179
0.34506094 -0.0063111396 -0.00050127954 -0.2031206 0.013546013 0.22468917 0.04844385 0.0002987545
-0.023761047 -0.034691934 0.04636697 -0.042561486 0.21212761 0.10308029 -0.1737794 -0.23155193
-0.15365376 -0.0007295191 0.07323358 -0.026851257 0.018422054 -0.026278561 0.19055323 -0.07521355
0.006221469 -0.045349933 0.024674175 0.25599113 -0.060492165 -0.16650249 -0.29932737 -0.13030258
-3.2134783e-05 0.0138783995 -0.001174097 0.072567835 -0.00639376 -0.0069272327 0.021560717 0.30964452
-0.13321967 0.0036345804 -0.0011263356 -0.15007947 0.18921824 -0.26713377 0.25340578 0.0007403597
0.2636341 0.11966375 0.21497056 0.20692492 0.00050774426 -0.22916754 -0.18423337 0.084337115
0.21782194 -0.0010910716 -0.10019667 -0.26350194 0.012230234 -0.16851662 -0.00041576248 0.20054372
-0.15585448 -0.020962827 0.28649127 -0.00093402684 -0.0072654285 -0.30325434 0.026166093 -0.0915272
0.0030040196 0.038743153 -0.2744645 0.09918885 -0.20934655 8.234696e-05 0.11835944 -0.21678983
0.22775824 -0.15829791 -0.0004940132 0.03288372 -0.24408264 0.033661168 0.24827698 0.0003846515
0.23397979 0.20611742 0.034601122 0.31993803 0.0003955183 0.3047509 0.17685837 -0.25277746
-0.21189761 0.0004682068 0.17880651 0.261197 0.14735657 0.12992269 0.00030317812 0.18534529
-0.18834445 -0.29433352 0.18618748 0.00014358807 0.28079396 0.20284615 -0.09771686 -0.29389995
-0.0010293227 0.15254936 -0.16827169 0.21259545 -0.12855081 -0.00021616048 0.16961136 -0.24683256
-0.21031207 0.13238879 -0.00030344728 0.098695576 -0.15733927 0.24719769 -0.2067341 0.00044045938
0.19311412 -0.14375205 -0.2464904 0.05435493 0.0005437514 -0.2977184 -0.077453844 -0.0014887517
-0.045180522 -0.0005241611 -0.09551151 -0.1602615 0.1498386 0.23680739 -0.00036835403 -0.28907454

layers.0.bias f4 [64]
00000000: d5d6 80bd 20f2 ebbc 2086 8abe f941 e2bd
00000010: d03d b0bd 6821 2d3e b7f2 ccbd 3a14 02be
00000020: 3328 03bf eef4 99bd dcf9 e3bd b74b 07be
00000030: aab4 adbe f241 a9bd 5d14 4bbd 834f febd
00000040: 2d10 15be 15cc 3fbe 4f3e 97be acd2 93bd
00000050: 1908 a1be e8bc e23d 85e6 3ebd a1ab 0abe
00000060: 541d 9cbe e4f0 b73d c050 93be 05c5 babe
00000070: ed15 bbbd b6d8 2fbe d9d5 49be 46de a0bd
00000080: 7fef aebd 7b3a fdbd bfbd 013c bcf0 74bd
00000090: 19d3 b9be 48f8 7bbd 4ec9 02be 24f1 16be
000000a0: bcfa bebd 73cd b5bd cda6 d7bd ad17 69bd
000000b0: 9939 3fbd f05d 83be e53e ddbd bd7f 05be
000000c0: 8c9c ffbd d9f8 b6be 838e 22be f1a3 c2bc
000000d0: 0ecc 8cbe b8eb 9a3c 7909 4fbe ebd2 f4bd
000000e0: 806c 08be 7c7a a0bd 8e6b f33d 49b5 3e3e
000000f0: 5840 b0be 5a7f bbbd 2d5e e7be 4cae 9ebe
-0.06290976 -0.028801978 -0.27055454 -0.110477395 -0.0860554 0.16907275 -0.10007232 -0.12703028
-0.51233214 -0.0751742 -0.11131641 -0.13212477 -0.33926898 -0.08264531 -0.049579967 -0.124175094
-0.14556952 -0.18730195 -0.29539725 -0.07217917 -0.3145149 0.11071187 -0.04660656 -0.13542034
-0.30491126 0.08981493 -0.28772545 -0.3647844 -0.091350414 -0.17172512 -0.19710483 -0.07854895
-0.08541774 -0.1236467 0.007918774 -0.059799895 -0.36293867 -0.061516076 -0.12772104 -0.14740425
-0.093251675 -0.08877077 -0.105298616 -0.056907345 -0.04668579 -0.25657606 -0.10803012 -0.1303701
-0.12481031 -0.3573673 -0.15874676 -0.023759814 -0.2749943 0.018911228 -0.20218457 -0.11954292
-0.1332264 -0.07835862 0.11885749 0.18623842 -0.3442409 -0.0915515 -0.45189038 -0.30992353

layers.1.weight f4 [128, 64]
00000000: 22d6 78be 04a4 593d b9e4 4cbe 572f 9b3d
00000010: 89cf a43d cdd1 fabd fe80 a139 c10f 7d3e
00000020: bdf9 293f c959 0d3d 97de 5dbd b018 633c
00000030: 4cc2 9dbe 5705 023d 79b9 d5bc fd68 18be
00000040: 45db ff3c 9016 4a3e 7a4b f5bd a498 77bc
00000050: 5819 213e ed2f ce3d 8cbf 68be a728 653c
00000060: 2336 423f e40e 29be dd3f f53d f258 b33d
00000070: 6899 25bf 4564 9abc 621a 76be 5256 bfbd
00000080: 13a8 3c3d dae3 5c3e f71e 27bf c92f aebe
00000090: b2aa 77be f815 ad3e e71b 903c 24fb bcbd
000000a0: 14f5 c1be 78dd 873d 7af8 85bd 0714 00be
000000b0: b9f2 28bc 2173 2e3d 0252 723e 17f8 9fbb
000000c0: 21d2 003e 1ef9 bd3e 1eaf f63d 2181 813d
000000d0: e25c 243e fbd4 40be 436d 063e fa10 ad3d
000000e0: 11ae d7be 5750 1c3e ab9f 1f3d 1a2c 28bf
000000f0: 27ac 503e ee5c d43d 7f6d a63f 57f9 1b3d
00000100: dd71 adbc 0d1d 67bd b23b bbbd f884 973b
00000110: da3c 9e3b 4876 9eba 726c 83bd ef09 f339
00000120: a5ca 0abd ced3 933d 088a 8ebd af10 e4bc
00000130: bbe2 c6bc 13d0 71bc 9a28 d9bd 906a 803b
00000140: a7a3 0b3d 9230 493d d3c9 f9bc 6987 063d
00000150: 1ae2 693d 9a83 00be 2843 2abd 1c6a 11be
00000160: 0102 1abd 57b1 79be 0508 c9bd e521 4ebd
00000170: edb8 80ba 3ce3 0ebe 1926 03bd 3571 37bd
00000180: 1e0e cdbc 8539 a1bb f650 b1bd ccd8 15bb
00000190: 0c49 103d d3e2 36be 7617 95bd 1a31 873d
000001a0: 3472 cabd 8e6b 96bd 4fed 0cbd 2351 9dbd
000001b0: 749e bcbd a24f 70bd df7b 1abc 204b 693d
000001c0: 8487 40be 42d8 143d 4626 493d 44ef 513d
000001d0: 241c 27bd 6c08 eabd fc76 83bc b9a4 19bb
000001e0: f420 63bd fece a3bd d751 76bb 1445 27be
000001f0: d92a 3e3b c940 69bd 180c 083d b029 46bc
00000200: 3c0f 8e3e 7340 543e fca4 4bbe 4aa0 4c3e
00000210: 458c 69be b88f d2bd e7b5 2fbe 48a3 5bbe
00000220: 3cf4 d13d 6c1b 21bf db85 253d a2a1 a0bc
00000230: d3a4 8d3e 8698 88be 5ebf 61be be70 603d
00000240: fcae 83bc fbdb 81be da16 60be 098d a3bc
00000250: b1ef fc3e 7e4c 423e 13f8 c0bd 6eaf 91bc
00000260: 385c 133d 6321 f53c 4532 cb3c 2ead 34bd
00000270: 4057 2e3b 3d7f acbd e013 a13c e150 cfbd
00000280: efd3 6bbe c52c 56be c3e5 98bd b6b3 3cbe
00000290: 6018 903d 8e84 2bbe 9e7c 58be 855a 96bd
000002a0: e7f0 aabd b941 813e 9ae6 92bd 256b f0bc
000002b0: b288 5e3e 4b95 18be b68e edbd 2482 15be
000002c0: 4883 3e3d d109 c5bd 3514 a1be 5fa3 31be
000002d0: c7b6 38be 91f1 c5be fe5b fbbd 7459 d4bd
000002e0: 7051 2dbc 0c38 4d3e c12a d0be 71d6 243e
000002f0: febd 4ebd 65c3 393e 41bf 5ebe 8097 d0bc
00000300: db1a 78be 70b6 2ebf dd10 443c 2268 cbbb
00000310: 3c4c e43c de1d 89bc aa01 2dbe 6924 693d
00000320: 4f65 353d 2165 fe3c 37c3 8fb9 5d11 0f3d
00000330: c283 acbe 1fb5 abbe 1435 3b3d 3910 aebd
00000340: ea8b 793e 3285 77bc caff 2abd 5391 86be
00000350: d5c9 803e fea1 a8bd cc2a d93d 73e5 c63d
00000360: c557 a43d 2963 1f3d 52d1 203e ff3c aabe
00000370: c139 833d 5aa5 b8bc d353 28bf c92e 1cbc
00000380: ea8e a43d 0512 3b3d 9c6c a7bd 93e8 81be
00000390: b158 273f 282a b4be ef35 8f3d bffc 80bc
000003a0: e06d 72bd 4694 33bf faa2 593e b9f1 833d
000003b0: 9396 b8bf fa43 583e c4e6 81be ba0f 843e
000003c0: 279f 483e e396 e83d a4ab 77bd 6d12 bd3d
000003d0: 0b4f 023e 6932 82bd cf60 a8bd 96ce db3d
000003e0: bdcb 053e e60f 6cbe 3814 1c3e adf1 16bf
000003f0: 3a48 213e 606c 1dbe 4852 1b3f 40e9 12bf
-0.24300435 0.053134933 -0.20009126 0.07577389 0.08047397 -0.122470476 0.0003080442 0.24713041
0.66396695 0.034509454 -0.054167356 0.013860866 -0.308123 0.031743374 -0.026089417 -0.148838
0.031232486 0.1973517 -0.11977287 -0.015112076 0.15732324 0.10067735 -0.2272932 0.013986743
0.75863856 -0.16509587 0.119750716 0.08757199 -0.64687204 -0.01884664 -0.24033502 -0.09342636
0.046058726 0.21571293 -0.65281624 -0.34020832 -0.24186209 0.33805823 0.01759143 -0.09227589
-0.37882292 0.06634039 -0.06541534 -0.1250764 -0.010311776 0.042590264 0.23664096 -0.0048818695
0.12580158 0.37104124 0.1204512 0.063234575 0.16051057 -0.18831246 0.13127618 0.08450504
-0.4212499 0.15265022 0.03897063 -0.65692294 0.20378171 0.103692874 1.3002166 0.038079586
-0.021172458 -0.05642419 -0.09142245 0.0046240054 0.0048290314 -0.0012089694 -0.06417169 0.00046355973
-0.033884663 0.07218133 -0.06959921 -0.027839987 -0.024278035 -0.014759081 -0.10603447 0.0039189532
0.034091618 0.049118586 -0.030491745 0.03284398 0.057100393 -0.12550202 -0.04156795 -0.14200634
-0.037599567 -0.24384056 -0.09815983 -0.050325293 -0.0009820737 -0.1395387 -0.032018755 -0.044785697
-0.025031146 -0.004920187 -0.0865802 -0.0022864817 0.035225913 -0.17859964 -0.072798654 0.06601162
-0.09885064 -0.07344733 -0.034406003 -0.07681491 -0.0920991 -0.058669694 -0.009428947 0.05695641
-0.18801695 0.036339052 0.049108766 0.051253572 -0.04079832 -0.114273876 -0.016047947 -0.002344413
-0.05545135 -0.07998465 -0.0037585401 -0.16334945 0.0029017238 -0.05694655 0.03321466 -0.0120949
0.27745998 0.2072771 -0.19887155 0.1998302 -0.22807415 -0.102813184 -0.17159234 -0.21449006
0.10251662 -0.6293247 0.040410858 -0.019608323 0.27664813 -0.26678866 -0.22045657 0.05479502
-0.01607465 -0.25363144 -0.21883717 -0.019964712 0.4940162 0.18974492 -0.094223164 -0.017783847
0.03597662 0.029923147 0.024804244 -0.04411047 0.0026602298 -0.08422706 0.019662797 -0.10122848
-0.23030065 -0.20915516 -0.074656986 -0.1842793 0.07035899 -0.16749784 -0.21141288 -0.07341484
-0.0834673 0.25245455 -0.0717289 -0.029347965 0.21731833 -0.14900701 -0.115994856 -0.14600426
0.04651192 -0.09621013 -0.3146073 -0.17347477 -0.18038474 -0.38660863 -0.122734055 -0.10368624
-0.010578498 0.20040911 -0.4065762 0.16097428 -0.05047416 0.18140943 -0.21752645 -0.025462866
-0.24228995 -0.6824713 0.011966911 -0.006207482 0.027868383 -0.016737875 -0.16895166 0.05691949
0.04428607 0.031054081 -0.00027420532 0.03492867 -0.33694273 -0.33536622 0.045704916 -0.08499188
0.24369779 -0.01510744 -0.041747846 -0.2628275 0.25153986 -0.082340226 0.10603866 0.09711733
0.08024553 0.038912926 0.1570485 -0.3324966 0.064075 -0.022539783 -0.65752906 -0.009532639
0.08035071 0.04567148 -0.081750125 -0.25372753 0.6536971 -0.35188413 0.06992709 -0.015745519
-0.059186816 -0.7014812 0.21253577 0.06442589 -1.4420952 0.21119681 -0.25371373 0.25793248
0.19591962 0.11356904 -0.060466424 0.0923203 0.12725465 -0.06357271 -0.0822159 0.107327625
0.13066001 -0.2305294 0.15242088 -0.5896252 0.15750208 -0.15373373 0.60672426 -0.5738716

layers.1.bias f4 [128]
00000000: 3b57 a5bd 9e47 63bd c2e6 023e d554 123e
00000010: cefb 983d dba9 d63d f59e 9abe 4fd1 ecbc
00000020: 1eab e53d c5e4 d73b b581 013e 3967 12bd
00000030: e880 c3be d4d1 d9bc 8051 24bd 192f 43bd
00000040: 73fd 8ebe 4050 1cbb 00d2 05bf 85cc 043f
00000050: 7df2 e03d 27e7 773e d0f9 073d 8a3a eebc
00000060: a3d1 d9bc 0e43 f93d 3970 4b3e 1866 823e
00000070: 0fe8 903d 75a2 ef3e 8167 a63d a4f7 3e3e
00000080: 24bb e8bc f5ed 5bbe 4429 5339 fec7 f83d
00000090: e951 2cbd 17f3 e9bc 162a 9ebc 09e0 993d
000000a0: c475 cebd e97e babc 59cf c63d ae76 7c3d
000000b0: 173e 673e 416d f4bd 8f82 51bd 4ba1 4d3d
000000c0: 00fc f3bd 2510 9cbd 3919 46bd 464c df3d
000000d0: 25b2 c23d cd40 c9bc 8998 0cbd 4057 cdbe
000000e0: 1dd9 c2bc ee39 d1bc e85d 12be cd49 303c
000000f0: 9e10 aabd 2ab6 58bd 478c ffbc 5135 8d3e
00000100: b4d6 c9bd 4b8d 9dbe 38a9 56bc a825 48bd
00000110: e5c7 d9bc 147c 56bd 6a0a 9d3d 4fbb b6bd
00000120: 2fa1 d03d be60 f83d 417e b9bd 279c 47be
00000130: ce4d 1c3d ee84 66bd ff63 82bd 5c6a 523e
00000140: ad13 cb3e a9a1 773e 2482 dcbc 06ee 573d
00000150: 62e7 1d3e 0000 0000 c8f0 90bd 8dc4 95bc
00000160: feb6 993e de4e a0bd b735 03bd aadd 8c3e
00000170: 7e5e 683d ba37 d3bc ca0b 623e 8074 62bd
00000180: e881 d33c 6424 b6bc c4a4 27be 63c6 2e3e
00000190: 30c6 c53d 2989 22be d751 cdbe 35cc 103e
000001a0: a8fa a7bd 968d d9be 246f 56be 4f44 a1be
000001b0: ef6d a1bc b87b 31bd 5d9d d53d 935c cd3e
000001c0: 2295 b7be c815 42bd c28b 263d f08b 843d
000001d0: 544c 673e 86bb 973e eee5 04bd f19d 6abe
000001e0: 3750 4dbe 595a a03e 9577 21bd 42ee 893d
000001f0: 024d 893d 3f64 33bd ab08 eebc f5ea 673d
-0.080732785 -0.05548822 0.1278334 0.14290173 0.07469903 0.10481616 -0.301994 -0.0289084
0.11214279 0.0065885508 0.12647136 -0.035742972 -0.38184285 -0.026589312 -0.040116787 -0.047652338
-0.2792774 -0.0023851544 -0.5227356 0.5187457 0.10983751 0.24209271 0.033197224 -0.029080648
-0.02658922 0.12170993 0.19867028 0.25468516 0.07075512 0.46803632 0.081252106 0.18649155
-0.028409548 -0.21477492 0.000201379 0.121475205 -0.042070303 -0.028558297 -0.019307178 0.075134344
-0.10081056 -0.022765594 0.09707517 0.06163662 0.22582279 -0.11934901 -0.0511499 0.05020265
-0.119132996 -0.07620267 -0.048363898 0.1090322 0.095066346 -0.024567032 -0.034325156 -0.4010563
-0.023785168 -0.025540318 -0.14293635 0.010759783 -0.08303951 -0.0529081 -0.03119482 0.2757974
-0.098554045 -0.3077186 -0.013101868 -0.048864037 -0.026584575 -0.052364424 0.07668002 -0.08922445
0.10186993 0.12127827 -0.09057284 -0.19493161 0.038160138 -0.056279115 -0.06366729 0.20548385
0.3966345 0.24182762 -0.026917525 0.05271723 0.15420297 0.0 -0.070771754 -0.0182822
0.30022424 -0.07827543 -0.03203365 0.27512866 0.05673074 -0.025783408 0.2207481 -0.055286884
0.02581878 -0.02223415 -0.16371447 0.17067866 0.09656942 -0.15872635 -0.401015 0.14140399
-0.08202106 -0.42490834 -0.20940834 -0.31497428 -0.01970574 -0.043330878 0.10430405 0.4010969
-0.35855967 -0.047384053 0.040660627 0.064720035 0.2258771 0.29635257 -0.03244584 -0.22911812
-0.20050131 0.3131893 -0.039420683 0.06734897 0.06704141 -0.043796774 -0.029056868 0.056620557

layers.2.weight f4 [64, 128]
00000000: 0702 fdbe 70c5 84bd deea 783d 6f42 5b3e
00000010: a2c7 23bd c0d9 a1bc c638 8abe 282d 98bb
00000020: 01a6 c13d 9382 14be d964 acbd 2687 233c
00000030: 21a6 08bf e348 bd3d 43d7 28bd b0ef a23d
00000040: 0183 6bbd 4c48 a33d 7234 71be 5b6a 1d3e
00000050: 35ab 8c3c c479 223e 2c48 2cbd f9fa 86bd
00000060: 9dbe 22bd 5cdb ba3d df33 133d c8fa 85bd
00000070: 98d7 82be 7392 e23d 7c05 8ebe 8784 49be
00000080: 7c7f cabb 7b4c 8bbd 2a17 c2bd be58 453d
00000090: fa3f 6238 6fbe 87be 88dc c5bd 056e 02be
000000a0: f535 14be 6112 823d 973d ac3d 130c 73be
000000b0: 0f61 0f3e 6c68 07be 9811 fe3c b0bc b1bd
000000c0: 9e56 f4bd cbcd 96be 3505 873d fce4 b53d
000000d0: eac3 673c 70bd 28bd d4ca cdbc cda6 abbd
000000e0: 51ac 99bb 4e44 e33a 375e 16bd a91b 26be
000000f0: c3fa e53c b4f8 90bd 1e03 093d c7ac b6bc
00000100: 1fc1 cbbc f3a3 88be 2505 a6bd 9d3c 363d
00000110: 4d8c 113d 3b58 36bd 45e5 bd3d 614a 9ebe
00000120: cebd f9bc a2e7 153e 47df 02bd 0183 34bd
00000130: 97eb 86bd 2e3c 69be 5972 34be 1441 05be
00000140: 4178 ad3d bcb9 4bba 2ca0 fa3c 7dd5 d1bc
00000150: 2b57 873d 4dca 9dbc b9ce b3be 3823 523d
00000160: 1775 583d 32c6 c6bd 4c79 8dbc b595 173e
00000170: 0d7f 3e3e 2d58 c5bd 6927 14bd 688f e7bd
00000180: ccdf 003c 3990 f1bc 809e aabd a5c7 04bd
00000190: 3dfb 24be d729 06be 2ad4 8a3d 1817 8e3b
000001a0: af2d 5ebd 1160 27bd 552a c6bd 20d9 dcbd
000001b0: 8ea8 843d 0b75 a93c 487b 8cbe 7bbe cb3d
000001c0: fe2a 19be ae35 13bd 8055 303d 3aea eebc
000001d0: 4185 fa3d 8a57 193e 7e8a a03d e6d7 af3b
000001e0: 41ea 05bf 3e7b d8bc e68d 69bd 8135 53be
000001f0: 21f2 a3bc 2dc9 893d 2abd 3bbc 1cda 2bbc
00000200: 8e97 8abc e6dd 753d 79c7 bbbb 8e36 f7bd
00000210: 6e56 85be d8ae 5bbd f6c1 0bbd c390 353d
00000220: 5293 d7bb 774a 11bd 6e0c e5bc 67d9 80bd
00000230: e6dc c0bd 2b4c 883d 39dc 5f3d f47e 953d
00000240: a798 613d b896 e9bc 076a 36bd c9ae 0fbd
00000250: 31bd 03be 4fbe cebb 606f dbbc 3d9d aebd
00000260: a66d febc 711d a6bc faa4 aa3d 2bcb 123d
00000270: 8cc2 33bd cbdf 34bd eee7 05be 395c cabd
00000280: 0499 8fbc 6f1e 09be 0f5b c0bd 978d 10be
00000290: e9a9 043d d5b9 873c c8d9 3f3d 54df 00be
000002a0: 9953 a03d 17a2 88bc f5ba 02bd e436 09be
000002b0: e6ab d5bd a077 f1ba 55f9 04bd 2c74 07be
000002c0: 195e 69bd 6a63 423c 3387 87bd c264 98bd
000002d0: 848b 60bd ee59 243d 8bbd 5d3b 8176 8ebd
000002e0: c331 e6bb e096 c6bc 694c 07be f541 6dbe
000002f0: 6488 c03c faad 40bc 827e ccbb 1a5e b03b
00000300: 8868 41bd 25fc aebd cd68 25bd 1a03 b23d
00000310: 4ad1 353d 2b19 50bd 19ab e3bd 89af 15bd
00000320: f387 48bd 756d 1f3d 90de cb3c 18ad 58bb
00000330: 7a18 3a3d e62e 62bd 9672 7bbd 3762 57bd
00000340: 59a3 473a 7a3d 0cbe 1c40 96bd 5c26 00be
00000350: 5f24 a43c c321 f0bc 8b24 1dbd 3725 62bd
00000360: c71a d9bd 2ca9 3f3d 0339 e4bc 2fdd eebd
00000370: 8363 19be 6a28 c2bd 2553 89bd 1cd6 22bc
00000380: e7ad 31bd 7bcb b8bc 3ca8 843d c93a 013c
00000390: b688 a2bc d05b 0d3e 2287 303d c899 7236
000003a0: 02cf eeb9 d6e9 373e 4e56 c13d c213 fdbc
000003b0: a76c f9bc affc 9b3d c60a 09be 5f57 8e3d
000003c0: 7c00 86bd 6232 52bd 858b 4bbe 4a29 fabb
000003d0: ea0e 8d3c 766c 19bb 8490 8a3d 5dde 89bc
000003e0: ddfd d9bd 9d4d 593c e1c1 233d 8c0e 713d
000003f0: 3824 08be cf11 1abd 7537 183d f1c3 40bd
-0.4941561 -0.06482971 0.06077086 0.21412061 -0.039985307 -0.019757152 -0.2699644 -0.004644055
0.09455491 -0.14502935 -0.08417673 0.009980952 -0.5337849 0.09242418 -0.041220915 0.07955873
-0.057497982 0.07972774 -0.23555163 0.15372603 0.017171482 0.15866762 -0.042061016 -0.06590838
-0.039732564 0.09123871 0.03593814 -0.06541973 -0.2555511 0.11063089 -0.2773856 -0.19679461
-0.006179748 -0.06801697 -0.094770744 0.048180334 5.394218e-05 -0.26512477 -0.096612036 -0.12737282
-0.14473708 0.06351162 0.08410185 -0.23735075 0.14001869 -0.13223428 0.031014249 -0.086785674
-0.119305834 -0.29453883 0.0659279 0.08881566 0.014145831 -0.041196287 -0.02512113 -0.08381424
-0.004689731 0.0017339082 -0.036710944 -0.16221489 0.028073674 -0.07078686 0.03345024 -0.022299184
-0.02487236 -0.26687583 -0.0810645 0.0444914 0.035534192 -0.044517737 0.09272245 -0.30916122
-0.030486014 0.14639142 -0.031951215 -0.044070248 -0.06587904 -0.22776863 -0.17621745 -0.13013107
0.08470202 -0.0007771512 0.030593954 -0.025614494 0.06608423 -0.019261504 -0.35118654 0.05130312
0.05284604 -0.097057715 -0.017269753 0.14803202 0.18603154 -0.09635959 -0.036170397 -0.113066494
0.007865857 -0.029487716 -0.08331013 -0.03241696 -0.16111465 -0.13101898 0.06778748 0.004336249
-0.054242786 -0.0408631 -0.09676043 -0.10783601 0.06477462 0.020685693 -0.27437806 0.09948441
-0.14957806 -0.035939865 0.04305029 -0.029164422 0.122324474 0.149748 0.07838915 0.0053663133
-0.5231057 -0.026425954 -0.05702009 -0.20625879 -0.020012917 0.06727824 -0.011458674 -0.010489013
-0.01691797 0.060026072 -0.005730566 -0.12070952 -0.26042503 -0.05363354 -0.034120522 0.04432751
-0.0065788412 -0.035471406 -0.027960028 -0.06291466 -0.09417133 0.06655153 0.05465338 0.07299605
0.05507722 -0.028514251 -0.04453471 -0.035078797 -0.1286514 -0.0063093076 -0.026786506 -0.085260846
-0.031058144 -0.02027771 0.08332248 0.035838287 -0.043886706 -0.044158738 -0.13076755 -0.09880871
-0.017529018 -0.13390516 -0.09392368 -0.14116512 0.0323886 0.016568104 0.04683855 -0.12585193
0.07828445 -0.016678853 -0.031916577 -0.13399845 -0.10433178 -0.0018422492 -0.032464344 -0.1322791
-0.056974504 0.0118645225 -0.06617584 -0.07441093 -0.054820552 0.040124826 0.00338349 -0.069561966
-0.007024975 -0.024241865 -0.13212742 -0.23169692 0.023502536 -0.011760229 -0.006240667 0.0053823115
-0.04721883 -0.085441865 -0.04038315 0.08691998 0.044389047 -0.050805252 -0.11116619 -0.036544356
-0.048957776 0.038922746 0.0248864 -0.0033062156 0.0454335 -0.055220507 -0.061388575 -0.0525839
0.0007615588 -0.13695326 -0.07336447 -0.12514633 0.020036874 -0.029312974 -0.03836493 -0.055211272
-0.106008105 0.046792194 -0.027859217 -0.11663281 -0.14979367 -0.094803646 -0.06705312 -0.009938743
-0.043378737 -0.022557965 0.06477401 0.007887551 -0.01984058 0.13804555 0.043097623 3.6150323e-06
-0.0004554913 0.17960295 0.094402894 -0.03089321 -0.030447317 0.07616555 -0.13383016 0.069502585
-0.06543061 -0.05131758 -0.19877441 -0.0076343166 0.017219026 -0.0023410595 0.067658454 -0.016829664
-0.10644124 0.013263133 0.03997982 0.058851764 -0.13295066 -0.03761464 0.037162263 -0.047061864

layers.2.bias f4 [64]
00000000: 10be 983e 4abc 993d 38d1 d9bc bd8d 813d
00000010: 1e5d f8bc 2735 e73d c200 c63e 1dc4 cd3e
00000020: 1365 4d3c f023 773c fc0a ccbc 5d04 a23e
00000030: 66bc 4f3e fbc4 f8bc 6f83 813c 262e c83e
00000040: ad5a dbbc ff46 b13e 7057 fa3d a140 30bf
00000050: caa3 0dbe 8876 c03d 5b1a 943c ad31 0abd
00000060: 6377 3cbd 1026 4c3e 7eb8 39bd 3d93 c9bc
00000070: 41f0 8bbd 8ad4 4c3e 6c5d 1bbd 14c1 a93e
00000080: f0d1 d9bc 5154 9c3e d29c a93c ee1f 6bbd
00000090: 3cf6 3b3d 5d2f 94bd dc15 823e 1952 773d
000000a0: f7d1 d9bc f89a 31bb 50b1 693c fca7 6a3c
000000b0: 9f98 6dbd 1f07 00bd 3396 21bd 1e2b ba3e
000000c0: 79d1 d9bc 92e7 cb3e d708 9a3c 5b95 04bd
000000d0: 5f65 903e 5872 08bd caf6 c93e 065b da3d
000000e0: 6fb8 b03e 6e69 bd3e d29d 9ebc 3187 853e
000000f0: 41ea ad3c d940 10bd cede b6bc 5f73 c93e
0.29832506 0.075066164 -0.026589021 0.063258626 -0.03031784 0.11289435 0.38672453 0.40188685
0.012536305 0.015084252 -0.024907582 0.31643954 0.20286712 -0.030367365 0.015809743 0.39097708
-0.026776636 0.34624478 0.12223709 -0.68848616 -0.13832012 0.09397608 0.018078974 -0.03373878
-0.046012294 0.19936395 -0.04534196 -0.024606341 -0.06832934 0.20002952 -0.03793089 0.3315512
-0.026589364 0.30533078 0.02070466 -0.057403497 0.045889124 -0.07235596 0.25407302 0.06038103
-0.026589377 -0.0027100425 0.014263466 0.014322277 -0.05800688 -0.03125679 -0.03944988 0.3636102
-0.026589142 0.39825112 0.018803043 -0.032369 0.2820234 -0.03331217 0.39446098 0.106618926
0.34515712 0.369945 -0.019362364 0.26079705 0.021229865 -0.035218094 -0.022323038 0.39345834

output_layer.weight f4 [1, 64]
00000000: cf1a ea3d 6e06 debb fe6b 973b 6ef2 fabd
00000010: cbe0 9fbd 2d38 1fbe a11e 373e 62c9 16be
00000020: 5bcc 67ba bb93 bbba 3cd0 923c 09b4 1dbe
00000030: dec2 b63d 58a3 86bb 1a6a cebb 4c49 60be
00000040: fa0d 7dbd b662 14be e284 113e 40d8 78be
00000050: 3208 163c 704e f7bd 83b1 8f3b c6f2 0fbd
00000060: 4488 c03c 8dd8 f83d 0ba2 0d3d 74fc a7bb
00000070: 9458 b7bc d10c b63d 456f 293d ef92 14be
00000080: 372d a0bd 3572 f6bd 776b 76bc 316b 11bb
00000090: 181a 36bc ab6e 86bb 4496 043e 43c6 a23a
000000a0: e67f 8a3c e209 5fba e3f6 2ebc d328 27bb
000000b0: 3689 883c ecdf b43d 0f11 ad3c 09c2 5b3e
000000c0: 5bdb ab3c a93b 44be 23ea 82bc 4be2 ffbb
000000d0: 661a ff3d f228 8f3d 566d 5a3e 8037 e3bd
000000e0: bad2 11be fbf6 26be 08a4 39bd 80a1 fe3d
000000f0: 4c40 e33d af67 b5bd 4ae6 96ba 9a24 573e
0.114308946 -0.006775669 0.004621028 -0.12253271 -0.07806548 -0.15548773 0.17882778 -0.14725259
-0.0008842402 -0.0014310995 0.01792156 -0.15400709 0.08923887 -0.0041088276 -0.0062992694 -0.2190296
-0.061780907 -0.1449078 0.14210847 -0.24301243 0.009157227 -0.12075508 0.0043851747 -0.035143636
0.023502477 0.12150679 0.034578364 -0.0051265303 -0.022381105 0.08889163 0.04136588 -0.14509176
-0.07821124 -0.12033502 -0.01504027 -0.0022189135 -0.01111462 -0.004102548 0.12947947 0.0012418706
0.01690669 -0.00085082476 -0.01067898 -0.002550651 0.01666699 0.08831772 0.021126298 0.21460737
0.02097862 -0.19163384 -0.015980786 -0.0078089586 0.12456207 0.069902316 0.21330771 -0.1109457
-0.14240542 -0.16305153 -0.045322448 0.124331474 0.11096248 -0.08857667 -0.0011512723 0.21010056
