models/best_model.pth (torch, 5090 bytes, 9 tensors)

layer1.weight f4 [10, 5]
00000000: 80aa b9be 6114 823d 0a77 febe c5d3 983c
00000010: 1052 953c d87e 50bb fdf0 743e 62eb c03e
00000020: 3ed8 2c3f 20f8 3f3c 96b7 853e f9e9 a63e
00000030: 7df5 2cbe f1c9 cd3e c857 36bc 674c a63e
00000040: 324b d33e 9bd1 f8bd 47a6 0cbf 599a 2d3b
00000050: a5de b43e 0cc9 d33e 67d6 623f 785f bd3d
00000060: 07af eb3c fdb3 28bd 7faa ba3e 7673 803e
00000070: 6c97 28bd 550e 013d 4004 0abf 23a7 2bbe
00000080: 0a9b f23e 3000 16bf e6ee d0bc 19bf 513e
00000090: eedf dfbe 678f 3ebe 7a1e dc3e 74fc 0fbc
000000a0: 71c9 8f3d 7263 a6be 1782 a63e 77c1 02bf
000000b0: 8205 683c 387f d8be 726f 7e3d c52a 353f
000000c0: ac33 023e 2068 4b3a
-0.36262894 0.06351543 -0.49700195 0.018655667 0.018227607 -0.0031813886 0.23920055 0.37679583
0.6751746 0.011716872 0.26116627 0.32600382 -0.16890521 0.40193132 -0.011129327 0.32480165
0.41268307 -0.12149354 -0.5494122 0.0026489703 0.35326114 0.41364324 0.886084 0.09246725
0.028769983 -0.041187275 0.36458203 0.2508809 -0.041160032 0.03150781 -0.53912735 -0.16762976
0.4738391 -0.58594036 -0.02550454 0.20483054 -0.43725532 -0.18609391 0.42992002 -0.008788217
0.07020844 -0.32497746 0.32521126 -0.51076454 0.014161469 -0.4228456 0.062118 0.70768386
0.12715024 0.0007759351

layer1.bias f4 [10]
00000000: d6c7 eb3c 6759 e63e 0c36 7c3e 7d8f e23e
00000010: 89e5 083d 51c8 dcbe 97bf e53e ca4e 833e
00000020: 36eb 6a3e 65fe e03e
0.028781813 0.44990084 0.24629992 0.44250098 0.033422027 -0.4312158 0.44872734 0.2564605
0.22941288 0.43944088

layer2.weight f4 [10, 10]
00000000: 0e54 943e b360 6b3e 4dac e43e 09a2 5fbc
00000010: b423 84be f090 66bc 5fc7 453e 0c84 cebe
00000020: dee6 7e3d 0031 80be 6e11 cebd ae6a b83e
00000030: 35bb ee3d 838b d2bd cbca e1be 9dfb 70be
00000040: d0f6 80be 70b1 cd3e ee15 80bd 6bf0 97be
00000050: c42a 033e fc21 033f c0c4 a2be b084 b7be
00000060: 1f28 443e bcb3 babe 3d68 0f3d 152e ae3e
00000070: 8f90 2b3d cc1e f83e 2531 2b3d 0d79 d23e
00000080: 4605 453d 8c8c 90be f053 5d3d a400 a8be
00000090: 8616 9dbd 5d15 f23e f857 df3d a914 643e
000000a0: fc0a 903d 0140 3a3f 442b 0c3f 179a 3bbd
000000b0: 2cee 30be f738 763e 635b eebe 9cb3 07be
000000c0: 733c c3be 7ae7 de3e d679 cebe 60c5 cfbe
000000d0: 8cc2 9b3e afe4 2f3f 52ef 933d daab 253e
000000e0: 6643 f13e f932 033f 70e8 6dbe edf9 e73e
000000f0: dd10 ccbd 5927 2d3f b56f d73d 46d3 a03e
00000100: 51ba e7be 47f8 80be a516 3dbe da13 00bf
00000110: b410 a5be a355 833e bd40 ccbe 12c1 c6bd
00000120: 14ce c5bc e64e 053e 17da 2b3f 71de 2ebe
00000130: 9f62 8e3e 0a33 b53e 37b7 153f 66ed 33be
00000140: c7a2 fe3c bec4 f83e 93f4 4b3e 7e50 b6be
00000150: 12a3 9d3e 38fc 61bd 1562 813e cee2 023e
00000160: d081 153f cb3c debe 20ab 283f 1832 0f3e
00000170: ea44 d73c b795 2cbe 0fd6 8abd 02b6 05bd
00000180: 504c ad3e a345 0a3f f881 283f 09fc 9cbd
0.2897038 0.22986107 0.44662705 -0.013649472 -0.2580849 -0.014072642 0.19314335 -0.4033512
0.06223189 -0.25037384 -0.10061918 0.3601889 0.11656801 -0.10280516 -0.4410003 -0.23533483
-0.25188303 0.40174437 -0.06254183 -0.29675612 0.12809283 0.5122373 -0.31790733 -0.3584342
0.1915593 -0.3646525 0.03501152 0.34019533 0.04188591 0.48460996 0.041794915 0.4110798
0.048100732 -0.2823223 0.054035127 -0.3281299 -0.07670312 0.47281924 0.109054506 0.22273506
0.07033345 0.7275391 0.5475352 -0.04580125 -0.17278355 0.24045168 -0.46554098 -0.1325211
-0.38132057 0.43535978 -0.40327328 -0.40580273 0.30421865 0.6870832 0.07223381 0.16178837
0.47121733 0.51249653 -0.23233199 0.45307866 -0.09964154 0.67638165 0.10519353 0.3141119
-0.45259336 -0.2518942 -0.1846567 -0.5003029 -0.32239306 0.25651273 -0.3989314 -0.09704794
-0.024146117 0.13018379 0.67129654 -0.17077042 0.27809617 0.35390502 0.5848269 -0.17571029
0.031083478 0.48587602 0.19917516 -0.35608286 0.30788475 -0.055172175 0.25270143 0.12781832
0.58401203 -0.43405756 0.65886116 0.13983953 0.026277978 -0.16853987 -0.0677911 -0.03264428
0.33847284 0.5401251 0.65823317 -0.076652594

layer2.bias f4 [10]
00000000: 6ff3 033e 4bcd 993e 0bb7 e4bd ffad cebd
00000010: 0418 fd3c a357 cc3d b42c 953e 90c6 e93d
00000020: c770 183e 80e3 a63d
0.12885831 0.3003944 -0.11167725 -0.10091781 0.03089524 0.09977653 0.29135668 0.11414826
0.14886771 0.08148861

layer3.weight f4 [10, 10]
00000000: 3374 08bf c7a5 36be 2972 0abd 553e 5cbe
00000010: 1024 bc3e 34e5 8dbe 08d2 953e 4363 bc3d
00000020: 4516 0c3f ec7b 92be df46 b43e 37bc d6be
00000030: 3d7b 993c fb1d 9a3e 211c e93c 5233 28be
00000040: 61b4 7bbe d27d a6be 5a67 d5be c367 f83e
00000050: 45eb 143e 0a75 193f 5c55 183f edfa 86bd
00000060: 41cf 53be 7744 ec3e fbb7 47bc c60b 32bd
00000070: f728 70be c4e0 90be 86c1 7bbd c293 cebd
00000080: 8bef cfbe 7741 b0be 57b8 0a3f 2e9f 7b3a
00000090: 070f cebc cac2 203f 43c6 8e3e 6e7d df3e
000000a0: 5003 adbd 1db4 493e 86f9 84be 86e3 bebe
000000b0: 5586 843e a980 cf3c 6cac b03e cdcf 95be
000000c0: f840 e1be 629f 133f fcb7 543d eeed 353e
000000d0: 8da2 1fbd 8790 f03c 6899 61be 5409 09be
000000e0: 28e4 8abd 4d45 04bf e6af f1be 5bc0 153e
000000f0: 6846 383e 6d80 a8be e63e 963d c0f1 a83e
00000100: 8b57 053e 321e 52be 204a 373d 5ee8 be3e
00000110: 4bd3 6b3b 04d1 e0be b188 243e e407 3f3e
00000120: 4423 a33e 0503 d53e e73e 36bf 4376 01be
00000130: 4446 1c3e 9e34 bc3e 3dfe 59be f700 08bf
00000140: 0e69 97bd d35d 3b3c 3875 c43e 9ce3 a83e
00000150: 4ef0 85be 0ffd f13e 6826 e63e 0cfe 63be
00000160: 733c 82be 0480 883e 7b23 ca3e fb90 1f3f
00000170: 90b1 18bf 13ba 443e eda0 633e 826b 2d3f
00000180: ea5c 0cbf a9ce 31be 00e7 c9bd ab6f a4bd
-0.53302306 -0.17836677 -0.033800278 -0.21508153 0.36746264 -0.2771393 0.29261804 0.0919862
0.5472148 -0.2861017 0.3521032 -0.41940472 0.018735522 0.30100998 0.028455796 -0.16425827
-0.24580528 -0.32517868 -0.41680413 0.48516664 0.14542873 0.5994421 0.5950525 -0.06590829
-0.2068453 0.46145985 -0.01218986 -0.04346826 -0.23453127 -0.28296483 -0.061463855 -0.10086776
-0.40612444 -0.34424946 0.5418753 0.000959861 -0.02515365 0.62797225 0.27885637 0.43650383
-0.084478974 0.19697614 -0.2597162 -0.37282962 0.25883737 0.025329905 0.34506547 -0.29260102
-0.4399488 0.57665074 0.051933274 0.17766544 -0.03897338 0.029365791 -0.22031176 -0.13382465
-0.067817986 -0.51668245 -0.47204512 0.14624159 0.17995608 -0.3291048 0.07336216 0.3299694
0.13021676 -0.20519331 0.044748425 0.37286657 0.0035984095 -0.43909466 0.16067769 0.18655354
0.31862843 0.41603866 -0.7118973 -0.1264277 0.15261179 0.36758894 -0.2128839 -0.5312647
-0.073930845 0.011435944 0.3837068 0.32986152 -0.261599 0.4726338 0.44951177 -0.2226488
-0.25436744 0.26660168 0.39480194 0.623306 -0.5964594 0.19211607 0.22229357 0.6774217
-0.54829276 -0.17363991 -0.09858513 -0.080291115

layer3.bias f4 [10]
00000000: 78ee 493e 5c87 aebd 43b2 843d 52aa 3f3d
00000010: a1e5 7d3e 3ab0 ca3e 1acf b93d 00a3 5c3d
00000020: 0d23 84bb 300d df3d
0.19719875 -0.085219115 0.06479313 0.04679329 0.24794628 0.39587575 0.090727046 0.053866386
-0.0040324987 0.10891187

layer4.weight f4 [10, 10]
00000000: 635b 71bd f86c 533f b35e 1ebf a165 1a3f
00000010: 82e4 bd3d fde8 40be dfad 8d3e ca42 2c3f
00000020: edb1 483e d218 70be bb7e fe3e 1e17 183c
00000030: a66b 11bf 8abc 763d 6d11 7b3d 57fa 6b82
00000040: 1fba bf3c da6c debc 7c85 17be bd3e bebe
00000050: 9b41 0e3f 4237 023f 2896 e0be 6814 8a3e
00000060: 4043 3c3d 67a0 ef3e 92f2 3c3e 7358 d13e
00000070: 49e9 e23d 2c01 9cbd a920 373e 5422 26bc
00000080: fc08 4dbf 3d0c 013e 17b9 c2be 6928 7002
00000090: 091c 8dbd e6ba db3d e2ca 0b3b 2dc6 c4bb
000000a0: c9c0 4bbe 5ba8 aabd 70ae d43e 5381 c2bd
000000b0: de5e 4cbe d2eb d4be 41a9 263e f290 a73c
000000c0: 1459 ab3e b3aa 5d3e c081 1bbd 9935 063e
000000d0: 2055 2dbf 4867 a93e f669 163f 8cec ff3e
000000e0: c5c4 87be 317d 073f daa1 013e 2471 79be
000000f0: 2066 0a3f c41c 46be 9441 e63d 9051 b73d
00000100: 2848 aabd 7082 e33e 4eba d53a 3da4 263e
00000110: 66f1 58bd 8648 ac3e 1b21 85be ccd9 5a3e
00000120: e89a ba3e 5ab8 b0bd f5c9 1bbf ca85 d5be
00000130: 5078 f1bd 39ae f13c 3053 be3e f0fc 093f
00000140: e02c b4be 55fc 2cbf 66b0 b8be 0f5d 6cbe
00000150: ee0d 17be 6c94 023f aaee 233f 3a2b 8bbc
00000160: 029e 223e e872 093f f7fd e13b f1a7 843d
00000170: 49f4 d63e 5c15 79be 4415 88be 0c33 45bf
00000180: aa51 023e 207f 5dbd 7643 c83e 59a2 0d3e
-0.058925044 0.8258815 -0.6186325 0.60311323 0.092721 -0.18838878 0.27671716 0.6728941
0.19599123 -0.23446968 0.49706063 0.009282855 -0.56804883 0.0602384 0.061295915 -1.7336917e-37
0.02340418 -0.027151514 -0.14797014 -0.3715724 0.55568856 0.50865567 -0.4386456 0.26968694
0.045962572 0.46802065 0.18451908 0.40887794 0.11079652 -0.07617411 0.17883553 -0.01014002
-0.80091834 0.12602325 -0.38031837 1.7644012e-37 -0.06890113 0.107290074 0.0021330644 -0.0060050697
-0.1989776 -0.083328925 0.41539335 -0.09497323 -0.19958064 -0.41586167 0.16275503 0.020454857
0.334664 0.21647148 -0.037965536 0.13106383 -0.67708015 0.3308661 0.58755434 0.49985158
-0.2651731 0.529254 0.12659398 -0.24359566 0.5406208 -0.1934691 0.11242977 0.08951104
-0.08314544 0.44435453 0.0016306133 0.1627359 -0.05296459 0.3364908 -0.2600182 0.21372145
0.3644631 -0.08628912 -0.60855037 -0.41703635 -0.11790526 0.029502021 0.37172842 0.53901577
-0.35190487 -0.6757253 -0.3607208 -0.23082374 -0.14751408 0.51007724 0.6403605 -0.016988385
0.15880588 0.5369096 0.00689673 0.06477345 0.4198325 -0.24324554 -0.26578724 -0.77031016
0.12726465 -0.054076314 0.3911397 0.13831462

layer4.bias f4 [10]
00000000: d415 60be bd4d bfbe e7cc b43b a5ca b9bd
00000010: 7c68 56bb 7974 dd3d ab24 843c 3e32 38bc
00000020: 11a8 493e a947 c03c
-0.21883327 -0.37363997 0.0055175903 -0.090718545 -0.0032716086 0.10813231 0.016130766 -0.011242447
0.19693018 0.02347167

output_layer.weight f4 [1, 10]
00000000: d017 0fbf ae20 503f 71d6 40bf 5514 743f
00000010: 103c fa3e e381 34bf 3f64 b0be c3b5 ce3e
00000020: ab84 853f cb39 553f
-0.5589571 0.81299865 -0.7532721 0.95343524 0.4887395 -0.7051069 -0.34451482 0.40373048
1.0431112 0.8329131
