models/best_model.pth (torch, 3302 bytes, 5 tensors)

layers.0.weight f4 [10, 5]
00000000: faf6 173f f0c0 263d 923b 3c3e 9ba7 403f
00000010: 1fe4 f03a 39aa 413e 9e4d 9ebe fcef d1be
00000020: d62a 423f ab2f dbb9 3cc8 173e 782a f93e
00000030: dad4 b03d db26 20bf 1fe7 a2ba 3fec d63e
00000040: d8ec d2be 0d4f 503e e00e ebbe 017c 2b3b
00000050: e991 c73e 409b 8cbd 2fe0 36bf 995e 15bd
00000060: 7ffb 2a3a 0103 babe d6a9 62be 81e0 c23e
00000070: c5b0 2e3f 16a7 b5ba bb97 a4be 7ebb 1abe
00000080: 639d 883e c6a2 d5be 5918 d4b9 5c44 cf3d
00000090: 346a a23e 185b 543f 35e6 a43e d86a 1c3b
000000a0: 1e73 043e 713c a63e 9e5c 71be 2fca f93e
000000b0: 5bfd 2039 3f66 e7be e466 3ebe d4e4 1abf
000000c0: 05fb 863e 7aac 9d3a
0.5936123 0.040711343 0.183821 0.75255746 0.0018378532 0.18912591 -0.30918592 -0.41003406
0.7584661 -0.0004180645 0.14822477 0.48665214 0.08634348 -0.6255929 -0.0012428499 0.41977116
-0.41196322 0.20342655 -0.45909786 0.0026166441 0.38978508 -0.06865549 -0.71435827 -0.03646717
0.0006522461 -0.36330417 -0.221351 0.38061908 0.6823848 -0.0013859 -0.3214701 -0.15110585
0.26682577 -0.4172575 -0.0004045393 0.101204604 0.31721652 0.829515 0.32206884 0.0023867395
0.12934539 0.32467988 -0.23570487 0.48787066 0.00015353171 -0.45195195 -0.18593937 -0.60505414
0.26363388 0.0012029551

layers.0.bias f4 [10]
00000000: b538 1d3f 9d0b febd 86ab 973d d586 c83d
00000010: 8aae d23e a1a2 763e 5e34 8c3e 7525 2e3f
00000020: 0130 68bd e1a0 de3b
0.61414653 -0.12404559 0.074057624 0.09791342 0.41148788 0.24085476 0.27383703 0.68025905
-0.056686405 0.0067940806

layers.1.weight f4 [10, 10]
00000000: 7d36 5fbd 6307 6b3e 276a 053f 1151 2dbd
00000010: 2bc5 633c 3aaa f93e 3676 fb3d ac54 bcbd
00000020: 780f 8bbe b156 9cbe c773 8f3e 41b6 663f
00000030: 7a98 b6be 7d11 0ebe 76d5 dcbd 67d4 983e
00000040: 3013 013f 4747 503e c07a 29bf 8e8b d9be
00000050: 480c c63e b677 14be 115b 29bf 3026 61be
00000060: 6651 683f 0d89 18be 32d0 14bf 5fea 19bf
00000070: 72fa 71bd d007 30bb f31b 9e3e 7196 173e
00000080: b866 efbd 6eb7 72bd 6ad2 e1bd 3ab8 323e
00000090: a9c9 98be d70a 87bf 882d 43be 9a70 afbe
000000a0: 9ab1 653e e855 93bd 9400 b3bd fd64 c2be
000000b0: aa23 e0bb 8553 97bd cc1d d8be 8ccb 0e3f
000000c0: e56a 2a3f b7b3 dd3e 4fe7 cc3c 1e4c 7d3d
000000d0: ef1f c73e 7f19 abbe 34b6 50bf 5ded f83e
000000e0: 0297 033e f352 963e bcc1 a63e 839f 863e
000000f0: 3882 ef3e ba8d dd3c 08c2 203f 7b56 dbbd
00000100: 88f0 d93e c4b3 803e 011d 26bf 2ba0 1ebf
00000110: d01e 683e 9de1 583d 6d4d 65bf 753e 8ebe
00000120: bc41 1b3f c474 15be 8508 f03d 8df3 cdbe
00000130: 8309 8b3e c14f 883e de3e 03be fe9f c2bd
00000140: a40c 34be 183a cabe e61b 75bd 187c be3e
00000150: ff18 653d 243a 4e3d 8d75 4c3e 2bc1 d1be
00000160: c79f 493e c5c6 e73e 0e8d a13e 1d91 1b3e
00000170: 1238 77be 3de2 bf3e 1733 d0be 033a 81be
00000180: b523 8abd fa2d 033e 9857 ea3e edba 693e
-0.054495323 0.22952037 0.521151 -0.04231364 0.013901989 0.48762685 0.12278406 -0.091958374
-0.2716024 -0.3053489 0.2801802 0.9012185 -0.35663205 -0.13873859 -0.10782902 0.2984955
0.504199 0.2033969 -0.66202927 -0.42489284 0.38681245 -0.14498791 -0.6615458 -0.21987224
0.90749204 -0.1489603 -0.5813018 -0.60123247 -0.059076734 -0.0026860125 0.308807 0.14803483
-0.11689514 -0.059256963 -0.110264614 0.1745309 -0.29841354 -1.0550183 -0.19060338 -0.34265596
0.22431031 -0.0719412 -0.08740345 -0.37967673 -0.006840189 -0.07388977 -0.42210233 0.5577934
0.6656936 0.43301174 0.02501264 0.06184017 0.3889155 -0.3341789 -0.8152802 0.48618594
0.12850574 0.2936016 0.32569683 0.26293573 0.46779037 0.02704512 0.6279607 -0.10709854
0.42566323 0.2513715 -0.64888006 -0.61963147 0.22668004 0.052949537 -0.8957127 -0.27782026
0.6064718 -0.14595324 0.11720375 -0.40224877 0.27155694 0.26623347 -0.1281695 -0.09503172
-0.17582947 -0.39497447 -0.05984106 0.3720405 0.05593204 0.050348416 0.19966717 -0.40967688
0.19689856 0.45268837 0.3155293 0.15192075 -0.24142483 0.37477294 -0.40663978 -0.25239572
-0.06745092 0.12810507 0.45769954 0.22825213

layers.1.bias f4 [10]
00000000: 00ef f8bd 1c5a 21be c97a 85bd 38ff eebd
00000010: d67e 8e3e 84cd 3abe a1ea 25be 27ca 1bbe
00000020: 8ea1 9a3e 94a3 a23e
-0.12154961 -0.1575703 -0.0651756 -0.11669773 0.27831143 -0.1824246 -0.16202785 -0.15213834
0.3020138 0.31765425

output_layer.weight f4 [1, 10]
00000000: b8d0 783f 8c3e 3c3f 2b7e 283f 0573 9bbf
00000010: 7323 fcbe e8f4 263f ece0 543f 9f39 1b3f
00000020: caa9 4dbf b5ab 69bf
0.9719348 0.7353294 0.6581752 -1.2144476 -0.49245796 0.6521745 0.83155704 0.606348
-0.803372 -0.9127763
