models/best_model.pth (torch, 71396 bytes, 7 tensors)

layers.0.weight f4 [64, 5]
-0.25739437 0.21165864 -0.29090667 0.13927406 0.00057120074 -0.116731934 0.29536346 0.08841226
-0.280269 0.00084885396 0.102776706 -0.18146233 0.16153994 -0.17236231 -0.0020254366 -0.12246821
0.029457787 -0.17769845 0.19856456 -0.0006113117 0.14420958 -0.09966628 0.16512567 0.20899577
-0.0004352321 -0.15486081 0.3098255 -0.058749482 0.3249435 -0.00022272703 0.055527918 0.030034265
-0.026050832 0.0933164 0.16753587 -0.17084415 0.16570133 0.2446619 0.24245468 -0.00038583257
-0.17424253 -0.1968736 -0.1145231 -0.22717188 0.00012550833 0.17253432 -0.3101291 0.03568088
-0.32000718 -0.00094209536 0.1261227 0.18542495 0.27559587 -0.19508134 0.00050493935 0.007339915
-0.3627683 -0.088474214 0.31751177 -6.748789e-05 -0.26464853 0.14031143 0.21685904 -0.17684805
-0.00052677584 -0.04056216 0.32404003 -0.022573099 -0.12193723 0.0010726857 0.16759674 0.2266131
0.07329047 0.21308039 -0.0009807865 -0.018141635 -0.0029605278 0.38180533 -0.10172651 0.00039679013
-0.31388634 -0.007964356 -0.014818909 0.09824881 -0.0017467642 -0.21299528 -0.05640482 0.2518187
0.06562309 -0.0010804324 -0.11752785 0.21673495 -0.1349611 0.16454619 -9.0613394e-05 -0.005392218
0.068821125 0.017134009 -0.013483517 -0.01716718 -0.32420155 0.0494846 0.09952819 -0.032637082
0.0024115446 0.27413398 0.121132776 -0.31133956 0.02187445 0.00026422768 -0.022384914 0.08619994
-0.012832811 0.013854727 0.1826645 -0.1278119 -0.2742684 0.1689257 0.21335143 -0.0008316608
-0.16533846 -0.17313495 0.17929097 0.23101299 0.0006879747 0.007847877 0.010134543 0.0039907508
-0.0023173797 0.3183988 0.22984175 -0.15975845 -0.11994676 0.26854995 -0.0004193833 0.17307308
0.24270268 0.18476406 0.17844455 0.0017508386 -0.16854239 -0.13408779 -0.18945685 -0.1497787
3.0756175e-05 -0.23848371 -0.1773844 -0.16976815 -0.28824222 0.00054065743 0.31561568 0.020062245
-0.2833324 -0.10879842 -0.00043701965 0.24811223 0.028919179 -0.17669694 -0.19584064 -0.0001356125
-0.0505667 -0.038100034 -0.00920245 -0.00759444 0.006693343 -0.3133804 -0.085417256 0.34592786
0.051306445 0.00011508812 -0.053974908 -0.34814546 0.047082365 0.31896397 -0.00056159304 0.21302526
-0.2180525 0.25203854 -0.15075117 0.00022039654 0.1481827 0.2712969 -0.10764659 -0.20399895
0.00042096621 0.0052183103 0.13384907 0.06511599 -0.20129621 0.00021369282 -0.02001671 -0.11399149
-0.005770658 -0.06499092 0.28731978 0.3871412 -0.0029890614 0.091070466 0.03531556 -0.0008823112
0.16434593 -0.119653165 0.1673501 -0.22199489 1.8044311e-05 -0.2107172 0.098800786 0.28823626
-0.020619983 -0.0009373964 -0.11634294 -0.0067957807 -0.025372434 0.02003218 0.3015835 -0.0015353318
0.29122865 -0.15492052 -0.28450227 -0.00043724437 0.08377725 -0.017461527 0.06704513 -0.029752
0.2151543 -0.0077338046 0.043255236 -0.009836224 -0.0045002317 0.009804889 -0.19777375 -0.1342187
-0.2536498 0.01883914 0.0010059421 0.13291591 -0.10098989 0.21771339 -0.13398382 0.00052187865
-0.20724523 0.17155544 0.21700603 -0.057572808 -0.0010030871 -0.30895668 -0.11177809 -0.30383554
-0.1665217 -0.0009588462 0.18011384 0.08830186 0.21714658 0.12565508 0.0012884403 0.055298332
00000000: 32c9 83be 0bbd 583e b8f1 94be dc9d 0e3e
00000010: a2bc 153a 2711 efbd e139 973e 7d11 b53d
00000020: 6b7f 8fbe a085 5e3a 987c d23d 43d1 39be
00000030: ba6a 253e bf7f 30be 30bd 04bb 9dd0 fabd
00000040: 7551 f13c 95f6 35be 8254 4b3e 6f40 20ba
00000050: adab 133e d61d ccbd b416 293e fd02 563e
00000060: dd2f e4b9 d593 1ebe 73a1 9e3e 4ca3 70bd
00000070: ff5e a63e d58b 69b9 3e71 633d 6b0a f63c
00000080: 8e68 d5bc ab1c bf3d 868e 2b3e c5f1 2ebe
00000090: 9cad 293e a688 7a3e 0a46 783e 9249 cab9
000000a0: a26c 32be 3c99 49be 168b eabd bf9f 68be
000000b0: e39a 0339 d6ac 303e 3ec9 9ebe 1d26 123d
000000c0: fbd7 a3be f3f6 76ba 4f26 013e 0ae0 3d3e
000000d0: e71a 8d3e 67c3 47be e85d 043a ab83 f03b
000000e0: c4bc b9be f831 b5bd e790 a23e 4988 8db8
000000f0: 0380 87be cdad 0f3e 4c10 5e3e a817 35be
00000100: 5417 0aba 8224 26bd 93e8 a53e 38eb b8bc
00000110: 3aba f9bd 5c99 8c3a 7b9e 2b3e 440d 683e
00000120: 5019 963d bf31 5a3e bc8d 80ba c49d 94bc
00000130: 6a05 42bb fd7b c33e fd55 d0bd 4508 d039
00000140: b6b5 a0be ee7c 02bc 02cb 72bc ac36 c93d
00000150: aef3 e4ba 6f1b 5abe be08 67bd 61ee 803e
00000160: 6665 863d 4c9d 8dba 71b2 f0bd c4ef 5d3e
00000170: 3e33 0abe cc7e 283e b207 beb8 34b1 b0bb
00000180: 17f2 8c3d 9f5c 8c3c f8e9 5cbc 30a2 8cbc
00000190: bffd a5be 5db0 4a3d 70d5 cb3d 76ae 05bd
000001a0: 010b 1e3b 4a5b 8c3e 7614 f83d e667 9fbe
000001b0: 0c32 b33c 0a88 8a39 9160 b7bc 9889 b03d
000001c0: b640 52bc f0fe 623c 670c 3b3e 1fe1 02be
000001d0: e86c 8cbe dcfa 2c3e cc78 5a3e d003 5aba
000001e0: 7c4e 29be 4a4a 31be 0d98 373e ab8e 6c3e
000001f0: 3359 343a 6294 003c 5b0b 263c d8c4 823b
00000200: 2edf 17bb 2b05 a33e a35b 6b3e b897 23be
00000210: a6a6 f5bd 617f 893e ace0 dbb9 123a 313e
00000220: 0d87 783e ca32 3d3e 2bba 363e 657c e53a
00000230: 6096 2cbe 4f4e 09be fa00 42be 965f 19be
00000240: 3100 0138 1335 74be 42a4 35be b4d7 2dbe
00000250: 7c94 93be e8ba 0d3a 6198 a13e 9459 a43c
00000260: f210 91be b5d1 debd c91f e5b9 2211 7e3e
00000270: eae7 ec3c 0bf0 34be 738a 48be 3433 0eb9
00000280: 071f 4fbd c80e 1cbd dfc5 16bc c8da f8bb
00000290: d553 db3b 6573 a0be 3eef aebd 751d b13e
000002a0: b526 523d 775b f138 cb14 5dbd 1f40 b2be
000002b0: 70d9 403d 3f4f a33e df37 13ba 4b23 5a3e
000002c0: 2849 5fbe 320b 813e 845e 1abe 3f1a 6739
000002d0: 35bd 173e 6de7 8a3e d175 dcbd 1ae5 50be
000002e0: 21b5 dc39 5cfe aa3b bb0f 093e 885b 853d
000002f0: 9820 4ebe bb12 6039 15fa a3bc 5f74 e9bd
00000300: ca17 bdbb f619 85bd 941b 933e 5f37 c63e
00000310: 21e4 43bb 2783 ba3d 0ca7 103d e74a 67ba
00000320: 4d4a 283e b80c f5bd d35d 2b3e a152 63be
00000330: dd5d 9737 40c6 57be 1158 ca3d b493 933e
00000340: 3deb a8bc 9cbb 75ba 3545 eebd 24af debb
00000350: dad9 cfbc 871a a43c 2769 9a3e 303d c9ba
00000360: ec1b 953e 7ca3 1ebe 48aa 91be f23d e5b9
00000370: 6893 ab3d 7a0b 8fbc f54e 893d 77ba f3bc
00000380: 6951 5c3e db6b fdbb 672c 313d 1d28 21bc
00000390: ae76 93bb afa4 203c 3485 4abe a070 09be
000003a0: 63de 81be 8a54 9a3c d1d9 833a 1c1b 083e
000003b0: cad3 cebd 42f0 5e3e 0e33 09be afce 083a
000003c0: 1838 54be 3bac 2f3e d436 5e3e 77d1 6bbd
000003d0: 057a 83ba 922f 9ebe e9eb e4bd 5590 9bbe
000003e0: aa84 2abe 145b 7bba c36f 383e 9bd7 b43d
000003f0: ac5b 5e3e baab 003e e2e0 a83a 8180 623d

layers.0.bias f4 [64]
-0.13482378 -0.12773713 -0.44772378 -0.10009997 0.045608524 -0.07200246 -0.326567 0.075092696
-0.20850793 -0.059834268 0.06718488 -0.120520405 -0.14446276 -0.4423931 -0.18474428 -0.1388535
-0.25630516 -0.18330254 -0.36065426 -0.18606424 -0.2731265 -0.095411725 -0.27915826 -0.09447299
-0.18602408 -0.45680952 -0.112824194 -0.19619264 -0.2168793 -0.035501525 -0.07605259 -0.03932389
-0.17817429 -0.096047215 -0.1458019 -0.18429604 -0.1778144 -0.3045458 -0.45276296 -0.49222422
-0.22583444 -0.18579404 -0.48854312 -0.0979322 -0.3349683 -0.21858813 -0.16323034 -0.21845756
-0.124027655 -0.11380189 -0.22354898 -0.11111588 -0.19236785 -0.18627635 -0.07574953 -0.040924422
-0.33287665 -0.058885705 -0.13717677 -0.039381087 -0.35822058 -0.14403105 0.09721057 -0.15325184
00000000: 3f0f 0abe 86cd 02be 0d3c e5be 3701 cdbd
00000010: 01d0 3a3d 0776 93bd ca33 a7be 33ca 993d
00000020: 1a83 55be c714 75bd 3a98 893d 67d3 f6bd
00000030: 0cee 13be 5981 e2be 9b2d 3dbe 9d2f 0ebe
00000040: 6e3a 83be a9b3 3bbe ada7 b8be a087 3ebe
00000050: 3dd7 8bbe 3967 c3bd d5ed 8ebe 0e7b c1bd
00000060: 197d 3ebe f0e2 e9be 5f10 e7bd b9e6 48be
00000070: 9b15 5ebe 0c6a 11bd 76c1 9bbd 1612 21bd
00000080: 5273 36be 67b4 c4bd 184d 15be 1ab8 3cbe
00000090: fa14 36be 6ded 9bbe 8cd0 e7be d004 fcbe
000000a0: 2541 67be cb40 3ebe 5322 fabe ad90 c8bd
000000b0: f780 abbe 91d5 5fbe db25 27be 57b3 5fbe
000000c0: 3602 febd f710 e9bd 06ea 64be b990 e3bd
000000d0: 14fc 44be 3abf 3ebe 9222 9bbd 5ea0 27bd
000000e0: cf6e aabe 2332 71bd 1178 0cbe 104e 21bd
000000f0: b068 b7be e07c 13be 5616 c73d 0dee 1cbe

layers.1.weight f4 [128, 64]
0.2566726 -0.07123251 0.04098138 0.077486016 -0.65258044 0.1370349 -0.13586657 -0.11345664
-0.016741274 -0.06627206 -0.58323455 -0.025700992 -0.057079814 -0.034686778 0.04464925 -0.15236388
-0.0797266 -0.10670408 -0.0145388665 -0.06517873 0.006563978 0.043332066 0.1311962 -0.28969735
-0.13042213 0.03887129 -0.09087624 -0.12711121 0.16626939 0.0061465674 -0.08331511 -0.0593521
0.04286881 -0.03890068 -0.07064562 -0.66278183 -0.0011854271 -0.018942403 -0.043848213 -0.049142025
0.6404327 0.25464645 0.07510437 -0.082990564 0.7395466 -0.06239757 0.18132414 -0.09247625
-0.08468605 0.24938498 0.6016924 -0.22370437 0.08407373 -0.32802773 0.048142042 -0.5916806
0.11948362 -0.5450283 -0.1540719 0.0060465834 0.23666577 0.25006008 -0.05764199 0.09600136
0.25992122 0.0863391 -0.03343421 -0.07178568 -1.2058653 -0.5331498 -0.63913643 -1.3716806
-0.3657927 -0.7207936 -0.84115005 -0.52354074 -0.810852 0.49424744 -0.22719306 -0.0069757756
-0.74950314 -0.11734271 -0.33095038 -0.03771969 0.03293668 0.3149952 -0.11297735 -0.12754636
-0.035441462 -0.10139015 -0.004737493 -0.16090174 -0.021979854 -0.002002868 0.13867022 -0.14192967
0.05366415 -0.05147176 -0.49574316 -0.006755629 -0.2758065 0.009990731 -0.15704985 0.20110796
-0.014627545 -0.015599344 -0.36508703 0.17106853 0.7266467 0.006968763 0.0025392598 0.023920504
-0.04551209 0.22523907 -0.07115001 -0.7665511 -0.7464308 -0.0016619244 0.007325671 0.005619259
-0.7464857 0.2566692 -0.2230218 0.03244647 -0.10714921 -0.04996135 -0.590746 -0.0077392356
-0.06577691 0.2314723 -0.04553867 -0.4064814 -0.43382907 0.046005774 -0.14869526 0.04989392
0.0105171455 -0.080732815 0.12100319 -0.4422556 0.15910868 -0.37246537 -0.03276672 0.031845205
0.17899707 0.085954435 -0.47703594 0.040064238 0.12660405 -0.14111128 -0.16967323 0.013472887
0.17330757 -0.22098258 -0.060691133 -0.07571822 -0.17779964 0.018379496 -0.10944632 -0.053027246
-0.058358394 0.07996884 -0.49822345 -0.101524174 0.11039512 0.12881753 0.12838085 0.011908387
0.12922493 0.1336367 -0.07037263 0.1454119 -0.014103794 0.021338811 -0.52006286 0.054009408
-0.023903597 -0.18061344 0.0023494565 0.15670887 -0.5233378 -0.016439036 -0.65458983 -0.17571019
-0.39281148 -0.04262301 0.19454549 0.04761995 -0.070733994 -0.10155604 0.14981732 -0.10425851
0.09180281 0.13237828 -0.046632513 -0.032098815 -0.15542988 0.110673964 -0.31990856 0.07671248
-0.08329287 0.033119693 -0.27324006 -0.27498177 -0.03670382 0.2575627 0.12860374 -0.3365066
-0.039617203 0.0027033521 0.072061874 0.018708132 -0.009676478 -0.14081457 -0.075617835 -0.30957484
0.027410628 0.37522453 -0.28321925 0.23868157 -1.2648989 -0.44440827 0.08545825 -0.47084382
0.007965055 -0.052306354 -0.21570338 -0.04423503 -0.17706385 -0.17829664 -0.073867954 0.05792488
0.022376237 -0.030820329 0.019205699 0.032737758 0.10468698 -0.029425351 -0.05044059 -0.016586384
0.004561107 -0.124723606 0.07301554 0.031851735 0.02515748 -0.186041 -0.007576052 -0.16139996
0.03910406 0.0041077104 0.3164742 0.02419641 -0.08223756 0.15943624 -0.43269956 -0.056633595
00000000: 976a 833e 5ae2 91bd 17dc 273d fdb0 9e3d
00000010: 830f 27bf e052 0c3e 9b20 0bbe f45b e8bd
00000020: ff24 89bc a5b9 87bd dc4e 15bf e38a d2bc
00000030: 86cc 69bd b913 0ebd 22e2 363d 4705 1cbe
00000040: b347 a3bd ab87 dabd 6d34 6ebc 6d7c 85bd
00000050: a316 d73b f77c 313d 4c58 063e 3653 94be
00000060: 618d 05be 8037 1f3d 521d babd 7129 02be
00000070: 8642 2a3e 2569 c93b 1da1 aabd 301b 73bd
00000080: 3597 2f3d 5256 1fbd a7ae 90bd 12ac 29bf
00000090: 5560 9bba 192d 9bbc 2f9a 33bd 2649 49bd
000000a0: 66f3 233f 0561 823e 52d0 993d f5f6 a9bd
000000b0: ed52 3d3f 9894 7fbd 09ad 393e 3064 bdbd
000000c0: e16f adbd c75e 7f3e 8308 1a3f c212 65be
000000d0: d92e ac3d 40f3 a7be 9730 453d 6178 17bf
000000e0: d4b3 f43d fa86 0bbf 06c5 1dbe 6b22 c63b
000000f0: 8358 723e e007 803e 021a 6cbd 5c9c c43d
00000100: 6514 853e 8ed2 b03d 4ff2 08bd 5f04 93bd
00000110: cb59 9abf 817c 08bf 729e 23bf 3b93 afbf
00000120: 2e49 bbbe ee85 38bf 9c55 57bf c406 06bf
00000130: ff93 4fbf 000e fd3e 4ca5 68be 0c95 e4bb
00000140: 70df 3fbf 6051 f0bd 5472 a9be f67f 1abd
00000150: 9de8 063d 0d47 a13e ab60 e7bd 839b 02be
00000160: 112b 11bd a4a5 cfbd f93c 9bbb 6dc3 24be
00000170: 180f b4bc 8d42 03bb 91ff 0d3e 0356 11be
00000180: f1ce 5b3d 0dd4 52bd 0cd2 fdbe 535e ddbb
00000190: 8236 8dbe 2ab0 233c add1 20be 3fef 4d3e
000001a0: 5fa8 6fbc 6494 7fbc b0ec babe 972c 2f3e
000001b0: 8505 3a3f 395a e43b b669 263b eff4 c33c
000001c0: e36a 3abd 12a5 663e 19b7 91bd b13c 44bf
000001d0: 1716 3fbf eed4 d9ba 2f0c f03b c321 b83b
000001e0: b019 3fbf 256a 833e d45f 64be 97e6 043d
000001f0: 0c71 dbbd 46a4 4cbd 213b 17bf 6a99 fdbb
00000200: 0bb6 86bd 1307 6d3e c286 3abd 541e d0be
00000210: d81e debe 8d70 3c3d 9243 18be 915d 4c3d
00000220: 1b50 2c3c 3f57 a5bd 85d0 f73d 536f e2be
00000230: 63ed 223e c8b3 bebe 6536 06bd 1e70 023d
00000240: 024b 373e e108 b03d 0e3e f4be 661a 243d
00000250: 7ea4 013e 7a7f 10be d2be 2dbe 62bd 5c3c
00000260: 8a77 313e 4249 62be 4497 78bd 2712 9bbd
00000270: 1c11 36be 9990 963c 6425 e0bd 1933 59bd
00000280: 3609 6fbd b4c6 a33d 2517 ffbe e8eb cfbd
00000290: d616 e23d bee8 033e 4576 033e 651b 433c
000002a0: 8a53 043e 0fd8 083e 871f 90bd dbe6 143e
000002b0: 9913 67bc bbce ae3c d722 05bf f838 5d3d
000002c0: 7ad1 c3bc bbf2 38be 57f9 193b 4a78 203e
000002d0: 77f9 05bf 28ab 86bc 3393 27bf 5fed 33be
000002e0: 961e c9be 7795 2ebd ef36 473e 230d 433d
000002f0: fcdc 90bd 9dfc cfbd b669 193e 7c85 d5bd
00000300: 1d03 bc3d 2c8e 073e bc01 3fbd 0c7a 03bd
00000310: 0329 1fbe 08a9 e23d 0ecb a3be 6f1b 9d3d
00000320: 7495 aabd 84a8 073d 1fe6 8bbe 69ca 8cbe
00000330: bf56 16bd 42df 833e b3b0 033e 984a acbe
00000340: a645 22bd b92a 313b 2d95 933d cc41 993c
00000350: 178a 1ebc b231 10be 86dd 9abd 9880 9ebe
00000360: 418c e03c 6e1d c03e 1d02 91be f168 743e
00000370: 35e8 a1bf 7b89 e3be bc04 af3d 7112 f1be
00000380: dd7f 023c 303f 56bd 59e1 5cbe ca2f 35bd
00000390: 3a50 35be 6593 36be 1548 97bd a442 6d3d
000003a0: 5f4e b73c ea7a fcbc 4555 9d3c 0718 063d
000003b0: 2166 d63d 6f0d f1bc cb9a 4ebd 2be0 87bc
000003c0: 5775 953b 176f ffbd 2c89 953d f776 023d
000003d0: 0f17 ce3c 8881 3ebe 8840 f8bb 0846 25be
000003e0: 942b 203d f999 863b e808 a23e 8d37 c63c
000003f0: 2a6c a8bd 4143 233e cc8a ddbe a1f8 67bd

layers.1.bias f4 [128]
0.015292966 0.039329603 0.018412013 -0.15222794 -0.050307512 -0.21603398 -0.16327877 -0.2823725
-0.046827883 -0.15030569 -0.059760667 -0.25940037 0.0050504194 -0.046354815 0.13407442 -0.026522141
-0.14097565 -0.017555632 -0.067619406 0.23715322 0.06927215 -0.17413893 -0.024513517 -0.041675128
-0.027411414 0.15347871 -0.16118287 0.056460384 0.036143433 0.16298924 -0.017531624 -0.13502347
0.059357554 -0.0580531 0.10410204 0.02488712 -0.057137765 0.017697547 0.40133658 -0.024678595
0.06746122 -0.01743485 -0.38778567 -0.13930467 -0.048984617 -0.078765556 -0.057834595 -0.18897007
-0.03388824 0.023242207 -0.06120612 0.013649879 0.20771497 -0.046755347 0.045190904 -0.040090833
-0.057561852 -0.07873792 0.096093826 -0.12672971 -0.0454909 0.1649118 0.11791866 -0.07224003
-0.08273015 0.1458045 -0.26034597 -0.024011768 0.14795426 -0.19824581 -0.070265174 0.014606981
0.02504791 -0.02973775 0.02393987 -0.30800584 -0.037607174 -0.022525148 -0.04088335 -0.19654115
-0.03397635 -0.16470619 -0.34331992 -0.036690388 0.117041886 -0.08379281 -0.13738301 -0.086717494
-0.02884697 0.25898743 -0.37772277 -0.033907868 -0.1385608 -0.1707481 -0.028094022 -0.044285454
-0.028678633 0.088070646 0.18432687 -0.07943094 -0.013595513 0.13378534 -0.21159238 -0.0990685
-0.35057497 0.03744332 0.14272603 -0.053993817 -0.032452736 -0.022954376 -0.011041526 -0.044692937
-0.03629736 -0.30733415 0.11187637 0.011882983 -0.044342637 -0.025259275 -0.07872515 0.058964137
0.1430306 -0.082525596 -0.040354706 -0.019379035 -0.21638873 -0.07711624 -0.048282664 -0.06386666
00000000: 598f 7a3c 1418 213d cad4 963c a4e1 1bbe
00000010: 400f 4ebd 0338 5dbe 8d32 27be 2193 90be
00000020: 98ce 3fbd bce9 19be 9ac7 74bd 20d0 84be
00000030: fd7d a53b 8cde 3dbd ce4a 093e f644 d9bc
00000040: ec5b 10be d4d0 8fbc 0b7c 8abd 4bd8 723e
00000050: 8fde 8d3d 7a51 32be 92d0 c8bc 8ab3 2abd
00000060: e78d e0bc 8629 1d3e 1f0d 25be 0143 673d
00000070: 230b 143d a7e6 263e 7b9e 8fbc 9843 0abe
00000080: e820 733d 16c9 6dbd 7333 d53d 13e0 cb3c
00000090: 4a09 6abd 72fa 903c fd7b cd3e c42a cabc
000000a0: 1c29 8a3d 88d3 8ebc d88b c6be e2a5 0ebe
000000b0: 18a4 48bd d64f a1bd f8e3 6cbd 5f81 41be
000000c0: 65ce 0abd 7166 be3c 45b3 7abd bea3 5f3c
000000d0: 3cb3 543e 8982 3fbd 191a 393d 4936 24bd
000000e0: fac5 6bbd 5941 a1bd d7cc c43d 6fc5 01be
000000f0: aa54 3abd a4de 283e 577f f13d 95f2 93bd
00000100: 6d6e a9bd c64d 153e 114c 85be 54b4 c4bc
00000110: 5281 173e f300 4bbe 30e7 8fbd 1e52 6f3c
00000120: 4631 cd3c 959c f3bc 8c1d c43c f1b2 9dbe
00000130: fb09 1abd a986 b8bc 4d75 27bd 1542 49be
00000140: c92a 0bbd bda8 28be a1c7 afbe a948 16bd
00000150: a8b3 ef3d 919b abbd 22ae 0cbe f198 b1bd
00000160: 7b50 ecbc 009a 843e e164 c1be fae2 0abd
00000170: e2e2 0dbe 97d8 2ebe 6f25 e6bc aa64 35bd
00000180: 74ef eabc 625e b43d 2fc0 3c3e b0ac a2bd
00000190: b7bf 5ebc 06ff 083e acab 58be 6de4 cabd
000001a0: 907e b3be 2b5e 193d c626 123e 9f28 5dbd
000001b0: 29ed 04bd d10a bcbc 84e7 34bc f10f 37bd
000001c0: 8aac 14bd e75a 9dbe 701f e53d d8b0 423c
000001d0: a0a0 35bd 8aec cebc a73a a1bd 6184 713d
000001e0: 9d76 123e 2e03 a9bd fa4a 25bd c8c0 9ebc
000001f0: 0295 5dbe 1fef 9dbd 0bc4 45bd 86cc 82bd

layers.2.weight f4 [64, 128]
-0.089220926 0.013155322 -0.18604779 -0.0730909 -0.16243547 -0.12936585 -0.03419751 -0.10980608
0.006896079 -0.034631077 0.039121445 -0.2587471 -0.2388206 -0.20273603 0.10098155 -0.051332336
-0.052573606 -0.044185236 0.0085715195 0.023313595 0.014170511 -0.03289797 -0.086956576 -0.0329835
-0.054321446 -0.20935191 -0.14071517 -0.014753205 0.033237457 0.108493835 -0.14617081 -0.057233926
-0.24195364 -0.09430019 -0.08311246 -0.099814765 -0.037130687 0.032607246 -0.035330266 0.09438987
-0.18654087 0.0034640592 -0.12167883 -0.108071804 -0.02574349 -0.2557609 0.039553132 -0.026614849
-0.027562406 -0.017308943 -0.06808333 0.08925866 -0.008766216 -0.0005720669 -0.026152227 0.014017957
-0.056170594 -0.024855463 -0.30297586 0.019101866 -0.0066600777 -0.07227302 -0.042320583 0.028499814
-0.1078197 0.021255651 -0.07620668 0.023417102 -0.15958251 -0.056484763 -0.07592573 -0.15957826
-0.15522724 -0.073947534 0.04484312 -0.18397051 0.026220439 0.025775889 -0.05281842 -0.13985881
-0.09204041 -0.15320958 -0.1574993 -0.037578948 -0.2647945 0.026380716 -0.07215622 -0.056537922
-0.05711384 -0.1898936 0.043119077 0.0007132067 -0.088813104 -0.01650178 -0.052611176 -0.022568535
0.038688462 0.021080889 -0.08937669 -0.07630329 0.20024917 0.025239963 -0.09118223 -0.07404861
-0.107922606 -0.016203985 0.029863816 -0.06912072 -0.06563242 0.0067641297 -0.07537326 -0.056077126
0.031399652 -0.012316305 -0.0936093 -0.047300734 0.04270376 0.032605115 -0.0698525 -0.020610051
0.008825332 0.0026766036 0.029350631 -0.022301493 -0.28420347 -0.016645037 -0.10071158 -0.07469993
-0.16003466 -0.0846923 -0.11362535 -0.09689869 -0.16090213 -0.13158296 -0.16132064 -0.0009009718
0.001851897 -0.10440832 0.059896305 -0.10344155 -0.14463031 -0.13580053 -0.1416023 -0.04772061
-0.07446583 0.053465124 -0.018672323 0.049594134 -0.16493951 0.0037505876 -0.11469546 0.031696208
0.006132717 -0.122898564 -0.0317078 -0.06122251 -0.06814319 -0.16126859 -0.09250108 0.13811877
-0.12178263 -0.15979066 -0.13931386 -0.1564056 0.0026953886 -0.09923107 -0.15423696 -0.05446735
-0.051139396 -0.041611753 -0.09262211 -0.17923789 -0.034802172 -0.15481615 0.012346256 -0.029565861
0.053765733 -0.07836846 -0.143963 -0.078397796 -0.13645567 0.06596384 -0.046234194 -0.046982706
-0.15937588 -0.13466187 -0.15193859 -0.10110376 0.056443155 -0.16228753 -0.15517902 -0.04998759
-0.06317557 -0.11755787 -0.063755676 0.0011298032 -0.05503014 -0.16343513 -0.124553286 -0.13919799
-0.12944445 0.04332938 -0.059170328 -0.11545309 0.044481765 -0.13515636 -0.17423557 -0.05998886
-0.0087888 -0.14126754 0.0022495927 0.018642135 -0.15850972 -0.15129559 -0.032459825 -0.17026293
0.036200315 -0.062658645 -0.16532631 0.026843209 -0.04891356 -0.14352727 0.019335307 -0.10034391
0.015463956 -0.13588585 -0.10783376 -0.17881836 -0.14716268 -0.0739475 -0.07795214 -0.058077984
0.06317289 -0.046749987 -0.08991837 -0.053938895 0.06126774 -0.031641047 -0.005053791 -0.12605979
0.014907865 -0.11693247 -0.028578134 0.018393053 0.0022749372 0.004716442 0.046473585 -0.116085835
-0.11915088 0.093203396 0.061250918 -0.07654288 -0.040140808 -0.13532054 -0.04788811 0.015620864
00000000: 76b9 b6bd 6b89 573c 5083 3ebe afb0 95bd
00000010: 7c55 26be 7b78 04be b012 0cbd 03e2 e0bd
00000020: 81f8 e13b 51d9 0dbd cf3d 203d 807a 84be
00000030: 638d 74be 099a 4fbe 6acf ce3d db41 52bd
00000040: 6c57 57bd 94fb 34bd 8f6f 0c3c 27fc be3c
00000050: 6e2b 683c 06c0 06bd 4a16 b2bd b519 07bd
00000060: 2a80 5ebd 5960 56be a317 10be 6db7 71bc
00000070: 0024 083d 0432 de3d cdad 15be 1f6e 6abd
00000080: b2c2 77be 7520 c1bd de36 aabd af6b ccbd
00000090: 5916 18bd 2d8f 053d 78b6 10bd 7a4f c13d
000000a0: 9204 3fbe 4505 633b c032 f9bd c054 ddbd
000000b0: 03e4 d2bc 18f3 82be 7702 223d 6207 dabc
000000c0: 8eca e1bc 7ccb 8dbc 466f 8bbd 3fcd b63d
000000d0: 2da0 0fbc c3f6 15ba 323d d6bc 93ab 653c
000000e0: 2313 66bd af9d cbbc a71f 9bbe 847b 9c3c
000000f0: c83c dabb e103 94bd 5958 2dbd 7178 e93c
00000100: 93d0 dcbd 5520 ae3c 3f12 9cbd 39d5 bf3c
00000110: 9969 23be 915c 67bd f37e 9bbd 7c68 23be
00000120: e4f3 1ebe ce71 97bd 6bad 373d c462 3cbe
00000130: 3fcc d63c f527 d33c 2158 58bd 2637 0fbe
00000140: af7f bcbd f9e2 1cbe 7f47 21be 62ec 19bd
00000150: 2593 87be 5f1c d83c a4c6 93bd 4f94 67bd
00000160: 34f0 69bd 7873 42be a19d 303d 7ef6 3a3a
00000170: a5e3 b5bd be2e 87bc d17e 57bd a6e1 b8bc
00000180: cb77 1e3d d4b1 ac3c 200b b7bd e644 9cbd
00000190: 1e0e 4d3e 0ac4 ce3c c0bd babd cca6 97bd
000001a0: 8706 ddbd 38be 84bc f6a4 f43c 2a8f 8dbd
000001b0: 4a6a 86bd a2a5 dd3b 4c5d 9abd 21b1 65bd
000001c0: ec9c 003d 54ca 49bc 3cb6 bfbd 6abe 41bd
000001d0: 23ea 2e3d f18c 053d d40e 8fbd 69d6 a8bc
000001e0: 2098 103c f569 2f3b bc70 f03c 9fb1 b6bc
000001f0: 1e83 91be 2c5b 88bc df41 cebd 47fc 98bd
00000200: 20e0 23be 2873 adbd 68b4 e8bd d272 c6bd
00000210: 87c3 24be afbd 06be 3d31 25be 322f 6cba
00000220: 5abb f23a 07d4 d5bd d455 753d 2ad9 d3bd
00000230: f819 14be 4b0f 0bbe 3100 11be b076 43bd
00000240: 8b81 98bd 3ffe 5a3d b3f6 98bc 3823 4b3d
00000250: e7e5 28be 6bcc 753b 74e5 eabd e2d3 013d
00000260: f5f4 c83b 3eb2 fbbd 0ae0 01bd 74c4 7abd
00000270: a88e 8bbd 9823 25be 3571 bdbd 026f 0d3e
00000280: 2c69 f9bd 2aa0 23be 4ba8 0ebe ca28 20be
00000290: 1ea5 303b a939 cbbd 4bf0 1dbe 2819 5fbd
000002a0: 8b77 51bd 1671 2abd a9b0 bdbd 238a 37be
000002b0: b98c 0ebd 2088 1ebe f347 4a3c 1b34 f2bc
000002c0: 7539 5c3d a57f a0bd 096b 13be 068f a0bd
000002d0: 09bb 0bbe 0d18 873d 1160 3dbd f070 40bd
000002e0: 6e33 23be cde4 09be ca95 1bbe 7d0f cfbd
000002f0: f030 673d b42e 26be 40e7 1ebe cabf 4cbd
00000300: 3162 81bd 2ec2 f0bd 5692 82bd e815 943a
00000310: 4967 61bd 8a5b 27be cb15 ffbd eb89 0ebe
00000320: 168d 04be 267a 313d 965c 72bd ab72 ecbd
00000330: 8332 363d 6e66 0abe cf6a 32be e1b6 75bd
00000340: e6fe 0fbc 70a8 10be e76d 133b 64b7 983c
00000350: 5f50 22be 3bed 1abe 98f4 04bd 6859 2ebe
00000360: c846 143d 2d53 80bd 4d4b 29be 4ae6 db3c
00000370: 9659 48bd d0f8 12be 1465 9e3c 1c81 cdbd
00000380: 885c 7d3c a925 0bbe f2d7 dcbd 291c 37be
00000390: d0b1 16be c971 97bd 5fa5 9fbd 2ee3 6dbd
000003a0: ca60 813d ea7c 3fbd 1f27 b8bd 08ef 5cbd
000003b0: e2f3 7a3d 0b9a 01bd 469a a5bb d115 01be
000003c0: 1e40 743c 4a7a efbd b11c eabc 07ad 963c
000003d0: 1d17 153b 628c 9a3b 165b 3e3d 69be edbd
000003e0: 6005 f4bd 6ce1 be3d 3ee2 7a3d 83c2 9cbd
000003f0: b06a 24bd 7891 0abe 5326 44bd a7ee 7f3c

layers.2.bias f4 [64]
-0.08306089 -0.09940871 0.217004 0.043863323 0.09395135 0.048710413 0.40533417 0.12768172
0.15784828 0.011794975 0.1733495 0.33487758 0.36421418 0.31369153 0.20482124 -0.035469066
0.29059178 0.14595404 0.124660894 0.03411092 0.47288412 0.28191796 0.073257826 -0.13988566
-0.31929412 0.12128233 -0.22541234 0.11667689 0.18038227 -0.30296364 0.13849504 0.30066028
0.0019963789 0.21376707 -0.7757695 -0.031107498 0.23804952 0.45767072 0.038850445 0.38375926
-0.02359413 0.27781194 0.2059726 0.49178132 -0.026531 -0.025759237 -0.010138897 0.17372577
-0.04787023 -0.74376374 0.2849867 -0.05440423 0.1598388 -0.04474079 -0.025529977 0.10981349
0.48860255 -0.004277194 0.36424837 0.07009828 0.087376446 -0.7496945 0.021621862 0.012644548
00000000: d41b aabd cb96 cbbd 4c36 5e3e 07aa 333d
00000010: 9169 c03d 9284 473d f687 cf3e ffbe 023e
00000020: fba2 213e b63f 413c 8882 313e 1375 ab3e
00000030: 487a ba3e 2d9c a03e a9bc 513e 0348 11bd
00000040: 72c8 943e fa74 153e 364e ff3d e4b7 0b3d
00000050: de1d f23e 8d57 903e 3308 963d 303e 0fbe
00000060: 857a a3be df62 f83d 7ed2 66be 4bf4 ee3d
00000070: 21b6 383e 0d1e 9bbe a5d1 0d3e 25f0 993e
00000080: aed5 023b c1e5 5a3e d498 46bf 27d5 febc
00000090: 41c3 733e d153 ea3e a521 1f3d 187c c43e
000000a0: 7a48 c1bc 5e3d 8e3e 7bea 523e c3ca fb3e
000000b0: 8a57 d9bc 0905 d3bc 9e1d 26bc 2be5 313e
000000c0: 9313 44bd 4d67 3ebf c7e9 913e f8d6 5ebd
000000d0: c8ac 233e 1e42 37bd 3e24 d1bc e5e5 e03d
000000e0: 1d2a fa3e b427 8cbb c37e ba3e b08f 8f3d
000000f0: 6cf2 b23d fbeb 3fbf 5520 b13c 142b 4f3c

output_layer.weight f4 [1, 64]
-0.056384366 -0.013982736 0.0957961 0.007022856 -0.30331922 0.32652983 -0.19576527 0.19320573
-0.077439435 -0.003616617 0.14721859 0.1412366 0.17227726 -0.16583896 -0.09467378 0.026232883
0.11435835 -0.14557716 0.2846918 -0.027572682 0.2533017 -0.114388905 -0.13826549 0.011219102
0.00087491865 -0.18400253 -0.00062595675 -0.14250903 0.21974301 -0.010585624 0.36309856 0.11051568
0.003712298 0.091760024 0.6510803 0.008326156 -0.1315467 -0.23059787 -0.0044307965 0.1502287
0.014452991 -0.123460144 0.07979879 -0.28492644 0.013697445 -0.019098219 -0.0016334887 0.084114835
-0.0010997476 -0.42426288 -0.1655263 -0.012766031 -0.08410026 -0.0072022886 0.027094718 -0.13948472
0.24247417 -0.0047990056 -0.14253709 0.0073487493 -0.012387036 -0.48791692 -0.0015263016 0.0022287052
00000000: 4bf3 66bd d817 65bc bf30 c43d fc1f e63b
00000010: a84c 9bbe eb2e a73e b176 48be b9d7 453e
00000020: 9198 9ebd c404 6dbb 78c0 163e 54a0 103e
00000030: 7369 303e b0d1 29be 54e4 c1bd 58e6 d63c
00000040: b634 ea3d 2e12 15be 20c3 913e 1be0 e1bc
00000050: c3b0 813e bb44 eabd 7895 0dbe 53d0 373c
00000060: cc5a 653a 296b 3cbe 3f17 24ba e3ed 11be
00000070: 5004 613e 536f 2dbc 0ee8 b93e 0b56 e23d
00000080: 074a 733b aeec bb3d 33ad 263f 6e6a 083c
00000090: 2eb4 06be d921 6cbe 3730 91bb 8dd5 193e
000000a0: 3dcc 6c3c acd8 fcbd 8c6d a33d e1e1 91be
000000b0: 406b 603c de73 9cbc c91a d6ba 6644 ac3d
000000c0: 6825 90ba fc38 d9be ba7f 29be 9d28 51bc
000000d0: c23c acbd 2d01 ecbb bef5 dd3c 15d5 0ebe
000000e0: 264b 783e fa40 9dbb 3ef5 11be c7cd f03b
000000f0: fff2 4abc 3fd0 f9be 2f0e c8ba 780f 123b
