models/VolFrac.pt (torch, 14409 bytes, 9 tensors)

weight f4 [10, 5]
-0.31385884 -0.45318687 -0.053499207 -0.76373476 0.04211837 -0.390316 0.23211138 -0.6966727
0.7074542 0.16501829 0.029072503 -0.45024502 0.45723578 -0.88046384 -0.013723508 -0.50047356
-0.037737966 0.18890466 -0.053210255 -0.03242912 -0.24513349 -0.2566747 -0.5336697 -0.4237949
0.033662267 0.30138978 -0.03913623 0.53270507 0.17520818 0.013251773 -0.02717036 -0.3783674
0.014721414 0.28314203 -0.0068259733 -0.47299606 0.038504675 0.102011174 -0.10434472 -0.04848426
-0.14921226 -0.017208816 -0.19495581 0.18532994 -0.41905576 -0.15668793 0.31760135 0.19313121
0.6965522 0.065448634
00000000: 1bb2 a0be 1c08 e8be fc21 5bbd 1f84 43bf
00000010: 5084 2c3d 80d7 c7be 9bae 6d3e 2459 32bf
00000020: b81b 353f 8efa 283e 7529 ee3c 8486 e6be
00000030: cf1a ea3e 1466 61bf 91d8 60bc 091f 00bf
00000040: 2093 1abd 3970 413e fff2 59bd 66d4 04bd
00000050: 4604 7bbe de6a 83be 949e 08bf a5fb d8be
00000060: 72e1 093d c34f 9a3e 504d 20bd 5c5f 083f
00000070: c669 333e f71d 593c 6094 debc 5fb9 c1be
00000080: 1632 713c fef7 903e 6aac dfbb 8a2c f2be
00000090: 14b7 1d3d 3ceb d03d afb2 d5bd 6e97 46bd
000000a0: 19cb 18be 81f9 8cbc 7fa2 47be 22c7 3d3e
000000b0: 7a8e d6be cd72 20be a59c a23e 30c4 453e
000000c0: 3f51 323f ef09 863d

bias f4 [10]
0.26487726 0.053623322 0.11274765 0.27341694 -0.022542972 0.039006658 0.072882205 0.13801984
0.21704851 -0.05138071
00000000: fe9d 873e 21a4 5b3d 3de8 e63d 4efd 8b3e
00000010: 0aac b8bc 72c5 1f3d 4443 953d 1355 0d3e
00000020: f741 5e3e 9474 52bd

weight f4 [10, 10]
-0.07345263 0.11612164 0.15062302 -0.23071702 0.36639255 0.3768321 0.48172805 0.60466987
-0.11014374 -0.3627614 -0.28163522 0.46444532 -0.026763497 -0.5119291 0.13442498 -0.29595095
0.41487285 0.48423585 -0.18663716 -0.015275706 0.03296393 -0.22781533 0.2396283 -0.10388683
-0.08907069 0.58778715 -0.35852793 0.15036233 -0.05020771 -0.30467007 0.29309797 0.06040562
0.3266283 -0.34756875 0.67515445 0.5906681 -0.30767715 0.037868064 0.11155394 0.78282386
0.26668677 0.14681132 -0.28626734 0.48562214 -0.36963406 -0.020819152 -0.25156763 0.0686598
-0.08684733 -0.07538424 -0.10445437 0.5629689 0.31688038 -0.10239958 -0.200173 0.41337296
-0.084733814 0.053086996 0.11525488 0.16373187 0.6222843 0.092550494 0.18560927 -0.079399884
-0.15335135 -0.34576055 -0.11071611 0.14441557 -0.3064806 0.066563934 -0.26411536 -0.033586927
0.23566712 -0.30695593 -0.16510132 -0.11484181 0.013110662 -0.11109255 -0.008878969 -0.075626455
0.5384547 0.33801723 0.4760981 0.2962919 -0.053711034 -0.15046237 0.24530579 0.026522698
0.021138046 0.026621249 0.17546962 0.68713576 -0.3677712 -0.2555393 0.24345598 -0.22348946
-0.21214508 0.35583982 0.234609 -0.21653019
00000000: 556e 96bd 2fd1 ed3d ec3c 1a3e 1541 6cbe
00000010: ce97 bb3e 23f0 c03e 0fa5 f63e a5cb 1a3f
00000020: 0b93 e1bd ddbb b9be 7e32 90be c7cb ed3e
00000030: 1f3f dbbc c90d 03bf b4a6 093e e286 97be
00000040: 376a d43e c3ed f73e d01d 3fbe f446 7abc
00000050: 3005 073d 6c48 69be 1f61 753e 9ec2 d4bd
00000060: b26a b6bd 3879 163f f990 b7be 95f8 193e
00000070: 9aa6 4dbd b7fd 9bbe f010 963e e26b 773d
00000080: d33b a73e 88f4 b1be ecd6 2c3f 0636 173f
00000090: dc87 9dbe 8b1b 1b3d 6476 e43d 2567 483f
000000a0: 2b8b 883e b555 163e a291 92be 77a3 f83e
000000b0: ad40 bdbe ed8c aabc 79cd 80be 829d 8c3d
000000c0: 03dd b1bd 0d63 9abd 2cec d5bd bb1e 103f
000000d0: 253e a23e dfb6 d1bd 27fa 4cbe 9fa5 d33e
000000e0: ec88 adbd c071 593d c00a ec3d 54a9 273e
000000f0: 064e 1f3f 1d8b bd3d 5b10 3e3e 689c a2bd
00000100: 2308 1dbe 8707 b1be 21bf e2bd ade1 133e
00000110: 06eb 9cbe ac52 883d 213a 87be 7292 09bd
00000120: b952 713e 5429 9dbe 5210 29be 2f32 ebbd
00000130: 1ace 563c 7e84 e3bd 1879 11bc 0be2 9abd
00000140: 2bd8 093f 9810 ad3e 21c3 f33e 92b3 973e
00000150: 1a00 5cbd cf12 1abe 7131 7b3e 2146 d93c
00000160: b229 ad3c ce14 da3c 4fae 333e 21e8 2f3f
00000170: 824c bcbe 0cd6 82be 864c 793e 6cda 64be
00000180: 8f3c 59be a330 b63e 573d 703e 17ba 5dbe

bias f4 [10]
-0.14128922 0.34469965 -0.10730401 -0.16750896 0.15319274 -0.07029339 -0.07393007 0.35816103
0.30417535 -0.16124551
00000000: 1fae 10be 797c b03e 34c2 dbbd 7887 2bbe
00000010: 8fde 1c3e fbf5 8fbd a668 97bd e260 b73e
00000020: dfbc 9b3e 8b1d 25be

weight f4 [10, 10]
-0.24419229 0.021713166 0.3252402 0.49114528 0.36179987 -0.15810022 0.030540546 0.45889926
-0.33621785 0.046347793 -0.08676592 -0.365094 0.05836407 0.052059278 -0.27838495 0.75547034
-0.13021675 0.43817854 0.482112 0.3268997 -0.60581845 0.43469992 -0.1680899 -0.5364011
-0.3077401 -0.13523735 0.41694126 0.2546857 0.558735 0.26796708 0.15280439 0.32609576
-0.1973739 -0.36463726 0.2096935 -0.3678847 -0.023331553 0.33709136 0.6163904 -0.43652633
-0.29012358 0.24271645 -0.21165968 -0.09979567 0.33302423 -0.4180867 -0.56039274 0.48515034
0.5584983 -0.33083037 0.51644343 -0.46093774 -0.58175725 0.25615996 0.080594905 0.042745497
0.0854061 0.1786946 -0.073193796 0.43194267 -0.11770599 -0.2897105 0.18615264 0.55096185
0.088407665 0.41326421 0.21788444 -0.33586314 0.04593133 0.4846222 -0.36794502 -0.1578176
0.32997426 0.6399291 0.056448072 -0.00095176423 -0.45019493 -0.23279096 0.36868125 -0.3397731
-0.0028872918 0.19228382 0.74002373 0.6219782 -0.21676219 0.50457376 0.2350165 -0.13281722
-0.13948031 -0.0125713125 -0.45933318 0.45902717 0.1411416 -0.28843042 0.31947958 -0.051583298
0.44145662 0.35744748 0.29085934 -0.40420276
00000000: 8b0d 7abe cfdf b13c e285 a63e 6577 fb3e
00000010: d53d b93e 06e5 21be 2b30 fa3c d8f4 ea3e
00000020: bf24 acbe 2fd7 3d3d 55b2 b1bd 9aed babe
00000030: 2a0f 6f3d 1c3c 553d 7988 8ebe 8166 413f
00000040: 8a57 05be f058 e03e 62d7 f63e 665f a73e
00000050: eb16 1bbf fd90 de3e c21f 2cbe 9551 09bf
00000060: 1c90 9dbe a97b 0abe 5379 d53e 2a66 823e
00000070: 4209 0f3f fb32 893e c178 1c3e 06f6 a63e
00000080: 621c 4abe bcb1 babe e5b9 563e 625b bcbe
00000090: d021 bfbc 3d97 ac3e c3cb 1d3f 6180 dfbe
000000a0: 148b 94be a98a 783e 51bd 58be ac61 ccbd
000000b0: 2782 aa3e 760f d6be e675 0fbf a065 f83e
000000c0: bff9 0e3f 9962 a9be a335 043f 0800 ecbe
000000d0: 0bee 14bf 6627 833e f10e a53d e715 2f3d
000000e0: 65e9 ae3d b8fb 363e a1e6 95bd 9727 dd3e
000000f0: d70f f1bd ef54 94be cc9e 3e3e d60b 0d3f
00000100: 140f b53d 5e97 d33e 191d 5f3e 41f6 abbe
00000110: 7e22 3c3d 6720 f83e 4a63 bcbe f09a 21be
00000120: 63f2 a83e 65d2 233f 1836 673d d17f 79ba
00000130: f37f e6be c160 6ebe cac3 bc3e bdf6 adbe
00000140: b838 3dbb 0de6 443e 3272 3d3f f739 1f3f
00000150: e8f6 5dbe bf2b 013f 2aa8 703e 3d01 08be
00000160: edd3 0ebe e8f7 4dbc b82d ebbe 9c05 eb3e
00000170: 6c87 103e 27ad 93be d492 a33e 0249 53bd
00000180: 9a06 e23e 5b03 b73e 84eb 943e aaf3 cebe

bias f4 [10]
0.25163904 0.14586724 -0.19617216 0.28529203 0.2571144 -0.26371035 0.07107735 0.011918648
-0.112433195 0.18943632
00000000: d5d6 803e 395e 153e 5be1 48be cc11 923e
00000010: 80a4 833e 0b05 87be 0091 913d 6f46 433c
00000020: 6043 e6bd 98fb 413e

weight f4 [10, 10]
0.50304866 -0.13303298 0.13582951 0.3394541 0.34836915 -0.7670107 0.058121268 -0.05511948
-0.42625794 -0.18271077 0.26986217 0.69889957 0.6135003 0.20399708 -0.5792492 0.05446609
0.53916156 0.5895971 0.6721355 -0.056478508 -0.2713661 0.069409594 0.05572687 0.10153049
0.02669669 -0.22479975 -0.31773946 -0.058434773 0.15041214 -0.3398535 0.08082843 -0.17841329
-0.04406485 0.20268469 0.1800652 -0.064445965 -0.110897586 0.35690165 -0.29950342 -0.06175031
0.5209097 0.5682456 0.055914346 -0.21075454 0.124878526 -0.7957035 -0.23593485 -0.13829012
-0.3313849 0.40967536 -0.277739 0.32767886 -0.21039394 0.2126328 -0.44420898 -0.051812936
0.0047621056 -0.09488938 0.02672782 0.61825866 0.16533917 -0.20711467 -0.2453627 0.44674438
0.2314596 -0.3709768 0.18539764 -0.252191 -0.15796475 -0.07670609 0.714367 0.4459139
-0.39660552 0.55073106 0.39729208 -0.7763108 -0.49762252 -0.0559807 -0.6005558 -0.06455126
0.039552867 0.24735397 0.35258096 -0.22733529 -0.29440603 0.70701975 0.23424341 -0.10235385
0.6504615 -0.32863954 -0.07982281 -0.042804003 0.0026610107 0.16390184 -0.10901313 -0.08916127
0.02824327 0.0034702225 -0.018278511 -0.09340264
00000000: ccc7 003f cc39 08be e416 0b3e eecc ad3e
00000010: 715d b23e d05a 44bf 9110 6e3d f7c4 61bd
00000020: 7b3e dabe 8818 3bbe 602b 8a3e 15eb 323f
00000030: 5b0e 1d3f 9ce4 503e ad49 14bf d617 5f3d
00000040: 7e06 0a3f d6ef 163f 1211 2c3f 0256 67bd
00000050: 7ff0 8abe 9e26 8e3d dc41 643d 38ef cf3d
00000060: 04b3 da3c e831 66be bfae a2be 4d59 6fbd
00000070: a405 1a3e 4701 aebe 6089 a53d f9b1 36be
00000080: 587d 34bd 938c 4f3e 0363 383e 3ffc 83bd
00000090: 461e e3bd d0bb b63e 8358 99be e5ed 7cbd
000000a0: 575a 053f 8b78 113f 7106 653d 0ad0 57be
000000b0: 50c0 ff3d 39b3 4bbf e898 71be ed9b 0dbe
000000c0: 48ab a9be f8c0 d13e ce33 8ebe 86c5 a73e
000000d0: 8271 57be 6abc 593e 5c6f e3be cd39 54bd
000000e0: 700b 9c3b 5d55 c2bd 4df4 da3c 3346 1e3f
000000f0: ac4e 293e de15 54be 5c40 7bbe aebb e43e
00000100: bf03 6d3e acf0 bdbe e1d8 3d3e 2e1f 81be
00000110: 83c1 21be 1518 9dbd c1e0 363f d44e e43e
00000120: e10f cbbe b6fc 0c3f de69 cb3e 4ebc 46bf
00000130: 61c8 febe 054c 65bd 06be 19bf 7333 84bd
00000140: 3002 223d 5c4a 7d3e 7e85 b43e 95ca 68be
00000150: 63bc 96be 3fff 343f 81dd 6f3e e59e d1bd
00000160: a584 263f 7143 a8be 247a a3bd 4053 2fbd
00000170: 5a64 2e3b e2d5 273e 4742 dfbd 2f9a b6bd
00000180: 6e5e e73c ac6c 633b d1bc 95bc e249 bfbd

bias f4 [10]
0.21942793 0.025163196 0.13679942 0.08470429 0.2383257 0.1752641 0.15250528 0.15817514
0.10020745 0.0476838
00000000: b7b1 603e 0c23 ce3c 2615 0c3e 7179 ad3d
00000010: a70b 743e 6f78 333e 582a 1c3e aaf8 213e
00000020: 9039 cd3d 1750 433d

weight f4 [1, 10]
0.40927994 -0.42853618 0.707458 -0.417818 0.41895878 0.4463888 0.8873995 0.6015328
-0.6511297 0.42684773
00000000: 248d d13e 1869 dbbe f81b 353f 3eec d5be
00000010: c481 d63e 138d e43e 9d2c 633f 0efe 193f
00000020: 70b0 26bf c98b da3e
